Nengo-Autoencoder/keras_to_loihi_params_15epoch.npz (npz, 683955 bytes, 9 tensors)

arr_0 f4 [128, 768]
-0.054600723 -0.08356434 -0.069461 -0.19843331 -0.1720937 -0.0670411 -0.28680766 -0.0058621913
-0.12647499 -0.07784773 -0.072910175 0.0021422952 -0.10086754 -0.057725236 -0.18969029 0.33212593
-0.16317552 0.022227459 -0.0685866 0.017017692 0.023687383 -0.27402604 -0.36791524 0.06138085
0.066945754 -0.044092525 -0.054583862 -0.012143994 -0.040259164 -0.19901407 0.013375062 -0.017074455
0.001831755 -0.009124979 0.31427607 0.021260718 0.047689155 0.20984092 -0.155535 -0.13332173
0.0045443177 -0.073617406 0.05636969 0.0385385 0.26466444 0.023818873 0.06050119 -0.028090395
0.0034025332 -0.29619443 0.06337723 0.026864886 0.30976576 0.028438238 -0.16872542 0.07642104
-0.06775102 -0.048845254 -0.0063562095 0.06490173 0.1907071 -0.2368113 0.06695775 -0.0845782
-0.08713157 0.07959171 0.009493989 -0.06679869 0.20264308 -0.28841788 0.055483103 0.035163302
-0.12549585 0.020536572 -0.16706733 -0.07968976 0.02555374 0.008089351 -0.0019124139 -0.11244862
-0.31926018 -0.22645688 -0.039526902 -0.4475142 -0.06481732 -0.07157028 -0.0061788005 -0.021792348
-0.07847946 -0.06046712 -0.23370774 0.2231331 -0.009836271 0.04528571 0.030407384 -0.4716807
-0.20532133 -0.24690242 -0.45509234 -0.01765141 0.06679164 0.21716025 0.044309635 -0.19969119
-0.16708645 -0.070924886 0.010910284 -0.0072656297 -0.08030606 -0.061305087 -0.27411312 -0.036551077
-0.023504375 -0.0695946 0.2038767 -0.06160261 0.04381291 -0.021319406 -0.431487 -0.014808404
-0.015362042 0.009445618 0.040991165 0.07556772 -0.049043305 0.0042226687 0.008560941 -0.09451902
-0.14466298 0.035445876 -0.043306056 0.1455348 0.0066727283 -0.051111657 -0.1383669 -0.08514622
-0.055004418 -0.019811787 -0.6871133 -0.0024116337 -0.06876653 -0.042935766 -0.17665167 0.2661923
-0.0027669761 0.15783066 0.040869184 0.053371638 0.15184972 -0.25342736 -0.18487191 0.0062933043
0.058065 -0.01600691 -0.023552421 0.072919466 0.06896881 -0.32718578 0.04405815 -0.067698404
-0.0034215823 0.016848348 0.14222847 -0.07458596 -0.023608297 -0.1570166 -0.57337606 0.3474155
-0.06631942 0.012287676 0.06951578 0.07052466 0.12313022 0.017690212 -0.018042278 -0.005376272
-0.111877635 0.12377624 -0.077718236 0.06987891 -0.3031456 -0.07669854 0.078203544 0.1316933
-0.07181576 0.0014770615 -0.040819768 -0.07205925 -0.31077433 0.037428096 -0.029287288 0.13160297
-0.38223758 -0.051500138 -0.057701062 0.036565058 0.23277766 -0.3775098 -0.018489249 -0.061197758
0.029522251 -0.045163304 -0.096714124 0.04876323 0.07046358 -0.016103277 -0.070063576 0.03916376
-0.19305837 0.14030662 -0.050129723 -0.17960164 -0.07695201 0.16240793 -0.34718585 0.048398778
0.029556243 -0.05744632 0.17239346 -0.2535331 0.03413359 -0.057227664 0.03528703 -0.1017808
-0.042922623 0.087216206 -0.20481662 0.048427574 -0.021737054 -0.09240021 0.1080083 0.32274956
0.006939587 -0.004533313 -0.0081069125 0.15362968 0.047724605 -0.39295706 -0.052416243 -0.38138786
-0.039549824 0.0020095706 -0.03901644 0.230056 -0.13314588 -0.064043984 -0.07007156 0.028504996
0.026356399 -0.25754833 -0.048008103 -0.034034118 -0.18591258 0.018712759 -0.029075932 0.11476546
00000000: 02a5 5fbd c823 abbd 9241 8ebd 1a32 4bbe
00000010: 5539 30be d84c 89bd 74d8 92be a017 c0bb
00000020: a982 01be a16e 9fbd ee51 95bd c065 0c3b
00000030: a493 cebd 4c71 6cbd 2c3e 42be 690c aa3e
00000040: 7c17 27be 5c16 b63c 2277 8cbd b068 8b3c
00000050: 0b0c c23c 244d 8cbe 635f bcbe 7c6a 7b3d
00000060: db1a 893d 5d9a 34bd 5493 5fbd 9af7 46bc
00000070: cbe6 24bd 58ca 4bbe 1323 5b3c badf 8bbc
00000080: 8017 f03a f080 15bc cbe8 a03e f52a ae3c
00000090: b455 433d 8ae0 563e 9144 1fbe 7e85 08be
000000a0: 80e8 943b b9c4 96bd e7e3 663d 8cda 1d3d
000000b0: 1982 873e cc1f c33c 19d0 773d d41d e6bc
000000c0: 09fd 5e3b cca6 97be eccb 813d c013 dc3c
000000d0: 9e99 9e3e 4ff7 e83c 5bc6 2cbe a282 9c3d
000000e0: 0cc1 8abd f611 48bd c047 d0bb 33eb 843d
000000f0: b948 433e a97e 72be 2521 893d 5637 adbd
00000100: 0972 b2bd fa00 a33d ad8c 1b3c c0cd 88bd
00000110: ab81 4f3e 82ab 93be 4042 633d 6507 103d
00000120: fc81 00be 503c a83c b313 2bbe 6334 a3bd
00000130: 1456 d13c 3289 043c f6a9 faba 764b e6bd
00000140: 1276 a3be 50e4 67be f6e6 21bd 9520 e5be
00000150: f1be 84bd 7093 92bd 8977 cabb de85 b2bc
00000160: d7b9 a0bd 5fac 77bd 1551 6fbe 017d 643e
00000170: 5028 21bc 827d 393d e818 f93c 2280 f1be
00000180: c13f 52be fdd3 7cbe dd01 e9be b199 90bc
00000190: 0eca 883d 425f 5e3e 057e 353d d97b 4cbe
000001a0: b618 2bbe 1141 91bd 0cc1 323c 8514 eebb
000001b0: 8177 a4bd 0b1b 7bbd 8e58 8cbe 95b6 15bd
000001c0: 3f8c c0bc 9d87 8ebd 0ec5 503e 0553 7cbd
000001d0: 2a75 333d 09a6 aebc ddeb dcbe f39e 72bc
000001e0: 13b1 7bbc cbc1 1a3c 5ae6 273d 40c3 9a3d
000001f0: a2e1 48bd 505e 8a3b 3043 0c3c 3093 c1bd
00000200: 8822 14be b22f 113d b161 31bd 1307 153e
00000210: e7a6 da3b 755a 51bd 0db0 0dbe 2461 aebd
00000220: 504c 61bd 544c a2bc a8e6 2fbf 800c 1ebb
00000230: 77d5 8cbd 6add 2fbd 2de4 34be 5b4a 883e
00000240: 2856 35bb 5c9e 213e 7266 273d 389c 5a3d
00000250: 7e7e 1b3e 3bc1 81be 104f 3dbe 1038 ce3b
00000260: 91d5 6d3d ec20 83bc 02f1 c0bc cd56 953d
00000270: 853f 8d3d e584 a7be 5276 343d 76a5 8abd
00000280: a03c 60bb 8c05 8a3c 57a4 113e 86c0 98bd
00000290: 3066 c1bc f6c8 20be c6c8 12bf 72e0 b13e
000002a0: 7ad2 87bd 4052 493c 4a5e 8e3d 3c6f 903d
000002b0: b22b fc3d 10eb 903c 66cd 93bc 702b b0bb
000002c0: 1a20 e5bd 667e fd3d bd2a 9fbd ad1c 8f3d
000002d0: e635 9bbe 2014 9dbd 2e29 a03d 9cda 063e
000002e0: 2414 93bd f699 c13a a132 27bd cd93 93bd
000002f0: d01d 9fbe 344e 193d e5eb efbc eec2 063e
00000300: a5b4 c3be cff1 52bd f357 6cbd 3ec5 153d
00000310: 445d 6e3e f748 c1be c476 97bc 80aa 7abd
00000320: a6d8 f13c 28fd 38bd 0e12 c6bd f4bb 473d
00000330: 364f 903d 05eb 83bc 7e7d 8fbd 2e6a 203d
00000340: 18b1 45be 8aac 0f3e d354 4dbd 7ee9 37be
00000350: 0499 9dbd 444e 263e 58c2 b1be cc3d 463d
00000360: ef1f f23c d54c 6bbd e987 303e 17cf 81be
00000370: aacf 0b3d 8e67 6abd 2289 103d 7472 d0bd
00000380: a2cf 2fbd 699e b23d 73bb 51be fe5b 463d
00000390: e811 b2bc 523c bdbd 7533 dd3d 6e3f a53e
000003a0: 7a65 e33b 308c 94bb dbd2 04bc 1951 1d3e
000003b0: e07a 433d ab31 c9be 6ab2 56bd 4545 c3be
000003c0: fffe 21bd 00b3 033b b4cf 1fbd cd93 6b3e
000003d0: 6557 08be 7e29 83bd ae81 8fbd 4f83 e93c
000003e0: 60e9 d73c 60dd 83be 25a4 44bd 5c67 0bbd
000003f0: de5f 3ebe 804b 993c a630 eebc 270a eb3d

arr_1 f4 [8, 1, 64, 128]
0.02170953 0.013918613 0.14715838 0.05903212 -0.26995185 0.021248534 -0.048639894 0.069408536
-0.013129712 -0.019454097 -0.08906619 -0.07401224 0.1083212 -0.081921324 0.041671347 0.044972572
-0.14172263 0.025899084 0.06440789 0.028432252 -0.30013263 -0.1979772 -0.023432374 0.0053195185
0.027910763 0.014372796 -0.0068033794 -0.074329786 -0.054353263 -0.094786294 0.02957184 -0.0065538837
-0.0036731078 -0.06480794 -0.10986906 0.0037643441 -0.01291136 0.15174206 0.178585 -0.14016397
-0.048667833 -0.011310156 0.012711055 -0.04373708 -0.024462912 -0.043448385 -0.025782663 -0.011739411
0.092571065 0.055666793 -0.026090762 -0.019550119 -0.084242806 -0.034966514 0.14481159 0.026042724
0.040670857 0.026664145 0.029898753 -0.2028879 -0.06468053 -0.013013098 0.07733965 -0.11296265
-0.10400708 0.029795501 -0.01751842 -0.05584179 0.09679306 -0.11136329 -0.02190391 0.17247213
0.08153176 -0.055543095 0.14245212 -0.0049581085 0.03447185 0.09435353 -0.026391488 0.048375178
-0.15012236 0.09722286 0.019414205 0.23733206 -0.010168113 -0.06675818 0.020272644 -0.08054167
0.06260131 0.03658144 -0.18196292 -0.13372533 -0.16692252 -0.22275546 0.052821446 -0.034415923
0.10828741 0.036863755 -0.22434704 0.020217462 -0.093810976 -0.3200674 -0.07690309 0.030438306
0.19013031 -0.002013141 -0.017046854 -0.011853327 0.031059958 -0.08531093 0.009020376 -0.14172211
-0.037096128 -0.002934433 -0.1649716 -0.040285848 -0.21410976 -0.016154546 0.26668498 -0.044417456
0.046962213 -0.020666268 -0.06362907 -0.032684512 -0.11978568 0.085419364 0.013555622 -0.1825413
-0.25626725 -0.057227623 -0.06626872 0.13732545 -0.18776162 -0.01753628 -0.30264014 -0.46287084
0.11174379 0.0053421725 -0.022646632 -0.05817601 -0.04802546 -0.05209681 0.19216958 -0.072298236
0.11626084 -0.17515315 -0.072742 -0.040981337 -0.1689371 0.23601137 0.25743297 -0.014891436
0.015371536 0.030449001 -0.018216852 -0.059498746 0.021227194 -0.20793448 0.012572211 -0.016938062
0.0462956 -0.062154222 -0.3615022 0.35752428 -0.012830374 -0.13029177 0.021595012 -0.4093998
0.009388894 -0.015702447 0.011014843 -0.01212008 -0.1624877 -0.021812426 0.030712351 -0.03146235
-0.322074 0.09683075 -0.019359373 -0.05559763 -0.04204954 -0.012285112 -0.21990107 -0.026603939
0.03768608 -0.019779721 -0.09875149 0.008600969 -0.03586038 0.13232577 -0.2605483 -0.24758226
0.23194984 -0.048535082 -0.003694484 -0.0193798 -0.26301882 -0.45226413 0.0043932237 -0.17646337
0.15453121 -0.06624084 -0.35072556 0.017494157 -0.06417169 -0.1163588 -0.020974495 -0.12567459
-0.11137049 0.29514745 -0.06436033 -0.053486317 -0.006752204 -0.2192796 -0.081186056 -0.021343732
-0.096680745 -0.017412145 0.06471993 -0.10066429 -0.18961865 -0.08037775 0.0336546 -0.087424636
0.21516931 -0.028706213 0.0817551 -0.0807786 -0.035030738 -0.12717158 0.0054130508 -0.21454191
0.051469103 -0.06621682 -0.10641729 0.05709723 0.05270589 -0.091960914 0.08054395 -0.010865889
-0.055753123 -0.03528224 -0.09622551 -0.28609973 -0.34350687 -0.02617543 0.24951437 -0.04182146
-0.36452964 -0.038293283 0.037994135 -0.03964939 -0.23747262 8.237211e-05 -0.087817945 0.2232547
00000000: 2fd8 b13c e50a 643c b0b0 163e aacb 713d
00000010: 2137 8abe 6811 ae3c a03a 47bd 1026 8e3d
00000020: 011e 57bc 335e 9fbc 5668 b6bd bb93 97bd
00000030: 81d7 dd3d 5ec6 a7bd 93af 2a3d 2935 383d
00000040: bd1f 11be 512a d43c 49e8 833d c1ea e83c
00000050: fcaa 99be 89ba 4abe 40f5 bfbc 5b4f ae3b
00000060: 1da5 e43c e07b 6b3c e2ee debb 373a 98bd
00000070: 87a1 5ebd 511f c2bd a540 f23c f6c1 d6bb
00000080: 86b8 70bb 06ba 84bd 0803 e1bd 37b3 763b
00000090: 2b8a 53bc 4562 1b3e fcde 363e 2587 0fbe
000000a0: ec57 47bd 3c4e 39bc 0742 503c a725 33bd
000000b0: 7266 c8bc eff6 31bd 2a36 d3bc a956 40bc
000000c0: e695 bd3d dd02 643d 4bbc d5bc 9227 a0bc
000000d0: 7e87 acbd 0c39 0fbd 7d49 143e 8d57 d53c
000000e0: 7c96 263d c46e da3c 3bee f43c d8c1 4fbe
000000f0: 3a77 84bd e434 55bc 4064 9e3d f658 e7bd
00000100: aa01 d5bd b215 f43c ca82 8fbc 5cba 64bd
00000110: 713b c63d 7012 e4bd d46f b3bc 899c 303e
00000120: 20fa a63d 2881 63bd f8de 113e a177 a2bb
00000130: 5b32 0d3d 6c3c c13d f632 d8bc 0d25 463d
00000140: adb9 19be c71c c73d 8a0a 9f3c 2d07 733e
00000150: 2898 26bc 83b8 88bd d112 a63c 08f3 a4bd
00000160: 1e35 803d 6cd6 153d 7d54 3abe 4bef 08be
00000170: bded 2abe 021a 64be 4d5b 583d b6f7 0cbd
00000180: cac5 dd3d 73fe 163d 3bbb 65be 179f a53c
00000190: f81f c0bd e0df a3be 5e7f 9dbd c159 f93c
000001a0: 85b1 423e e7ee 03bb d8a5 8bbc 7534 42bc
000001b0: 7471 fe3c 7fb7 aebd 33ca 133c 9a1f 11be
000001c0: 1cf2 17bd 9e4f 40bb 51ee 28be c602 25bd
000001d0: 973f 5bbe 8a56 84bc ef8a 883e 14ef 35bd
000001e0: 735b 403d 4e4c a9bc f54f 82bd 32e0 05bd
000001f0: 3252 f5bd 59f0 ae3d 6618 5e3c 1bec 3abe
00000200: 7635 83be 8367 6abd e5b7 87bd 0b9f 0c3e
00000210: 9544 40be 3fa8 8fbc a6f3 9abe 68fd ecbe
00000220: eed9 e43d 640d af3b 6e85 b9bc f849 6ebd
00000230: 58b6 44bd 7763 55bd 1ac8 443e 1911 94bd
00000240: 2a1a ee3d 595b 33be c2f9 94bd 0cdc 27bd
00000250: d9fd 2cbe f7ac 713e 41ce 833e 36fb 73bc
00000260: e5d8 7b3c 2f70 f93c 823b 95bc f5b4 73bd
00000270: a7e4 ad3c c7ec 54be adfb 4d3c b1c1 8abc
00000280: 74a0 3d3d 6d95 7ebd d116 b9be 6c0d b73e
00000290: 7d36 52bc 356b 05be 06e8 b03c da9c d1be
000002a0: e0d3 193c 6ba2 80bc 9a77 343c 4d93 46bc
000002b0: 2d63 26be f9af b2bc 7898 fb3c aade 00bd
000002c0: e2e6 a4be 334f c63d 8c97 9ebc 57ba 63bd
000002d0: 233c 2cbd 7f47 49bc bf2d 61be 81f0 d9bc
000002e0: b85c 1a3d 1509 a2bc 393e cabd 14eb 0c3c
000002f0: 55e2 12bd 6880 073e 9666 85be 3486 7dbe
00000300: 4284 6d3e b9cc 46bd 281f 72bb 63c2 9ebc
00000310: 67aa 86be 2a8f e7be 08f5 8f3b d0b2 34be
00000320: 6e3d 1e3e 47a9 87bd 4d92 b3be e84f 8f3c
00000330: 726c 83bd 864d eebd b4d2 abbc d7b0 00be
00000340: 3616 e4bd 911d 973e 59cf 83bd 7814 5bbd
00000350: 9841 ddbb d58a 60be e044 a6bd 0dd9 aebc
00000360: 8e00 c6bd eaa3 8ebc e28b 843d 1429 cebd
00000370: 642b 42be 179d a4bd 68d9 093d b00b b3bd
00000380: 5855 5c3e 4b29 ebbc 386f a73d 406f a5bd
00000390: 647c 0fbd 4439 02be f65f b13b e0b0 5bbe
000003a0: 44d1 523d af9c 87bd 4ff1 d9bd c9de 693d
000003b0: 22e2 573d 0156 bcbd 3af4 a43d d706 32bc
000003c0: 635d 64bd 1c84 10bd e111 c5bd aa7b 92be
000003d0: 22e0 afbe db6d d6bc b280 7f3e fb4c 2bbd
000003e0: a1a3 babe 6bd9 1cbd bd9f 1b3d 6667 22bd
000003f0: 062c 73be 31bf ac38 e5d9 b3bd e19c 643e

arr_2 f4 [64, 128]
-0.048691362 -0.08701693 -0.12845588 0.11212845 0.05622435 0.08630334 0.038049668 0.08866958
0.00022818148 -0.041460827 -0.030051887 0.13367866 -0.05320603 -0.09535669 -0.027865507 0.04436817
-0.08666926 -0.074536 -0.12830435 -0.13565888 -0.08398986 -0.14365892 -0.13150178 -0.08609724
0.1404033 0.16744931 0.15472414 -0.17525297 -0.11140053 0.15977238 -0.20625867 0.09110062
-0.14591098 0.051280513 0.14606665 -0.11245201 -0.062051453 -0.14376828 0.14336953 0.12442503
-0.16842814 -0.17264956 -0.057214767 -0.101163626 0.12059097 -0.09733068 0.08615266 0.04183902
0.07664705 -0.046090066 0.0026985512 0.09291058 0.10801351 -0.09754583 -0.12761134 0.0286753
0.07266247 0.02179035 -0.057819355 -0.17583951 0.127852 -0.072034374 -0.1314586 0.02131404
0.03451589 -0.09614782 -0.001859612 0.10800968 0.10772043 -0.109934516 -0.09474173 -0.06411934
-0.024172446 -0.060583986 -0.2003913 -0.12821417 0.10866924 -0.10782993 -0.1577493 0.15430425
-0.14243478 0.121061526 0.028923318 0.107416555 -0.07186307 0.032665033 -0.104330964 -0.13059102
0.0827453 -0.12875731 -0.17263666 -0.22212036 -0.17334665 -0.07806213 -0.13570607 0.05348025
-0.04066469 0.14381401 0.16632758 -0.104021244 -0.07664302 -0.03458911 -0.1125439 -0.16087353
0.13233183 -0.015060839 -0.044345446 0.03453947 -0.120695636 0.10535393 -0.14734538 -0.16813312
-0.04257126 -0.20640266 -0.15735048 -0.15715665 0.1270465 0.09663688 -0.011466226 0.12881038
0.06325287 0.052377727 0.05169511 0.10576768 -0.008775383 -0.013536219 -0.110859275 0.040588304
0.1513542 -0.06367588 -0.034182515 -0.007325337 0.15747058 0.32699576 -0.036809072 -0.16439572
-0.060490813 0.16436201 -0.13886452 -0.005890798 -0.11045263 0.1250493 0.05012603 0.040109944
0.027655229 0.039159965 0.0812661 -0.09798367 -0.045258064 -0.0792344 -0.007605301 -0.27756512
-0.10629744 0.08298282 0.0998665 0.12975675 -0.19325218 -0.045368947 -0.053656884 -0.09281318
0.1275904 0.005600814 0.39805442 0.09480828 -0.10892247 0.14065899 0.13513154 0.32940853
-0.038920693 -0.05276104 -0.08544819 0.14001188 0.03840924 0.10897517 -0.07402913 -0.11513692
0.24802352 0.03212093 -0.108469486 -0.12516685 0.0559704 0.1633649 0.32226852 -0.27199
-0.1655929 -0.10520762 -0.13309401 0.07639472 0.06761662 0.15801343 0.24407357 -0.12402008
-0.06834606 -0.09819978 -0.13671868 0.11978116 -0.15802284 0.25225466 -0.029809855 0.10485078
0.0028218376 0.13142194 0.17244703 0.119839646 -0.16905284 -0.19239621 -0.15623026 -0.14708942
0.17590602 -0.06902053 -0.05768913 0.098605245 -0.1457149 0.09878103 0.18409447 -0.09313117
0.0038943538 0.067310736 0.025603997 -0.012978476 -0.008817416 -0.015946781 0.09178098 0.16259564
-0.08295489 0.07130239 -0.080426134 0.009182928 0.110578544 0.098268256 -0.20676775 -0.0071421615
-0.06813794 0.16893487 0.15941104 -0.09041995 -0.11213112 0.1392159 0.1364464 0.18448871
-0.071591966 0.1684349 -0.0926173 0.11757596 -0.089324586 0.112426445 0.107208945 -0.10388447
0.2606429 -0.08028265 0.107086174 0.116608314 -0.017010769 0.15003237 0.19009928 -0.0036049876
00000000: 9870 47bd ef35 b2bd f089 03be 9aa3 e53d
00000010: 814b 663d cebf b03d f8d9 1b3d 6698 b53d
00000020: 0044 6f39 d4d2 29bd 602f f6bc 0fe3 083e
00000030: 91ee 59bd 5e4a c3bd 3446 e4bc 66bb 353d
00000040: a77f b1bd 55a6 98bd 3762 03be 29ea 0abe
00000050: e002 acbd 531b 13be 67a8 06be c053 b0bd
00000060: e2c5 0f3e d577 2b3e 0170 1e3e 8475 33be
00000070: f625 e4bd 5f9b 233e 7935 53be f692 ba3d
00000080: b069 15be 840b 523d 7f92 153e 3d4d e6bd
00000090: aa29 7ebd fe37 13be 76cf 123e 8dd2 fe3d
000000a0: 6d78 2cbe 0ccb 30be 085a 6abd e02e cfbd
000000b0: 66f8 f63d 4f55 c7bd ce70 b03d 645f 2b3d
000000c0: 21f9 9c3d f0c8 3cbd 2dda 303b e747 be3d
000000d0: 3036 dd3d 1cc6 c7bd 8cac 02be 76e8 ea3c
000000e0: 10d0 943d ad81 b23c fdd3 6cbd 460f 34be
000000f0: a2eb 023e c286 93bd 159d 06be c89a ae3c
00000100: 8960 0d3d 26e9 c4bd 39be f3ba 2e34 dd3d
00000110: 879c dc3d 5925 e1bd f407 c2bd 0051 83bd
00000120: 4b05 c6bc ea26 78bd 6033 4dbe 934a 03be
00000130: fa8d de3d f0d5 dcbd 0889 21be ef01 1e3e
00000140: 6cda 11be 1bef f73d 98f0 ec3c 36fd db3d
00000150: f22c 93bd c5cb 053d 79ab d5bd a7b9 05be
00000160: 5e76 a93d f5d8 03be aac7 30be 8573 63be
00000170: c981 31be 0adf 9fbd 88f6 0abe 1b0e 5b3d
00000180: 0590 26bd fb43 133e c751 2a3e 1709 d5bd
00000190: 04f7 9cbd 50ad 0dbd 6b7d e6bd 08bc 24be
000001a0: ff81 073e bdc1 76bc 92a3 35bd 4279 0d3d
000001b0: 462f f7bd cdc3 d73d b5e1 16be 172b 2cbe
000001c0: 345f 2ebd 385b 53be 7c20 21be aced 20be
000001d0: 7a18 023e 8ee9 c53d d6dc 3bbc dee6 033e
000001e0: b98a 813d 078a 563d 40be 533d ba9c d83d
000001f0: a0c6 0fbc 04c7 5dbc 300a e3bd ec3f 263d
00000200: 98fc 1a3e 8068 82bd f702 0cbd 6109 f0bb
00000210: f83f 213e fd6b a73e 1cc5 16bd 5a57 28be
00000220: 37c5 77bd 844e 283e 8032 0ebe 9807 c1bb
00000230: fd34 e2bd ec0c 003e f450 4d3d 534a 243d
00000240: 388d e23c 3366 203d d76e a63d aaab c8bd
00000250: 8560 39bd a545 a2bd e435 f9bb 041d 8ebe
00000260: 79b2 d9bd e6f2 a93d cf86 cc3d f4de 043e
00000270: e6e3 45be cad4 39bd 52c7 5bbd d614 bebd
00000280: 0fa7 023e 0887 b73b cacd cb3e d82a c23d
00000290: be12 dfbd e908 103e ec5f 0a3e 3ca8 a83e
000002a0: 4e6b 1fbd f61b 58bd 76ff aebd 465f 0f3e
000002b0: 0253 1d3d 602e df3d 969c 97bd e8cc ebbd
000002c0: e1f9 7d3e 3c91 033d 4025 debd bd2b 00be
000002d0: 3841 653d 2149 273e 6100 a53e 4642 8bbe
000002e0: 2f91 29be 1877 d7bd cc49 08be d674 9c3d
000002f0: 957a 8a3d 46ce 213e 6cee 793e 3dfe fdbd
00000300: 05f9 8bbd f71c c9bd fbff 0bbe d34f f53d
00000310: bdd0 21be 8627 813e cc33 f4bc 01bc d63d
00000320: 94ee 383b 7993 063e f495 303e 7d6e f53d
00000330: 301c 2dbe 8303 45be d3fa 1fbe 9c9e 16be
00000340: b520 343e a35a 8dbd 704b 6cbd 8cf1 c93d
00000350: 4936 15be b54d ca3d 4383 3c3e 8ebb bebd
00000360: 6a38 7f3b 36da 893d 79bf d13c aca3 54bc
00000370: ec76 10bc d3a2 82bc abf7 bb3d 797f 263e
00000380: 41e4 a9bd fd06 923d 75b6 a4bd fe73 163c
00000390: 0177 e23d de40 c93d edba 53be cb08 eabb
000003a0: e78b 8bbd 43fd 2c3e a63c 233e 182e b9bd
000003b0: 00a5 e5bd 9d8e 0e3e 9bb8 0b3e 9cea 3c3e
000003c0: cf9e 92bd 337a 2c3e 24ae bdbd aacb f03d
000003d0: cfef b6bd d63f e63d 5d90 db3d 62c1 d4bd
000003e0: fc72 853e 3b6b a4bd ff4f db3d 57d0 ee3d
000003f0: 2b5a 8bbc 16a2 193e 63a9 423e a841 6cbb

arr_3 f4 [4, 1, 32, 64]
-0.07712274 0.034827832 0.11856574 -0.0047011874 0.050740507 -0.10658575 -0.044098128 -0.044182334
0.044534862 0.0070960885 0.09964585 0.003206074 0.10900334 -0.021282826 0.054425146 -0.010030935
0.0716393 0.027449735 0.12485524 0.10352438 0.0049439175 0.044817895 -0.02600702 0.04883454
0.07970906 0.13147347 -0.086624995 0.11200719 0.13900414 0.07891357 -0.06339422 -0.025509564
-0.10538993 0.013961468 0.04767169 0.07051553 0.02500308 0.029784814 0.047166567 -0.05694003
-0.14074428 0.019518312 0.117811345 0.010427163 0.110863775 -0.093307585 -0.013422767 0.052260146
0.08455798 -0.053186283 0.07538878 0.042771623 -0.012938874 0.048000526 0.03991987 0.07171291
0.026116375 -0.014521147 -0.07368266 -0.11428463 -0.0961475 0.062087744 0.19219716 -0.029850427
-0.0050013065 0.012791276 0.048710495 -0.0010600686 0.064692795 0.066708386 -0.027686954 0.038936973
-0.11354208 0.058042437 -0.039966375 0.007886529 -0.06808931 0.10816723 0.09217957 -0.089721024
0.024160385 0.09099379 0.109107584 -0.055342317 0.08664861 0.05254227 0.07483885 0.112454444
-0.07727119 -0.029809773 0.078712046 -0.0021218657 0.017896146 -0.027605474 -0.07588762 -0.0630016
0.12043804 0.09698528 0.119681954 -0.06956667 -0.112371504 -0.12296653 0.058722436 0.10744077
0.11270806 -0.012714565 -0.10492313 0.11145076 0.027763367 -0.11386269 0.03343472 0.09371778
0.07451728 0.0862765 0.085894674 -0.09898105 0.011245102 -0.082464665 0.039429277 0.09139028
-0.08608574 0.091160685 -0.0477539 -0.03370869 0.0029684901 0.12433356 -0.09656569 0.06328234
0.15492578 -0.30816934 -0.2742792 -0.22876371 -0.03408315 -0.099260956 -0.110296726 0.14670634
-0.06964005 0.026951145 -0.21502496 0.060371887 -0.4077511 -0.15597315 -0.39903566 0.118758045
-0.12166421 -0.17080899 0.07122582 0.03488228 0.16761583 -0.13123116 0.120579146 -0.3550901
-0.0022898717 -0.20413817 -0.114014864 -0.044511497 -0.1352647 -0.034568567 -0.16042003 0.033321526
0.07195402 -0.2135552 -0.11679411 0.16084526 0.023034692 0.2525721 0.04417593 0.061374146
0.19837798 0.1203241 -0.05647165 -0.08386709 -0.07773447 -0.04999617 0.382343 -0.061497238
0.07780825 0.12249144 0.021512983 0.15536603 0.014673269 0.18554032 0.01841484 -0.032416526
-0.14654438 -0.15004233 -0.031943817 -0.15145972 -0.12483126 -0.07217216 0.024840463 -0.07255817
0.022971123 -0.02786997 0.07858175 -0.0954417 0.059887767 -0.06504646 -0.008573085 0.009213626
-0.084218204 0.112938136 -0.09952015 -0.033459723 -0.04993421 0.029811025 -0.054554433 0.113535464
-0.09811059 -0.10272461 0.06310177 -0.069541395 -0.09148416 0.08688784 -0.1070447 -0.11276305
-0.05719456 -0.0038196445 -0.02638796 0.04960507 -0.056249708 0.10826644 -0.030495554 0.04210043
-0.09193346 -0.123841465 -0.012355179 -0.118391365 0.029322088 -0.047996968 -0.007556826 0.06673929
-0.027388662 -0.09237987 -0.11790615 -0.084545225 -0.06484997 -0.090803385 -0.06541902 0.030346245
-0.07470435 0.0897131 -0.07400957 0.10897067 -0.104100764 0.09801975 0.005012214 0.009673506
-0.015020281 -0.05287978 0.052921355 0.09798241 0.06279215 0.05081275 -0.11760488 0.009804785
00000000: 87f2 9dbd a1a7 0e3d 98d2 f23d 6b0c 9abb
00000010: 47d5 4f3d a149 dabd 3da0 34bd 89f8 34bd
00000020: 306a 363d 4e86 e83b 2013 cc3d ff1c 523b
00000030: 253d df3d 5259 aebc e7ec 5e3d ca58 24bc
00000040: a0b7 923d 44de e03c 1bb4 ff3d 9704 d43d
00000050: 9600 a23b f892 373d ad0c d5bc ba06 483d
00000060: 813e a33d fba0 063e 7268 b1bd 0764 e53d
00000070: 1a57 0e3e 709d a13d d4d4 81bd 6ff9 d0bc
00000080: add6 d7bd a4be 643c 6443 433d 726a 903d
00000090: 42d3 cc3c 48ff f33c bb31 413d f339 69bd
000000a0: 451f 10be dee4 9f3c 1347 f13d b1d6 2a3c
000000b0: 8c0c e33d 0c18 bfbd 2aeb 5bbc bc0e 563d
000000c0: bc2c ad3d dcd9 59bd 6f65 9a3d 4c31 2f3d
000000d0: 92fd 53bc 339c 443d 0583 233d 38de 923d
000000e0: 02f2 d53c 1bea 6dbc efe6 96bd 0f0e eabd
000000f0: fbe8 c4bd b84f 7e3d 55cf 443e e288 f4bc
00000100: 00e2 a3bb 8092 513c a884 473d 00f2 8aba
00000110: a87d 843d 689e 883d c0cf e2bc 607c 1f3d
00000120: c088 e8bd e8bd 6d3d c8b3 23bd 8036 013c
00000130: 6872 8bbd c886 dd3d a4c8 bc3d a8bf b7bd
00000140: 00ec c53c f45a ba3d cc73 df3d a0ae 62bd
00000150: d474 b13d 9036 573d 1c45 993d 844e e63d
00000160: 5c40 9ebd a033 f4bc c833 a13d 000f 0bbb
00000170: f09a 923c e024 e2bc f86a 9bbd fc06 81bd
00000180: 38a8 f63d 38a0 c63d d01b f53d f878 8ebd
00000190: 0823 e6bd e0d5 fbbd f086 703d e809 dc3d
000001a0: 7cd3 e63d c050 50bc f0e1 d6bd 4c40 e43d
000001b0: 0070 e33c d830 e9bd d8f2 083d 1cef bf3d
000001c0: 849c 983d bcb1 b03d 8ce9 af3d 94b6 cabd
000001d0: 603d 383c 3ce3 a8bd 9880 213d d42a bb3d
000001e0: b84d b0bd 74b2 ba3d 9899 43bd 2012 0abd
000001f0: 008b 423b 98a2 fe3d 3cc4 c5bd 2c9a 813d
00000200: dda4 1e3e 5fc8 9dbe 536e 8cbe 0941 6abe
00000210: c69a 0bbd 5449 cbbd 40e3 e1bd 303a 163e
00000220: 719f 8ebd a6c8 dc3c 812f 5cbe 8348 773d
00000230: c1c4 d0be 6db7 1fbe 674e ccbe 6b37 f33d
00000240: 162b f9bd 8de8 2ebe d8de 913d b9e0 0e3d
00000250: 7ca3 2b3e 7661 06be 33f2 f63d 5fce b5be
00000260: ac11 16bb 9909 51be a080 e9bd b051 36bd
00000270: d482 0abe c597 0dbd 2645 24be 277c 083d
00000280: a15c 933d 37ae 5abe c031 efbd 9fb4 243e
00000290: 40b3 bc3c 2151 813e d2f1 343d 7563 7b3d
000002a0: 9923 4b3e 7b6c f63d d14e 67bd 82c2 abbd
000002b0: 4033 9fbd c9c8 4cbd 76c2 c33e 87e4 7bbd
000002c0: ef59 9f3d cbdc fa3d ff3b b03c 4618 1f3e
000002d0: 2768 703c 48fe 3d3e b8da 963c 31c7 04bd
000002e0: bb0f 16be b2a4 19be 85d7 02bd 4218 1bbe
000002f0: 88a7 ffbd ffce 93bd 3a7e cb3c 6199 94bd
00000300: f02d bc3c 904f e4bc 78ef a03d f076 c3bd
00000310: e04c 753d 1437 85bd 2076 0cbc c0f4 163c
00000320: 987a acbd 1c4c e73d 38d1 cbbd 100d 09bd
00000330: d087 4cbd 4036 f43c 7874 5fbd 4885 e83d
00000340: 34ee c8bd 4861 d2bd 803b 813d b86b 8ebd
00000350: 0c5c bbbd 40f2 b13d 403a dbbd 50f0 e6bd
00000360: d844 6abd 0053 7abb 902b d8bc b02e 4b3d
00000370: 1866 66bd ccba dd3d d0d1 f9bc 8071 2c3d
00000380: 9c47 bcbd 98a0 fdbd 606d 4abc 2c77 f2bd
00000390: e034 f03c 7898 44bd 409f f7bb 9cae 883d
000003a0: 305e e0bc a831 bdbd c878 f1bd 0c26 adbd
000003b0: 10d0 84bd 20f7 b9bd 68fa 85bd b098 f83c
000003c0: 98fe 98bd 80bb b73d 5492 97bd 042c df3d
000003d0: c832 d5bd 94be c83d 803d a43b a07d 1e3c
000003e0: a017 76bc 7898 58bd 10c4 583d 00ab c83d
000003f0: 2c99 803d 0821 503d d4da f0bd 40a4 203c

arr_4 f4 [4, 1, 16, 32]
-0.026004642 0.056212 0.03635563 -0.15899953 0.025380556 -0.19794507 0.17180465 0.14635731
0.26912034 0.009022407 -0.19032733 -0.2155059 0.13165723 -0.0950246 -0.23346704 0.27673942
-0.18120438 0.21907043 -0.17474417 -0.084465005 -0.5379651 0.24786696 -0.22990742 0.19462033
-0.12655713 0.010058801 0.0054290923 0.22989404 0.43970394 0.10794524 -0.29544 0.025603013
0.003571868 -0.17487317 0.26160854 -0.0795032 0.0155741405 -0.11892328 0.014722985 0.105841495
0.17533648 -0.09704544 -0.038873598 -0.09246523 0.10616862 0.11021046 -0.2516502 0.12346146
0.24157368 0.14286657 -0.07299927 -0.16752373 0.16823599 -0.08513274 0.10282529 -0.3157294
0.16401546 -0.11819194 -0.09939706 0.022691377 -0.025940446 -0.26828077 0.25142637 -0.006143242
-0.10128271 0.17484544 0.010976252 0.09258567 -0.027865589 0.10055874 0.09699228 -0.039005816
-0.05192672 -0.04695372 0.025167733 0.105087146 -0.175026 -0.122748524 0.04308723 -0.07747648
0.1268691 -0.09457923 -0.090237625 0.094993636 0.1359418 0.10694666 -0.0124016255 -0.008456497
0.16154872 0.017468095 0.011578158 -0.086036555 0.09496288 0.07325785 -0.09028098 -0.01528126
0.041913178 0.05584869 -0.018027829 -0.16310713 -0.08997454 0.19348358 -0.1378927 0.06418063
0.04589043 0.09690445 -0.22734852 -0.15179925 -0.24096999 0.06409912 0.112911515 0.16665888
0.40770537 0.07649438 -0.15963756 0.015214655 -0.050379083 -0.24792998 0.0048123347 0.18646172
-0.34319323 -0.005805828 0.09855922 0.09282604 -0.16712828 0.1299042 -0.18511628 0.07630687
-0.095933996 -0.0677309 0.013352414 0.03036584 -0.18932101 0.2994126 0.14890036 0.13889724
0.12754095 -0.00048149662 -0.15727177 -0.18487321 0.017539514 0.040037975 0.04402267 -0.075597405
0.2077446 -0.058057982 -0.059860066 0.070117466 0.046490725 -0.06917949 0.19567914 0.26273024
-0.3628528 0.058348842 -0.049226537 -0.21419759 -0.29991737 0.011021722 0.18007824 -0.145268
0.08753272 0.00602998 -0.029749887 -0.04460791 -0.024178592 0.06742697 -0.0022871122 0.11205126
-0.03654116 0.016917054 -0.10527029 -0.013626018 -0.056448508 -0.14942548 -0.13776846 0.031495836
0.41045114 -0.057623643 -0.12545435 0.09614491 0.07615429 -0.25146157 0.029242998 0.260787
-0.34216884 0.08349994 -0.15051205 -0.06725089 -0.3667404 -0.076724425 0.084997766 -0.005562557
-0.14842205 -0.09540647 -0.11253514 -0.014468254 0.45229012 -0.4389963 0.0018610058 0.030460682
-0.39203778 -0.31966943 -0.12712133 -0.16750686 0.028647851 -0.10079434 0.5077235 0.09748558
0.29438236 0.39489126 0.046645693 -0.07193238 0.20966882 0.13304654 0.28066865 -0.016674938
-0.009625838 0.024387166 0.09993039 -0.33000845 -0.23747374 -0.31761175 0.2297168 -0.08473797
0.06597277 -0.03345789 -0.14030014 -0.014597729 0.100050576 -0.07035909 0.08926009 0.05556958
0.13686563 0.03067344 -0.14223562 0.005528037 -0.120534256 -0.066116676 -0.17281787 0.062036462
0.0035901035 -0.0056009013 -0.044071108 0.16456272 -0.056115292 -0.0034072914 -0.17747015 -0.045593385
0.0052840034 0.030604642 -0.023809409 -0.10937903 0.19460349 -0.19681855 0.14001593 0.08471061
00000000: b007 d5bc 8e3e 663d a4e9 143d c6d0 22be
00000010: e2ea cf3c 1db2 4abe 8fed 2f3e b1de 153e
00000020: 24ca 893e b8d2 133c 2be5 42be 94ad 5cbe
00000030: 27d1 063e 429c c2bd fc11 6fbe cab0 8d3e
00000040: a48d 39be 0054 603e 23f0 32be fdfb acbd
00000050: 15b8 09bf d6d0 7d3e da6c 6bbe 8d4a 473e
00000060: 3198 01be abcd 243c 87e6 b13b 5869 6b3e
00000070: e020 e13e 6512 dd3d e943 97be 69bd d13c
00000080: 0016 6a3b f411 33be 8ef1 853e 93d2 a2bd
00000090: ae2a 7f3c 0c8e f3bd ad38 713c 6dc3 d83d
000000a0: 688b 333e c2bf c6bd ec39 1fbd 695e bdbd
000000b0: ef6e d93d 06b6 e13d 4cd8 80be 5dd9 fc3d
000000c0: 175f 773e 9d4b 123e a480 95bd 578b 2bbe
000000d0: 0e46 2c3e 135a aebd 1196 d23d 49a7 a1be
000000e0: abf3 273e 9e0e f2bd b090 cbbd 44e3 b93c
000000f0: 0f81 d4bc 195c 89be f5ba 803e 404d c9bb
00000100: 4f6d cfbd af0a 333e bdd5 333c 8e9d bd3d
00000110: 6046 e4bc bef1 cd3d e3a3 c63d 90c4 1fbd
00000120: 1db1 54bd 8b52 40bd 902c ce3c ee37 d73d
00000130: 043a 33be 9463 fbbd 3c7c 303d fdab 9ebd
00000140: f9e9 013e c1b2 c1bd 81ce b8bd 068c c23d
00000150: 5434 0b3e da06 db3d 3030 4bbc 1f8d 0abc
00000160: 076d 253e 4019 8f3c 50b2 3d3c ef33 b0bd
00000170: e67b c23d 3608 963d 3ce5 b8bd 405e 7abc
00000180: 27ad 2b3d 99c1 643d 19af 93bc 8e05 27be
00000190: 9244 b8bd 8f20 463e be33 0dbe 2271 833d
000001a0: 9bf7 3b3d d775 c63d 0dce 68be 4371 1bbe
000001b0: d6c0 76be 6646 833d 273e e73d a0a8 2a3e
000001c0: c2be d03e 16a9 9c3d 0778 23be e346 793c
000001d0: 4c5a 4ebd 5be1 7dbe cab0 9d3b d2ef 3e3e
000001e0: 06b7 afbe d13e bebb 6bd9 c93d 941b be3d
000001f0: ad23 2bbe 9b05 053e 1f8f 3dbe c746 9c3d
00000200: 0b79 c4bd 80b6 8abd 15c4 5a3c c8c1 f83c
00000210: 5edd 41be 9c4c 993e 5679 183e 143b 0e3e
00000220: 189a 023e 6271 fcb9 da0b 21be 674f 3dbe
00000230: 07af 8f3c dcfe 233d 1d51 343d d0d2 9abd
00000240: 00bb 543e 35ce 6dbd d42f 75bd bf99 8f3d
00000250: 0f6d 3e3d faad 8dbd 1d60 483e 9484 863e
00000260: d8c7 b9be 32ff 6e3d c4a1 49bd 9d56 5bbe
00000270: c58e 99be 7494 343c 6e66 383e 22c1 14be
00000280: 5b44 b33d 2397 c53b 09b6 f3bc c9b6 36bd
00000290: 2f12 c6bc 2717 8a3d 60e3 15bb 227b e53d
000002a0: 2fac 15bd a295 8a3c f397 d7bd a93f 5fbc
000002b0: 8d36 67bd fe02 19be 2d13 0dbe c701 013d
000002c0: a726 d23e c506 6cbd 1b77 00be 9fe7 c43d
000002d0: c8f6 9b3d 92bf 80be 038f ef3c e085 853e
000002e0: c130 afbe 0402 ab3d d51f 1abe d6ba 89bd
000002f0: 66c5 bbbe b221 9dbd 4f13 ae3d 1c46 b6bb
00000300: f3fb 17be 7864 c3bd d378 e6bd 410c 6dbc
00000310: 9292 e73e 1fc4 e0be feec f33a ae88 f93c
00000320: 2db9 c8be b6ab a3be 182c 02be eb86 2bbe
00000330: e6ae ea3c 436d cebd 2bfa 013f 85a6 c73d
00000340: 49b9 963e 302f ca3e 8e0f 3f3d 4951 93bd
00000350: 6cb3 563e 5a3d 083e cdb3 8f3e e199 88bc
00000360: b1b5 1dbc 98c7 c73c 4ea8 cc3d def6 a8be
00000370: 512c 73be 029e a2be e13a 6b3e 1a8b adbd
00000380: bb1c 873d 240b 09bd d7aa 0fbe 502b 6fbc
00000390: 51e7 cc3d 6d18 90bd fecd b63d ee9c 633d
000003a0: 8126 0c3e de46 fb3c 37a6 11be 8924 b53b
000003b0: aada f6bd 2e68 87bd 2bf7 30be f219 7e3d
000003c0: f147 6b3b c487 b7bb e883 34bd 2183 283e
000003d0: 26d9 65bd dd4c 5fbb bcba 35be 21c0 3abd
000003e0: 6f25 ad3b 96b6 fa3c f30b c3bc 1d02 e0bd
000003f0: 2346 473e cd8a 49be 5660 0f3e c27c ad3d

arr_5 f4 [4, 1, 16, 16]
0.18659084 0.16917114 -0.023337677 0.21017139 -0.17238009 0.07273947 0.10273896 -0.0010222197
-0.20888716 0.087125346 0.068480834 0.18348517 0.027673021 0.059741095 -0.18332422 0.0054389983
0.009637498 0.09933963 0.119060285 0.07850209 -0.3260801 0.052814797 0.04409695 -0.0648921
0.09757954 -0.050729267 -0.055819586 0.06335281 -0.07928721 -0.1848007 0.15201376 0.4349055
-0.13667093 0.13079382 -0.1272931 -0.1832496 0.15957183 0.04935074 -0.041761898 -0.17307901
-0.038415946 0.09186524 0.07294677 0.1684977 -0.052595206 0.06436146 0.07722559 -0.18469472
-0.20260413 0.048222966 -0.1555427 -0.08842039 0.3452612 -0.20000762 -0.07710578 -0.013164335
0.071329094 0.2893336 -0.10216903 0.09723846 0.12038664 -0.3398055 -0.21496786 0.40847334
-0.0964055 0.028086253 0.040277842 0.16274628 -0.045888226 -0.051384788 0.16637076 -0.12446195
0.26992178 -0.24769975 -0.10065655 0.09942278 0.1412373 -0.22147267 0.22036593 0.078267165
0.045899533 -0.06860825 0.10500997 -0.25075004 -0.13427137 0.020843495 0.045062166 -0.04736724
0.11643962 -0.1930734 0.16462527 0.08931685 -0.18581899 -0.08130953 0.29150704 -0.016484376
0.1526034 0.04249002 0.1046751 0.20545892 -0.06160316 -0.060569793 -0.103664026 -0.19953665
-0.18270196 0.19614457 0.07338895 0.06645416 -0.02214837 0.12698151 -0.20131272 0.043875173
-0.5830298 0.3016957 -0.094419375 -0.13498269 -0.21435083 0.14299554 0.4591968 -0.1753423
0.25256115 -0.442643 -0.12844953 -0.121021 -0.008906774 -0.18835278 0.27973473 0.2650696
-0.10813279 -0.0009970865 0.053251043 -0.25033426 -0.08750332 0.18920198 -0.14138076 0.18488666
0.051061176 -0.22151035 -0.1546613 0.22329298 -0.12722126 0.1099186 0.12656765 0.28120837
-0.12789874 -0.14115569 -0.15822592 0.21022478 -0.027099807 0.21187651 0.18895009 -0.1860389
0.19673634 -0.115602486 -0.08036957 -0.042740427 -0.20596243 0.019801669 0.26179108 -0.09308383
-0.30307662 0.33928472 0.1190534 -0.10835429 -0.310582 0.24854398 0.45043913 0.19536816
-0.036971405 -0.33554292 0.100276306 0.11841812 -0.21592101 -0.18960029 0.18156238 0.31192103
0.13943775 0.07464896 -0.040148377 0.15786122 0.16900451 0.18132295 0.15574737 0.19023924
0.15828796 -0.20911118 -0.20847523 -0.18082131 -0.16073997 -0.03830491 -0.14175013 -0.040011227
0.34844366 0.09864778 0.11420702 -0.2927791 -0.31917086 -0.20421486 -0.2683205 -0.1545641
-0.4792043 0.1622158 0.2035062 0.15824647 -0.047740765 0.35319754 -0.22588943 -0.3060715
-0.00043711194 0.1721241 0.035686947 0.11037896 0.15900554 0.03517883 -0.106957294 -0.107035905
0.23955578 -0.027851112 -0.0409498 -0.24656688 0.18139678 0.06995739 0.063050814 -0.03103708
0.004001096 0.18876167 0.20085563 0.1271259 0.13976355 -0.026757136 0.12817843 0.044947878
-0.17727855 0.04230891 0.20605104 -0.15906994 0.18871047 -0.061162323 -0.013430834 0.0030608028
-0.20100862 0.07706565 0.004012213 -0.3098246 -0.080963545 -0.13753317 0.42669097 -0.2345126
-0.30075407 0.17017612 -0.18147713 0.034930184 0.11102724 0.049718212 0.095388636 0.307961
00000000: ab11 3f3e 333b 2d3e a82e bfbc 2b37 573e
00000010: 6884 30be 6ef8 943d ce68 d23d 00fc 85ba
00000020: 84e6 55be c66e b23d ae3f 8c3d 89e3 3b3e
00000030: 88b2 e23c 14b3 743d 58b9 3bbe a039 b23b
00000040: 99e6 1d3c 9372 cb3d e1d5 f33d b4c5 a03d
00000050: f9f3 a6be 5454 583d 019f 343d 26e6 84bd
00000060: c8d7 c73d 7ec9 4fbd 14a3 64bd 1ebf 813d
00000070: 5561 a2bd 653c 3dbe 7fa9 1b3e efab de3e
00000080: 77f3 0bbe d1ee 053e 1f59 02be c8a5 3bbe
00000090: cc66 233e 0024 4a3d 860e 2bbd a03b 31be
000000a0: 0a5a 1dbd d823 bc3d 1e65 953d a98a 2c3e
000000b0: 126e 57bd f1cf 833d 7328 9e3d 9d20 3dbe
000000c0: 7577 4fbe 7285 453d 9646 1fbe c015 b5bd
000000d0: 13c6 b03e ccce 4cbe a3e9 9dbd 39af 57bc
000000e0: fd14 923d 8923 943e ff3d d1bd f524 c73d
000000f0: 458d f63d fdfa adbe 8920 5cbe 6b23 d13e
00000100: 3f70 c5bd 2415 e63c 61fa 243d f6a6 263e
00000110: 4bf5 3bbd db78 52bd 195d 2a3e e8e5 febd
00000120: 3033 8a3e 01a5 7dbe 0525 cebd 2c9e cb3d
00000130: 83a0 103e bbc9 62be 9ba7 613e 894a a03d
00000140: 2601 3c3d 7b82 8cbd 780f d73d 4f62 80be
00000150: 6f7e 09be fabf aa3c 1b93 383d 2704 42bd
00000160: e577 ee3d 09b5 45be 8793 283e c1eb b63d
00000170: 5547 3ebe 9c85 a6bd 6940 953e 3e0a 87bc
00000180: 1144 1c3e 040a 2e3d e65f d63d d363 523e
00000190: 9853 7cbd 0818 78bd ce4d d4bd 5653 4cbe
000001a0: 3916 3bbe 1fda 483e f24c 963d 1e19 883d
000001b0: 8070 b5bc 7107 023e ec24 4ebe 74b6 333d
000001c0: 7141 15bf dc77 9a3e f25e c1bd e738 0abe
000001d0: c97e 5bbe 6c6d 123e d81b eb3e ef8c 33be
000001e0: b24f 813e 1aa2 e2be 4688 03be dcd9 f7bd
000001f0: b8ed 11bc 8ddf 40be 6439 8f3e 34b7 873e
00000200: b974 ddbd acb0 82ba c41d 5a3d d02b 80be
00000210: f134 b3bd 2abe 413e 1ec6 10be ee52 3d3e
00000220: 8625 513d 9cd3 62be 885f 1ebe eaa6 643e
00000230: 4a46 02be 011d e13d f39a 013e 8bfa 8f3e
00000240: e3f7 02be 1e8b 10be fa05 22be 2a45 573e
00000250: 6a00 debc 28f6 583e 227c 413e fb80 3ebe
00000260: 4075 493e ffc0 ecbd cd98 a4bd 9610 2fbd
00000270: d1e7 52be 1c37 a23c 7b09 863e bca2 bebd
00000280: dc2c 9bbe bab6 ad3e 45d2 f33d dbe8 ddbd
00000290: 9b04 9fbe 5082 7e3e f59f e63e 970e 483e
000002a0: 546f 17bd 48cc abbe aa5d cd3d 3385 f23d
000002b0: 661a 5dbe 9426 42be 7deb 393e 1db4 9f3e
000002c0: c5c8 0e3e 8ee1 983d a072 24bd 5fa6 213e
000002d0: 850f 2d3e b9ac 393e 3d7c 1f3e 13ce 423e
000002e0: 3d16 223e 3e21 56be 887a 55be 3929 39be
000002f0: 0599 24be 9ce5 1cbd f226 11be d0e2 23bd
00000300: 3567 b23e d907 ca3d 5fe5 e93d 24e7 95be
00000310: 5d6a a3be b31d 51be 4e61 89be 0d46 1ebe
00000320: 445a f5be e61b 263e ee63 503e 5d0b 223e
00000330: d28b 43bd 4fd6 b43e 8f4f 67be 67b5 9cbe
00000340: 2c2c e5b9 4d41 303e 7a2c 123d 5d0e e23d
00000350: 59d2 223e ad17 103d 6d0c dbbd a435 dbbd
00000360: 1c4e 753e 0428 e4bc faba 27bd 077c 7cbe
00000370: 14c0 393e d245 8f3d c920 813d 7941 febc
00000380: a01b 833b bd4a 413e 19ad 4d3e 4b2d 023e
00000390: 2d1e 0f3e c831 dbbc 3541 033e 441b 383d
000003a0: 8288 35be 1c4c 2d3d 0bff 523e 3be3 22be
000003b0: 513d 413e 5885 7abd 000d 5cbc c097 483b
000003c0: 34d5 4dbe 98d4 9d3d e278 833b 54a1 9ebe
000003d0: 37d0 a5bd 7fd5 0cbe 3d77 da3e 1224 70be
000003e0: 70fc 99be a642 2e3e 24d5 39be f412 0f3d
000003f0: 4062 e33d 53a5 4b3d 1e5b c33d 10ad 9d3e

arr_6 f4 [2, 64]
-0.19333531 -0.034616623 0.10535444 0.40130314 -0.44953397 0.0011525634 -0.5117323 -0.3632538
0.15182702 0.2740721 0.16512513 -0.05439175 -0.15141608 -0.25116357 0.115412176 0.19034225
-0.50684863 0.030637495 0.50117826 -0.24089336 -0.1512729 0.23139028 -0.22546217 0.0674407
0.049699243 -0.15612333 0.2427553 0.059511095 0.38082388 0.21182998 0.07781416 0.025680635
0.15302496 -0.6786148 -0.15777677 -0.16772221 -0.2578746 0.085272744 0.31410047 0.119020425
0.40390602 -0.21143731 0.02198184 -0.32337546 0.1388206 -1.0729066 -0.110811725 -0.11254584
0.098104954 0.070715815 -0.26116252 -0.1425592 -0.025247306 0.02411872 -0.04487521 -0.1439399
0.4356472 -0.27519676 0.29816929 0.2549027 -0.20721808 0.1842998 0.0007094548 -0.20549452
0.08679939 0.13732734 0.09131877 -0.40037265 0.47494498 -0.004553431 0.58800584 0.416272
0.149822 -0.46032643 -0.023126394 0.12866697 -0.14412437 0.28981662 -0.20702435 -0.18389113
0.509294 -0.1883142 -0.38542825 0.13826141 0.1722833 -0.10186 0.031052558 0.059712708
-0.22904976 0.0794355 -0.25742516 0.07560816 -0.36780703 -0.28846866 0.036080446 0.058361426
-0.15516244 0.6672517 0.18678087 0.20927168 -0.20376302 -0.08904956 -0.2681061 0.1334378
-0.2959942 0.17584004 -0.016039895 0.29462856 -0.24742214 1.0665107 -0.14696115 -0.13484944
-0.29505083 -0.002450816 0.14384478 0.08825408 -0.029731508 -0.018112184 -0.062265176 -0.16147248
-0.4488074 -0.1408252 -0.19491859 -0.22792135 -0.21803081 -0.22202758 0.19380549 0.14139442
00000000: b1f9 45be 29ca 0dbd 12c4 d73d 9b77 cd3e
00000010: 5129 e6be 9c11 973a e300 03bf 67fc b9be
00000020: 8b78 1b3e 2e53 8c3e 9016 293e e2c9 5ebd
00000030: d10c 1bbe 8398 80be 385d ec3d 14e9 423e
00000040: d5c0 01bf 7cfb fa3c 384d 003f c0ac 76be
00000050: 48e7 1abe 93f1 6c3e 8edf 66be 5a1e 8a3d
00000060: 6f91 4b3d cbde 1fbe d894 783e e8c1 733d
00000070: 59fb c23e f5e9 583e 085d 9f3d 3260 d23c
00000080: 93b2 1c3e b3b9 2dbf 3c90 21be 5fbf 2bbe
00000090: 2408 84be 7aa3 ae3d c7d1 a03e fbc0 f33d
000000a0: c5cc ce3e 0683 58be 4213 b43c 7891 a5be
000000b0: fd26 0e3e 0155 89bf 42f1 e2bd 6f7e e6bd
000000c0: 40eb c83d 74d3 903d 18b7 85be 0afb 11be
000000d0: 70d3 cebc 9f94 c53c 11cf 37bd fb64 13be
000000e0: 260d df3e 97e6 8cbe a5a9 983e 9b82 823e
000000f0: fa30 54be 16b9 3c3e b5fa 393a 286d 52be
00000100: e1c3 b13d 8a9f 0c3e 5605 bb3d a5fd ccbe
00000110: fd2b f33e f334 95bb 8d87 163f 9b21 d53e
00000120: f06a 193e e8af ebbe 9073 bdbc 46c1 033e
00000130: 5795 13be d862 943e 31fe 53be f54d 3cbe
00000140: 1761 023f 70d5 40be da56 c5be 6694 0d3e
00000150: 096b 303e fa9b d0bd ef61 fe3c 5095 743d
00000160: 058c 6abe 14af a23d 3bcd 83be 73d8 9a3d
00000170: 3451 bcbe 2ab2 93be 17c9 133d 640c 6f3d
00000180: e7e2 1ebe 02d1 2a3f 7c43 3f3e 514b 563e
00000190: 41a7 50be 9e5f b6bd 3445 89be eba3 083e
000001a0: 8d8c 97be 690f 343e 1966 83bc 8ed9 963e
000001b0: 3b5c 7dbe 6c83 883f fc7c 16be f915 0abe
000001c0: e710 97be df9d 20bb 0c4c 133e 8ebe b43d
000001d0: 7e8f f3bc 0160 94bc c509 7fbd 0b59 25be
000001e0: 15ca e5be 7b34 10be bd98 47be 3764 69be
000001f0: 7843 5fbe 335b 63be f274 463e b3c9 103e

arr_7 f4 [4, 1, 1, 16]
-0.087442115 -0.23779827 -0.024837445 -0.24064176 0.10990583 -0.022281308 -0.18086794 0.41924778
-0.16786532 0.10333998 0.43467805 -0.2526216 -0.33307984 -0.063872196 -0.050208673 -0.3337544
-0.23967738 -0.025266498 0.039372765 -0.10076919 -0.20156546 -0.32387698 -0.042848974 -0.15513834
-0.4679867 0.20092341 -0.0346822 -0.12526017 0.0062999935 0.014170301 -0.1004774 -0.2631641
0.17865217 -0.15022011 -0.266479 -0.20841026 -0.102189325 0.014582221 -0.29212505 0.07757117
0.26145336 0.010270929 -0.22121148 -0.049555063 0.0260457 -0.2376267 0.21600014 0.3850257
-0.26820403 0.2521296 -0.04730401 0.22968774 0.29017603 0.10482877 -0.13874914 -0.21259472
0.033709463 0.20044854 -0.1639103 -0.28081185 0.43737957 0.087481275 -0.24994585 0.07540832
00000000: da14 b3bd 6481 73be e677 cbbc cb6a 76be
00000010: 4f16 e13d 4a87 b6bc 7235 39be a5a7 d63e
00000020: e3e4 2bbe e9a3 d33d 1f8e de3e 9e57 81be
00000030: 7189 aabe 6dcf 82bd 9ca7 4dbd dbe1 aabe
00000040: fd6d 75be b0fb cebc 5645 213d 1460 cebd
00000050: 2d67 4ebe 34d3 a5be 6882 2fbd 96dc 1ebe
00000060: f49b efbe debe 4d3e ec0e 0ebd 3444 00be
00000070: 2d70 ce3b 8d2a 683c 18c7 cdbd 72bd 86be
00000080: 98f0 363e 4dd3 19be ef6f 88be 8069 55be
00000090: a348 d1bd 45ea 6e3c 6a91 95be a2dd 9e3d
000000a0: 37dd 853e 6647 283c 4385 62be 40fa 4abd
000000b0: cb5d d53c 6a54 73be 242f 5d3e 1722 c53e
000000c0: 0a52 89be 2217 813e d9c1 41bd 4333 6b3e
000000d0: f491 943e 77b0 d63d 4114 0ebe 6eb2 59be
000000e0: ef12 0a3d 6242 4d3e 1ad8 27be 92c6 8fbe
000000f0: 37f0 df3e 6229 b33d cef1 7fbe ad6f 9a3d

arr_8 f4 [2, 1]
0.47700074 0.4339596
00000000: 7139 f43e f42f de3e
