Nengo-Autoencoder/keras_to_loihi_params_25epoch.npz (npz, 685301 bytes, 9 tensors)

arr_0 f4 [128, 768]
000000 16 9b 87 3d 8c 0e 20 bc 87 c4 27 bd d7 e8 a4 bd
       0.06621377 -0.009769093 -0.040958907 -0.08052223
000010 56 e5 6a bd 9d bb 21 bd 41 61 3b bd 4d 42 3a 3c
       -0.057347618 -0.039485563 -0.045747045 0.011368346
000020 d3 d0 9d bd 44 f1 f8 bb e4 3b 80 bc fb 69 13 bd
       -0.07705846 -0.0075971205 -0.015653558 -0.035989743
000030 5d 98 6f bd 23 c2 e1 bd 88 f7 63 3d 1e 68 ae bc
       -0.058494914 -0.11023357 0.055655986 -0.021289881
000040 15 fe 55 bd 8e 9b 08 3d b4 da 84 3d 3a a3 98 bd
       -0.052244265 0.033351474 0.06487027 -0.07453008
000050 2f ef 02 3c d4 36 91 3d 38 e5 cf bc c9 50 32 bd
       0.007991596 0.07090536 -0.025377855 -0.043534074
000060 7d 4c b6 bc 15 97 09 bd 24 90 38 3d 6e e6 34 3d
       -0.02225327 -0.03359135 0.04505934 0.044165067
000070 67 49 01 3d f0 96 10 bc 23 ac 2b 3d 14 77 04 bd
       0.031564143 -0.008825049 0.04191221 -0.032340124
000080 b4 20 38 bd a4 a2 1f bd 7e 82 32 bc d1 b9 8f 3d
       -0.044953063 -0.038973466 -0.01089537 0.070178635
000090 f3 9b 82 3c da 30 f1 3c 40 85 21 3b ca 91 61 bd
       0.015943503 0.02944224 0.0024646074 -0.055070676
0000a0 14 4a de bb d5 6c 6f 3b fe 3b 5c 3c fb 53 69 3d
       -0.006783733 0.0036533375 0.013442038 0.056964856
0000b0 3c 93 af 3c 35 43 76 bd b9 a8 dc 3c 9b f8 fd bc
       0.021432512 -0.060122687 0.026935922 -0.031002333
0000c0 3e ce 61 bb 76 76 8a bd 8f 8b 24 bd 3c e4 dc bd
       -0.0034455205 -0.06760876 -0.040172156 -0.1078572
0000d0 1e a4 0c bd ac 23 26 bd f0 bb 8b b9 48 e1 88 3d
       -0.0343362 -0.040561363 -0.0002665217 0.06683594
0000e0 97 a8 bf bc ae 2b 8e bb c2 2f f8 3b 75 ad 80 bd
       -0.02339582 -0.004338703 0.0075740525 -0.06283084
0000f0 16 9f 27 3d a6 14 d2 bc 55 50 29 bd 0a 47 d4 bc
       0.0409232 -0.025644612 -0.041336376 -0.02591278
000100 73 05 9c 3d f8 95 8a bc fb 00 4c bc ba 25 67 3d
       0.07618227 -0.016917214 -0.012451406 0.056432463
000110 49 18 3f bc fb 23 07 be 9d 1e 04 bd b6 94 c6 3c
       -0.011663505 -0.13197319 -0.032255758 0.024240833
000120 0f 62 72 bd 63 ce 71 3d 0b c8 86 bd 47 3e 37 3d
       -0.059175547 0.059034716 -0.06581124 0.044737127
000130 28 8c 2b 3d 30 96 27 3c dd f0 9a 3c 51 9e 8d bd
       0.04188171 0.010228679 0.01891368 -0.06914962
000140 ed 8b ba 3d 13 d7 6d 3d 54 88 39 3d b2 72 0b bd
       0.0910872 0.05806644 0.04529603 -0.03404493
000150 94 4d 98 bc d7 57 4a 3a 63 21 73 3d 76 21 3e 3c
       -0.01859168 0.00077187776 0.059358012 0.011604657
000160 d9 3f 78 bc e2 fa ac bd b1 32 45 bd 78 04 ea 3c
       -0.015151941 -0.084462896 -0.048144046 0.028566584
000170 a9 c5 05 3d 54 35 a3 bd a0 eb 37 bd 6c d5 78 bc
       0.032659207 -0.07969156 -0.044902444 -0.0151876025
000180 c0 57 79 bd 78 d3 37 bd 6b c6 4b 3d d0 d0 f0 3c
       -0.0608747 -0.044879407 0.049749773 0.029396445
000190 a2 86 4b bd b0 1a 67 bb 8c 4b bb 3d c9 d8 f4 3c
       -0.049688943 -0.003526371 0.09145269 0.029888527
0001a0 65 0c 9c 3c 49 98 dc bc e4 bc e3 3c 11 b4 0b 3d
       0.019048879 -0.026928084 0.027800031 0.03410727
0001b0 03 94 bb 3c 5e c4 62 bb 35 d6 d0 3d 36 6e 8c bc
       0.022897726 -0.0034601907 0.10197107 -0.017142396
0001c0 1a 80 1d bd 6f 46 0c 3d f0 e6 82 3d 4f 5a 8b 3d
       -0.038452245 0.03424686 0.06391704 0.06804334
0001d0 8d 0e 5c 3d e8 1f bb 3c 28 f5 1c bd 72 b6 06 3d
       0.053724814 0.022842363 -0.038319737 0.032888837
0001e0 a1 96 06 bd cf de 42 bd 0c 42 7e 3d 28 10 78 bd
       -0.032858495 -0.047575768 0.062074706 -0.060562283
0001f0 05 3e 0a 3c 7d ce c2 bb 52 29 a7 bd 94 14 b5 3d
       0.008437638 -0.0059450255 -0.08162178 0.088418156
000200 ba 2d 6a bd 5c a6 e4 3b 3b ff a6 bc 48 35 65 bb
       -0.057172514 0.0069778394 -0.020385375 -0.0034974385
000210 0a 3b 0e 3d d3 1a a6 bd f1 9d 8f bd 71 17 5d bd
       0.034724273 -0.08110585 -0.07012547 -0.053977434
000220 aa 1a 7a bd 00 a4 db 3c 73 91 9f bd bd aa 09 3d
       -0.061060585 0.0268116 -0.07791414 0.033610094
000230 86 b2 00 bd e9 91 7e bb 54 1b 73 bd 00 00 73 b9
       -0.031420253 -0.0038844293 -0.059352234 -0.00023174286
000240 33 a7 05 3d e3 22 94 bd 0f 54 20 bd 1b cb d1 3c
       0.032630157 -0.072332166 -0.039142665 0.025609544
000250 64 6f 8d 3d 5a ee c4 bd 77 be 59 bd cd db eb bb
       0.06906012 -0.096157745 -0.053160157 -0.007197833
000260 fb 6e 9e bd 4d b1 be 3c 31 fd 4f bd cf 2d e7 bc
       -0.077360116 0.023277903 -0.05077857 -0.028220085
000270 88 b3 6f 3d 0b a6 8b bd 2f b9 c7 3c 53 38 ff bc
       0.058520824 -0.068187796 0.024380295 -0.031154787
000280 a0 21 6b 3d c9 bf 03 3c d7 4a a8 3d 93 b9 4e 3d
       0.057405114 0.008041331 0.082173996 0.050469946
000290 a9 87 ae bc 74 7e ab bd cc 73 a4 3c f3 00 c4 bd
       -0.021304922 -0.083737284 0.020074748 -0.095704935
0002a0 2e 54 90 3b 42 e8 5e 3d 57 87 86 bd 79 f0 59 3d
       0.0044045663 0.054420717 -0.06568783 0.05320785
0002b0 94 e4 e8 3c 1a 12 be bc 23 60 61 3d a8 41 55 bd
       0.028429307 -0.02320199 0.055023324 -0.052064568
0002c0 e3 bb 99 bd 77 17 ae bd c5 c2 53 bd d0 87 d4 bc
       -0.0750654 -0.08500569 -0.05169942 -0.025943667
0002d0 b3 8b f7 ba f9 9c 7a bd 2b ea 13 3c 2a 74 22 bd
       -0.0018886238 -0.061184857 0.009027998 -0.039661564
0002e0 06 e6 8e bd 64 59 56 bd d8 09 36 bc 8c 7c ca 3c
       -0.06977467 -0.052331343 -0.011110745 0.024717592
0002f0 b4 2c e7 bc d2 d1 08 3d ea b7 14 3d b5 e9 b6 bd
       -0.028219558 0.033403225 0.036308207 -0.08931295
000300 05 01 81 3d 50 00 06 be a3 ac 3b bd d1 12 84 3d
       0.062990226 -0.13086057 -0.045818936 0.064489014
000310 5f e5 27 bd f8 b8 ad bb 7a 1d 93 3d 81 f9 ff 3c
       -0.04099023 -0.005301591 0.071833566 0.031246902
000320 5e 25 9b 3d a8 8f 93 bd dd 47 f8 3c 1f 2c 29 bb
       0.075754866 -0.07205135 0.030307705 -0.0025813652
000330 d8 e1 67 bd 0f 2d 4b bb e3 97 9a 3d 7a f7 19 bd
       -0.056611866 -0.0031002199 0.07548501 -0.037589528
000340 b2 56 c9 bb 56 9c 58 bc 35 87 91 bd 65 37 7e bd
       -0.006144368 -0.013220867 -0.07105867 -0.062064547
000350 70 79 91 bd d8 ad f3 bb 77 e2 8c bc 5a b9 d6 3c
       -0.071032405 -0.0074364953 -0.01719783 0.02621143
000360 c0 c6 a5 bb 97 2d 50 bd 20 93 42 bc 6b 35 b4 bc
       -0.0050590932 -0.050824728 -0.011875898 -0.021998128
000370 ca 71 06 bd b5 30 1a bc bf 0a 13 bd df 5c 94 bd
       -0.03282336 -0.009411027 -0.03589892 -0.07244276
000380 d6 53 26 bc 3b 53 c7 bd 2c f5 23 3d ea b5 a2 3d
       -0.010151824 -0.09732672 0.040028736 0.079448536
000390 e1 a2 45 bc 0c 8a 5e bd 30 f1 97 bd 8e 2c 98 bd
       -0.012062759 -0.05433087 -0.0741905 -0.07430373
0003a0 42 dc 80 3d 2b 06 4e 3c 8d 2c 2a 3d cf 1b 85 3d
       0.06292011 0.012574713 0.041546393 0.06499445
0003b0 b3 f4 48 bd 2c 34 33 3d 37 c4 8d b9 7d da 93 bd
       -0.04906149 0.043750927 -0.00027039807 -0.07219408
0003c0 95 f4 e8 bd 11 3e a6 3d 70 7e 74 3d 46 ed 9c bd
       -0.11374775 0.08117307 0.059690893 -0.07662444
0003d0 d2 e7 b3 bd cb 94 81 bc ea 36 70 3d fb cd c8 bc
       -0.087844506 -0.01581802 0.05864612 -0.024512282
0003e0 13 a8 fa bc 4f 24 2c bd f8 c3 7b bc 39 f6 cf bd
       -0.030597722 -0.042026814 -0.015366547 -0.10154385
0003f0 77 9e 63 bd 4d 06 1a bd 79 5e ad bd 26 38 e6 bc
       -0.055571046 -0.037603665 -0.08465285 -0.028102946

arr_1 f4 [8, 1, 64, 128]
000000 cb 61 b6 bd bc 40 bf 3d 69 1a bb 3e 2c 6f c2 bc
       -0.08905371 0.09338519 0.36543587 -0.023734652
000010 2f 00 8c 3c 00 77 7a 3d 1e 47 8d 3e b7 d4 bc 3c
       0.017089931 0.061148643 0.2759332 0.02305065
000020 a4 41 08 bd 87 62 e4 3c d8 31 a3 3c 1d 3d 9a bd
       -0.033265725 0.027879013 0.019921228 -0.07531188
000030 50 5a 42 bd 06 d0 fd bc c5 34 25 3d 7a bf 31 bf
       -0.04744941 -0.030982982 0.040333528 -0.69432795
000040 3f 5c 22 bc 09 21 ae 3c 00 84 e3 39 bc 3c 7a be
       -0.0099096885 0.021255987 0.00043395162 -0.24437231
000050 3b 5d 5b 3e a3 ef a9 3d b7 58 98 bd 67 79 2e be
       0.21422283 0.0829766 -0.07438796 -0.17038499
000060 86 09 7d 3e c0 99 3e 3e 08 56 ae bc 0b 61 a4 3c
       0.24710664 0.18613338 -0.021281257 0.020065805
000070 e2 59 29 bc fa 5d 98 bd 59 ea 49 3d 91 a8 33 bc
       -0.010336371 -0.074397996 0.049295757 -0.010965482
000080 ef 66 a6 be b2 92 61 3d 6a 1f 6d 3d d2 a3 87 bc
       -0.32500407 0.05507154 0.057891287 -0.016557608
000090 98 40 af be 37 1b 25 3e c8 7f 0f 3d 2c be a1 bd
       -0.3422897 0.16123663 0.03503397 -0.078976005
0000a0 4e c2 97 ba f8 86 1e 3c 6e 68 20 be 85 46 23 bd
       -0.0011578293 0.009675734 -0.15664837 -0.039862175
0000b0 72 f8 c1 bd 7d 90 69 3e de a5 90 3d 2a 7d c2 3d
       -0.09471215 0.22809024 0.07062887 0.094965294
0000c0 05 58 62 bd 69 dc 2a 3e 11 47 d5 bd 7a 12 a1 be
       -0.055259723 0.16685642 -0.104139455 -0.3145941
0000d0 3c 92 90 3e 91 08 8c 3e 6e 8f 11 bf 60 ad 0b 3c
       0.28236568 0.27350286 -0.5685948 0.008525223
0000e0 94 20 0d be 87 4e 79 be 64 ce 76 bd 72 f6 a8 bd
       -0.13781959 -0.24346362 -0.060255423 -0.08250131
0000f0 2e 12 af be 7e 37 48 3e cd 49 98 3c b9 3b 4c 3e
       -0.34193558 0.19552419 0.018589878 0.19944657
000100 5d 3b 8a 3e 4d 59 87 3d ed 5b ab 3d 1a b3 41 3e
       0.26998416 0.0660883 0.08367143 0.18915978
000110 03 cb 9b 3c cc 62 44 be c0 6b 9d bc 9a 4c 2d be
       0.019017702 -0.19178313 -0.019216418 -0.16923752
000120 7d a6 1d 3d 3c 5b 4c 3d 7a 7a 3d bc 1f 7d e0 bd
       0.038488854 0.049891695 -0.011564845 -0.10961365
000130 e2 09 04 3d e2 17 5d bd 2e 08 4f bd de 51 34 3c
       0.032235987 -0.053977855 -0.05054491 0.011005847
000140 5e da c3 bc 80 bd 50 bd 15 6a 99 3c bc 2f 72 bd
       -0.023907837 -0.05096197 0.018727342 -0.059127554
000150 b8 bb 19 bd d7 da 46 bc 11 5c e7 bd 10 61 04 bd
       -0.03753254 -0.012137136 -0.11296857 -0.03231913
000160 03 0e 9e 3c 73 1c 69 3e cd 3c e2 bd 6a da 8f bd
       0.01929379 0.22764759 -0.11046753 -0.07024081
000170 b8 48 a3 be 06 7e 63 3e 61 54 31 bc 9b d1 59 bd
       -0.31891418 0.22216043 -0.01082334 -0.05317841
000180 a7 83 03 bd 39 3b 58 3e 5f ce d7 bd e5 c0 19 be
       -0.032107975 0.21116342 -0.10537409 -0.1501499
000190 28 20 86 be dd a6 26 bd c7 1f 3d 3d 1a 72 15 bd
       -0.26196408 -0.040686477 0.046172883 -0.03648577
0001a0 08 65 70 3b 6c fb b2 3c 4e 1b de bd a1 69 ba be
       0.0036681313 0.021848403 -0.10845052 -0.36408713
0001b0 ad 06 e3 bd 18 a3 23 3c ef 19 01 be c8 6f 05 3e
       -0.11085258 0.009987615 -0.12607549 0.13030922
0001c0 75 45 f3 bd 19 46 8e 3b 82 ed 0e 3d 83 17 db 3e
       -0.11878482 0.0043418524 0.034894474 0.42791376
0001d0 80 66 7e 3e 74 1c 81 bc 14 92 89 3e a6 3c 45 bd
       0.24843788 -0.015760638 0.2686926 -0.048153542
0001e0 cc bf ed 3e 92 71 3c 3e 78 01 87 bc 28 e6 15 be
       0.46435392 0.18402699 -0.016480193 -0.14638579
0001f0 0a a9 00 be 3d 77 13 bf 77 f8 f9 bc d0 d8 57 be
       -0.12564483 -0.5760382 -0.030513985 -0.21078801
000200 93 14 30 bd 8b b4 0b 3e 39 9f 02 be 5c f3 eb 3c
       -0.04298837 0.1364309 -0.12756051 0.028802566
000210 7b 05 cf bc 84 64 9e 3a ef 39 52 3e b3 bd 69 bd
       -0.025271168 0.0012084399 0.20529912 -0.057065677
000220 8a 0e 65 bd ae 2b f3 bc 22 10 17 3c a7 3d 80 3e
       -0.05592207 -0.029683914 0.009220155 0.25047037
000230 3d 47 73 bc 10 5d 61 3e 98 a2 b9 3a 9a a2 d7 bd
       -0.0148485275 0.22008157 0.0014162837 -0.10529061
000240 eb 8c e8 bc d8 9b 23 bd a2 00 50 3d 57 5e d0 bd
       -0.028387507 -0.039943546 0.050781853 -0.10174244
000250 0f 71 05 3d c9 81 0d 3e 80 53 bf 3d 78 00 8d be
       0.032578524 0.1381904 0.09342098 -0.2753942
000260 b4 90 92 3e 4e d1 c8 3d 4e bd d7 bb e9 5a a8 bd
       0.28626025 0.09805547 -0.006583846 -0.08220465
000270 71 3a b4 3d 51 ca f2 bc 0e ac 37 bd 3e 5c 36 bd
       0.08800209 -0.029637488 -0.04484182 -0.044521563
000280 96 f6 5a 3e 68 f1 28 3d c8 8b fc bc d9 96 41 bd
       0.21383128 0.041245848 -0.030828372 -0.047263
000290 8a eb d8 bd 38 a1 7f 3d ea 5a ee ba 7a 1e 89 3e
       -0.105918005 0.06240961 -0.0018185053 0.26781064
0002a0 06 fd 4c bc a3 d8 2f be 9b 46 9a be 70 ea 41 be
       -0.012511497 -0.17172484 -0.30131993 -0.18937087
0002b0 b4 59 84 bc 6b 41 ad 3d 7a 24 2e bf ad 0d cb bc
       -0.016156055 0.08459743 -0.6802441 -0.024786795
0002c0 7f 3e 61 3e 4c 00 7a 3e d8 0c 10 3d e3 e6 33 3e
       0.21996497 0.24414176 0.0351685 0.17568545
0002d0 34 0b b0 bd 67 1a 65 bd d0 e3 87 3d cc b1 7b bd
       -0.08595887 -0.055933382 0.06635249 -0.061448857
0002e0 c0 ea 17 be 34 39 f5 3d a3 97 b6 bb 68 6c 0f bd
       -0.14835644 0.11973801 -0.0055722757 -0.035015494
0002f0 d9 c4 dd 3d a5 07 1e be f8 23 51 3e 3a f1 5e 3b
       0.10828561 -0.15432604 0.20423877 0.0034018294
000300 ea 8e ba be c8 c3 1b 3d 0e a8 4c be d7 6e c3 3c
       -0.3643716 0.03802851 -0.19985983 0.023856563
000310 9d 57 3d be b2 a7 e1 3d 4c cc 84 3c 6c 09 09 bf
       -0.18490453 0.110183135 0.016210698 -0.5353
000320 ff 35 53 bb 76 f2 7d 3d c5 ce da 3c 16 9f 04 bd
       -0.003222823 0.061998807 0.026709924 -0.03237828
000330 fa 4b 86 bd b6 b8 58 bd 62 bd e3 bd ee fe b4 be
       -0.0655746 -0.05291053 -0.11120106 -0.35350746
000340 5a 58 8f bd b7 49 97 3c d2 99 7a 3a b5 d8 71 bd
       -0.069992736 0.018467767 0.0009559664 -0.05904456
000350 b2 7d 00 3c cd af ff bd 76 5c 9c 3e 59 2e fb bc
       0.007842468 -0.12484703 0.30539292 -0.030661749
000360 59 8e 77 bd 68 2d b5 3e a8 aa d6 3d fb 48 2f 3e
       -0.060438488 0.35386205 0.10481769 0.17117684
000370 41 71 b0 be 52 5d 5c 3c 1a 09 21 bd a1 7a 0d 3d
       -0.34461406 0.013449984 -0.03931532 0.034540776
000380 9a 32 2b be 50 aa 7b 3e 0f 89 39 b9 a4 70 e1 bc
       -0.16718522 0.24576688 -0.00017694033 -0.027519532
000390 54 b4 51 3e bd 65 5d bd 48 79 1b be 27 18 e3 ba
       0.20478946 -0.054052103 -0.15182984 -0.0017325924
0003a0 9c e5 a3 bd 8b f2 85 bd 7c ce a0 bd 9d 6d 5d 3e
       -0.08002779 -0.06540402 -0.07851884 0.21623845
0003b0 af 22 16 bf d7 a1 08 bd cf 56 8f be 55 49 d0 3e
       -0.5864667 -0.033357468 -0.27995917 0.40680948
0003c0 f1 b7 03 3e 40 b4 68 3e 58 01 70 bc 6a db 8a 3e
       0.12863137 0.2272501 -0.014648758 0.27120525
0003d0 c2 2a 7a 3e b6 79 49 bd e7 b4 2a 3e c8 f4 d6 bb
       0.24430373 -0.04918834 0.16670571 -0.006559942
0003e0 27 a7 07 bf 04 16 1f 3e 57 dd 31 3d 7e 99 3b bc
       -0.5298943 0.15535742 0.043423977 -0.01145017
0003f0 fa a3 5e bd 35 45 a0 bd ad b1 43 3c da cf 25 be
       -0.0543556 -0.078257 0.011944217 -0.1619257

arr_2 f4 [64, 128]
000000 32 9a 27 3c 87 66 88 3c 13 b3 c9 bd 93 0d ac bd
       0.010229634 0.016650451 -0.09848609 -0.084010266
000010 03 81 26 3c bf 03 d2 3e a9 64 f7 bc c4 8f 1b bc
       0.010162595 0.41018483 -0.030199366 -0.009494726
000020 81 cb ff 3d d9 ef 24 3e 2f 06 56 3e 1e c9 07 3e
       0.12489987 0.1610712 0.20900796 0.13260314
000030 93 1a 00 bf 41 66 8b be f8 ba 21 be af bf 46 bc
       -0.5004055 -0.2722645 -0.15793979 -0.012130662
000040 a9 26 d0 3c 48 66 a8 be 74 51 e6 bd 05 9a ea be
       0.02540906 -0.32890534 -0.11246005 -0.45820633
000050 5d a1 dd 3d b8 96 f4 bd 1d ff 17 3c 2f 7d a7 bd
       0.10821793 -0.1194281 0.009277132 -0.08178174
000060 f4 8b 0a 3c f1 5c e6 3d a3 68 3d 3e f1 42 7f bd
       0.008456219 0.11248196 0.18496947 -0.0623197
000070 2f 57 0b bd 6e de 9f 3e 3e 87 9d 3e 96 25 d4 bd
       -0.03401869 0.31224388 0.30767244 -0.103587314
000080 44 59 e9 bd 26 39 93 3c 16 62 e6 3d 07 85 66 3d
       -0.11393979 0.017971586 0.11249177 0.05627921
000090 6b 66 e2 3d 4d d3 cd 3d bc 60 01 3e 15 cb 33 be
       0.11054691 0.10050068 0.12634557 -0.17557938
0000a0 61 be c4 3d a4 8e 24 3e cf 9f 39 be ba 5f 52 3d
       0.096066244 0.16070038 -0.18127368 0.051360823
0000b0 4b 53 24 3e 2f e4 98 3d 18 32 ad 3d 17 34 a1 bd
       0.16047399 0.074653976 0.0845682 -0.078712635
0000c0 17 0c 32 3e 4a b5 40 3d af 1d eb ba 5f 34 c6 be
       0.17387424 0.04704789 -0.0017937924 -0.3871183
0000d0 af 34 78 bd 09 3a 56 be 00 14 09 3f e6 b1 9b be
       -0.060597118 -0.20920576 0.5354614 -0.30409163
0000e0 58 c3 96 ba ff fd 11 3e 9c 9c 10 3e 3e cf 8b bd
       -0.0011502309 0.14257048 0.14122242 -0.06826638
0000f0 40 93 e9 3e 00 0a b2 be 2e 92 fe 3b 13 9f 35 bd
       0.45620155 -0.34773254 0.007768891 -0.044341158
000100 b9 a9 06 be a4 25 a7 be 08 e4 89 3d ae 82 86 bd
       -0.13150682 -0.32645905 0.06732947 -0.06567894
000110 a3 a2 62 ba 35 13 ac be 8f f8 23 3e 8e ee 06 be
       -0.00086454506 -0.33608404 0.16012786 -0.13176939
000120 41 b9 b5 3c 1b bc 13 3e a9 74 ef bd c8 72 7f 3d
       0.022183063 0.14427225 -0.11692173 0.062365323
000130 5b 5f 8e bd a8 a3 ab 3e 0a 29 82 bd 12 c5 f8 3c
       -0.06951781 0.33523297 -0.06355484 0.030367408
000140 36 06 13 be 6f 0d e2 3d 7c b1 9f bb 14 9e 02 3e
       -0.14357838 0.110377185 -0.0048734527 0.12755615
000150 d4 b5 29 3e b6 8c 0b be a4 77 0a be 1a 36 10 3e
       0.16573268 -0.13627896 -0.13522202 0.14083138
000160 cc 1f 8c be 96 3c ac be 11 66 d1 3d 6f e7 df 3d
       -0.2736801 -0.33639973 0.10224546 0.10932814
000170 37 b9 ba bd b7 7b fa bd 77 bd a4 bc d8 f3 18 3e
       -0.09117358 -0.12230628 -0.020109875 0.14936769
000180 54 fa 3f 3e 0b 9d c8 3d ac 92 ed bd f8 7e df be
       0.18747836 0.097955786 -0.11600241 -0.43651557
000190 59 06 dd be 82 d2 e1 3d ea 79 e2 bd f6 b4 9c 3d
       -0.43168905 0.11026479 -0.110584095 0.07651703
0001a0 4c dd a7 3d 10 fe d3 3d a2 1a 6e 3e 44 2a f3 be
       0.08196506 0.10351193 0.23252347 -0.47493184
0001b0 e3 c1 c1 3c b6 13 ae be df 01 82 3e 90 bb 8d 3b
       0.023652023 -0.33999413 0.25392053 0.0043253377
0001c0 b1 6d 5b bc 20 e8 c1 be bf 55 80 be 7d d2 02 3e
       -0.013392852 -0.3787241 -0.2506542 0.12775607
0001d0 54 91 b7 be 51 da a9 bd 3a ba 13 be 27 93 90 3d
       -0.35853064 -0.08293594 -0.14426509 0.07059317
0001e0 57 8a d3 bd 45 34 89 be c9 49 c6 be bd 85 04 bf
       -0.103291206 -0.2679769 -0.3872817 -0.5176657
0001f0 8f 9b 31 3d e7 63 21 3e e4 8d 39 be 5f e8 9b 3d
       0.043361243 0.15760766 -0.18120533 0.07612681
000200 10 23 a3 3d f4 f7 49 bd 88 61 f4 bd f4 24 07 be
       0.07965672 -0.049308732 -0.11932665 -0.1319769
000210 69 f8 e3 3d 29 d0 3a be fc 44 c1 3c 66 6c 8d 3d
       0.11131365 -0.1824347 0.023592465 0.06905441
000220 3a a4 df bd a6 19 64 3d 86 31 34 be 09 dd bb b9
       -0.109199956 0.055688523 -0.17597017 -0.00035832103
000230 67 8e 84 3c 44 6e 1b 3e 8b c3 e1 bd 2e 45 ca bc
       0.016181184 0.15178782 -0.11023625 -0.02469119
000240 f5 86 fc 3d 63 2c 1b 3e b6 82 01 3e 15 ad 09 be
       0.123304285 0.15153651 0.12647519 -0.13444932
000250 78 fa 84 bd d4 43 99 bd fd 8a 57 be 56 01 bb bd
       -0.064930856 -0.0748364 -0.21049114 -0.09131114
000260 0f 1e c0 bd 67 8b b3 bd 74 d3 0f bd 2d 23 59 3d
       -0.09380733 -0.08766823 -0.035113767 0.053012062
000270 bb 86 23 3e a4 4c c2 3d df 2d 84 3d a2 3f a3 3d
       0.15969364 0.09487274 0.06454062 0.07971121
000280 38 5e 32 be 34 01 12 3e 95 49 2d be e9 8a 4b 3c
       -0.17418754 0.14258271 -0.169226 0.0124232555
000290 13 1c 86 bd 8f b0 b7 3d 3f e2 90 bd ea 1e 53 bd
       -0.065483235 0.08969223 -0.07074403 -0.051543154
0002a0 c3 8e 2c be ff 00 09 be 6d 92 39 be 74 9d 14 be
       -0.16851334 -0.13379286 -0.18122263 -0.14513189
0002b0 ce c4 e2 bd d4 2d ea 3c c1 e3 82 3c 45 d7 18 3e
       -0.11072694 0.028586306 0.015977742 0.14925869
0002c0 db b2 e9 3c 26 02 1a 3e 57 c0 1e be b1 1e 13 3d
       0.028527668 0.15039882 -0.1550306 0.03591794
0002d0 90 47 33 bc e2 c3 22 be 6a fe 0b bd 7b 49 6b 3c
       -0.010942355 -0.15895036 -0.034178175 0.014360781
0002e0 ad b3 44 bd 20 01 24 bd 18 89 2f be b8 36 de bd
       -0.048022915 -0.040040135 -0.17142141 -0.108502805
0002f0 7d 23 36 bd 3c d4 b7 3d 33 e4 c2 bb 21 cf 3b be
       -0.044467438 0.08976027 -0.0059476136 -0.18340732
000300 41 95 21 be 3b 4c 80 3d b5 17 2e bd f0 1e 3c bc
       -0.15779592 0.0626454 -0.042503078 -0.011481985
000310 d4 d4 78 bc c2 3d 2c 3d 3d aa b4 3d 69 f5 29 3e
       -0.015187461 0.042051084 0.08821533 0.16597523
000320 40 60 65 3b 0f 8f 17 3e e8 81 14 3e 28 71 94 bd
       0.0034999996 0.14800666 0.1450268 -0.07248145
000330 bd a6 e1 3d 6f a2 8a bb 10 0d 80 3d 26 56 28 3e
       0.11018131 -0.0042307894 0.062524915 0.16439113
000340 d1 87 c7 3d 97 f4 e9 bd 48 c6 9d 3c fe d9 ec 3c
       0.09742702 -0.11423605 0.019259587 0.02891254
000350 a0 aa cb bd 0d db e3 bd 1a c2 0e 3e 30 7e bf bd
       -0.099446535 -0.11125765 0.13941231 -0.0935024
000360 2a 87 c7 3d 29 1d bf bc e9 7e de 3d 39 e3 ca 3d
       0.097425774 -0.023329334 0.1086405 0.099066205
000370 f9 dc 28 3e 34 9a 01 be 85 ab ea bc ef 75 69 3d
       0.16490544 -0.1265648 -0.02864624 0.056997236
000380 ee b6 86 be e3 4d 36 bd 48 dc 83 3d 5b b9 40 be
       -0.2631144 -0.044507872 0.064385 -0.18820707
000390 41 f4 3a be d0 2e e7 bc 5f f8 31 3e b0 ec 76 bc
       -0.18257238 -0.028220564 0.17379902 -0.015071079
0003a0 58 22 c4 bd 52 d8 a1 bd e0 0d b0 3d 4c eb 13 be
       -0.09576863 -0.07902588 0.085963964 -0.14445227
0003b0 70 df ec 3d 41 93 89 3d 4e bb 79 bd 9a db a9 3c
       0.11566055 0.067175396 -0.060969643 0.020734597
0003c0 66 5a d6 bd 5c 46 8b 3d a8 de 1f bd 19 e9 13 be
       -0.10466461 0.06800529 -0.0390307 -0.14444388
0003d0 ba ea 06 bb 0c 42 37 3d b8 73 23 be cb 30 28 be
       -0.0020586685 0.04474072 -0.15962112 -0.16424863
0003e0 91 62 9f 3d 38 77 e0 bd dd 80 86 be db 35 d5 3d
       0.07782472 -0.10960239 -0.2627019 0.10410663
0003f0 1b d7 36 be e1 25 32 bd 2d 61 fe bc 7e 09 48 bd
       -0.17855494 -0.043493155 -0.031052196 -0.048837177

arr_3 f4 [4, 1, 32, 64]
000000 bc 7d 5f bd 91 b9 81 bd f8 58 ea bd e4 d0 b7 3c
       -0.05456327 -0.06334222 -0.11442751 0.022438474
000010 ad 96 02 be a5 a1 26 bd f2 3b e2 3c f8 78 8b bd
       -0.12752791 -0.0406815 0.027616475 -0.06810182
000020 85 07 f5 3d 2a c2 be 3d 20 fe 48 bd 52 e9 07 bd
       0.11964325 0.093143776 -0.049070477 -0.033181496
000030 d2 93 87 3d 6e d9 aa bc 69 aa eb 3d a9 ae 03 be
       0.06619991 -0.020855632 0.115071125 -0.12859596
000040 37 46 c0 3c a4 93 9c 3d 52 1b 33 bd 89 c5 84 bb
       0.023470981 0.07645348 -0.043727227 -0.0040518683
000050 b2 8e f1 bc 2c 5a 07 be a2 52 e6 3d 56 c0 80 bd
       -0.029486988 -0.13217992 0.1124623 -0.06286685
000060 fd 09 9c bd 38 01 55 bd 94 f5 e5 3d 40 64 06 be
       -0.076190926 -0.052003115 0.11228481 -0.1312418
000070 56 98 65 3d 30 d2 00 3e 1f 00 c2 3d de a2 a4 3d
       0.056053482 0.1258018 0.09472679 0.08038877
000080 0a f2 8b bc 70 b6 71 bd 33 2e 85 3c 8f f9 3b 3e
       -0.017083187 -0.059011877 0.016257381 0.18356918
000090 25 8b 94 3d 42 e8 0e bd f9 42 29 be 15 15 67 3d
       0.07253102 -0.034889467 -0.16529454 0.05641659
0000a0 9e 5f 20 bd 70 80 ca 3c 8d fe d3 bd 38 56 3f bb
       -0.039153688 0.024719447 -0.10351286 -0.0029195677
0000b0 cb f2 54 bd 00 44 13 3b ce 63 06 bd 3b 17 03 bd
       -0.051989358 0.002247095 -0.032810025 -0.032004576
0000c0 bc 5f ba bd ae d2 ae bd 58 8b d6 bc 8b 9c 98 bd
       -0.09100291 -0.08536278 -0.026189491 -0.07451733
0000d0 4c fb 0c bd 47 11 89 bd 11 e1 9e bd d5 a4 9e bd
       -0.034419343 -0.066927485 -0.07757772 -0.07746283
0000e0 ea 67 3b bd 0a 3c c2 bd 6b a4 dd 3b 6d 59 d0 bd
       -0.045753397 -0.09484108 0.006763985 -0.101733066
0000f0 63 88 8f 3b d9 5e f7 bc 2c 87 2f bd 0e f9 20 3e
       0.0043802722 -0.030196594 -0.04285352 0.15720007
000100 77 1d a4 3d ee 6b 95 be 4e 5c 01 be de 16 85 bd
       0.080134325 -0.29183906 -0.12632868 -0.06498502
000110 29 f6 aa bd cc 7b 7b 3c f5 90 2b be e3 d7 19 be
       -0.083477326 0.01534934 -0.16754515 -0.1502376
000120 94 f3 4a 3e b0 ba 7d 3c b6 d0 10 be ef 81 a8 be
       0.1981948 0.015486404 -0.14142117 -0.3291163
000130 1a 45 36 bd 1e cf 49 3d 63 b4 cc 3d a2 94 0d be
       -0.044499494 0.049269788 0.099953435 -0.1382623
000140 1d ef 13 3e 66 03 d6 3b fb 4b 96 3e 77 ae 07 be
       0.14446683 0.006531167 0.29354843 -0.13250147
000150 4e 3a b1 be fd 87 01 bd c1 d1 b7 be 3e d8 14 3d
       -0.34614795 -0.03162383 -0.35902217 0.036339037
000160 47 c5 73 3c 87 08 02 bd fb f3 84 bd f2 54 d9 be
       0.014878578 -0.031746414 -0.06491848 -0.4244762
000170 98 db 23 bf 9a c9 b3 3d c0 39 15 be 0d 2e 4c bd
       -0.6400695 0.08778687 -0.14572811 -0.049848605
000180 4e f8 c4 bd 7f 61 e1 bd 73 6e 83 bd 05 f1 2f 3d
       -0.09617673 -0.11004924 -0.06417551 0.042954464
000190 6b ed fd 3e 32 ec ab 3e 8a 40 40 3e ab 2b d4 be
       0.49595198 0.3357864 0.1877462 -0.41439566
0001a0 b9 28 b8 3e 5f 66 36 3e b1 3a 38 bd ab f8 08 3b
       0.3596857 0.17812489 -0.044977847 0.002090017
0001b0 9e d3 94 be 8a e6 04 bd 07 0e 34 3e d5 cb dc be
       -0.290677 -0.03244642 0.17583476 -0.43124261
0001c0 97 54 44 bc a6 b6 21 bd fd 10 ed 3e b9 ad 5c 3e
       -0.011983058 -0.039480828 0.46302024 0.21550645
0001d0 10 99 92 bc 96 d8 84 be 6c 06 9b 3d 37 03 7b 3d
       -0.017895252 -0.25946492 0.07569584 0.061282363
0001e0 ad 42 01 bd df e8 e7 bd f5 7f 91 bd 1b 8b 7f 3d
       -0.031557728 -0.113237135 -0.07104484 0.06238852
0001f0 fd b8 7b be fc 69 65 be 79 be 09 be 5c ab d3 be
       -0.24582286 -0.22403711 -0.13451566 -0.41341674
000200 71 28 e7 be d0 51 03 ba 5e 2e 2e 3d f9 c1 80 be
       -0.45148042 -0.00050094444 0.042524688 -0.2514799
000210 9c 8c ea 3e b0 e2 22 be 9f 64 32 3e 97 91 15 bf
       0.458104 -0.15906787 0.17421196 -0.5842528
000220 36 26 ae 3e 95 32 fb 3d b0 95 1b be 96 2e 1b 3e
       0.34013528 0.12265507 -0.1519382 0.1515449
000230 48 5a cf bb d9 7c 36 be 0b 09 38 be f2 9b 59 bd
       -0.006327901 -0.17821063 -0.179722 -0.053127237
000240 dc 68 22 bd f4 34 be be d2 5e 03 3f 8f c4 bf 3d
       -0.039650783 -0.37149775 0.5131656 0.093636625
000250 9c 92 03 bd a3 2a 67 bd 09 11 e3 be ab d1 af bd
       -0.03212224 -0.056437146 -0.44348934 -0.08584913
000260 c7 14 49 3e ac 33 17 bf 67 41 ca bd 5a fd ef 3e
       0.19636832 -0.5906322 -0.09875756 0.4687298
000270 8a 0e b6 be 24 82 82 be 66 6a d0 bd 0a 55 bb 3d
       -0.35557967 -0.25489914 -0.10176544 0.09147079
000280 9a 7c 59 3c 68 68 2c bd 37 89 b6 3e 1a bf 24 bf
       0.013274336 -0.042091757 0.35651562 -0.643541
000290 f2 fe 96 bd 50 c7 02 be 53 0f ef 3d ad 39 31 be
       -0.07372846 -0.12771344 0.11672845 -0.17307158
0002a0 90 f7 f7 bd 9f 47 2d bf d7 65 22 3d b2 1a 87 bd
       -0.12107766 -0.6768741 0.039647903 -0.065968886
0002b0 f1 74 9c 3d 47 02 ff bd b3 1e 89 3e 53 78 c6 be
       0.07639492 -0.12451606 0.26781234 -0.38763675
0002c0 40 22 1c 3c db 39 15 be d5 28 83 be d0 5d 55 bd
       0.00952965 -0.14572851 -0.2561709 -0.05209142
0002d0 e9 31 c3 3e be 01 82 bd 3e 76 e3 3d 12 65 c7 bd
       0.38124016 -0.063479885 0.11106537 -0.097360745
0002e0 5f 54 ec be 80 f3 ff bd 1b 33 69 3d 7b 89 5b 3e
       -0.4615812 -0.12497616 0.056933504 0.21439163
0002f0 e2 de 3c bd 56 5f 8a be b9 62 d4 bc 9e d4 18 bf
       -0.046110995 -0.2702586 -0.02592598 -0.5969943
000300 85 e5 68 3e 68 37 69 3e 13 cc df bc 54 c3 50 bd
       0.22743805 0.22775042 -0.02731899 -0.05096753
000310 23 4c 83 3b 9a 7d ae 3d 5f 38 b6 be 3b 99 8f be
       0.004006879 0.0852005 -0.35589883 -0.28046593
000320 a9 24 52 be 03 04 4a 3e 96 f0 bd bd 4a 2f 1a be
       -0.20521797 0.19728093 -0.09274404 -0.15057102
000330 ea 6e 97 3e f5 73 e9 3e b2 27 94 3d fb 69 f6 bc
       0.29576808 0.4559628 0.07234134 -0.030079832
000340 29 27 93 be b0 df 57 3e a1 d6 95 be b1 7d 69 3c
       -0.28740814 0.21081424 -0.2926531 0.014251159
000350 19 72 a1 be 18 ce 30 be 0b 00 05 3f 92 b8 c3 be
       -0.31532362 -0.17266119 0.5195319 -0.38226753
000360 16 ed 38 be cf c5 db 3e 05 c5 7d bd 6e 72 8a be
       -0.18059191 0.42924353 -0.06195547 -0.27040428
000370 e4 12 07 3e 66 5e c1 bd cb 08 c2 3d 90 8f d0 3e
       0.131908 -0.09441833 0.094743334 0.4073453
000380 ff 48 32 3d f3 64 6e bd df f0 81 3e 1d 18 db 3d
       0.043526646 -0.05820174 0.25379083 0.106979586
000390 15 bd ef 3e f3 e5 90 3e 07 39 0f bf 32 fb 7c bf
       0.46823946 0.28300437 -0.5594639 -0.98820794
0003a0 68 6a 1c 3f dd 57 56 be b7 6d 5d 3c d7 b5 90 be
       0.61099863 -0.20931955 0.013514928 -0.28263733
0003b0 8b e2 11 bf 01 d0 05 bd 52 73 94 3e 0e 8e b8 3e
       -0.569863 -0.03266907 0.28994232 0.3604588
0003c0 82 5b 6c bd b8 40 26 bd 51 44 3a 3e 06 b6 29 3e
       -0.057704456 -0.040589064 0.18190123 0.16573343
0003d0 79 d9 92 bb a9 3b 8b be 7e c2 12 bd b6 5c ac bd
       -0.004481491 -0.27193955 -0.035830013 -0.08416121
0003e0 ba 90 90 3e dc d1 2b 3d d6 5b e9 be 09 f1 21 3e
       0.28235418 0.041948184 -0.45577878 0.15814604
0003f0 75 0f 85 3d b0 a1 34 be f8 3a bf be 12 dd 92 3d
       0.06497089 -0.17639804 -0.37349677 0.07171072

arr_4 f4 [4, 1, 16, 32]
000000 63 86 57 be 12 d1 ba 3d cd e8 83 3d b3 51 a4 3e
       -0.21047358 0.09121908 0.064408876 0.32093582
000010 af 0c 4b 3e f5 24 b5 be b0 50 80 3d f6 73 c4 be
       0.19829057 -0.35379758 0.0626539 -0.3836972
000020 80 cb ea 3d 30 7c 79 bd a5 59 e2 3d b7 13 00 3f
       0.11464596 -0.06090945 0.110522546 0.5003008
000030 b3 1f 34 3e 13 0d 26 be 5d 7d 99 3c 4a 8e cf be
       0.17590217 -0.16215925 0.018736536 -0.40538245
000040 f8 18 1e 3e a1 25 a1 bd 29 74 de 3e 8b 11 e4 3d
       0.15439212 -0.07868505 0.43447998 0.111361586
000050 5e 39 8a bd b8 0b c7 bc 02 e3 74 3c ec 30 61 bd
       -0.06749223 -0.02429758 0.014946701 -0.054978296
000060 4c dc b1 3e ab 8a 93 3e 75 fd 60 3a d0 53 8f 3e
       0.34738386 0.28816733 0.000858269 0.2799363
000070 4d 56 03 bf af 6d 0e bf b4 c5 8f bc 6c 5c bc be
       -0.5130356 -0.55636114 -0.017550327 -0.36789262
000080 41 59 0c 3e 38 0b 03 bd bd 47 31 be 64 56 ab bd
       0.13705923 -0.03199312 -0.17312522 -0.08366087
000090 b2 ec 9c 3d a6 ec 9e bd 1b 5a af bd 80 17 8d 3d
       0.076623335 -0.07759981 -0.08562108 0.06889248
0000a0 4a 4b af 3d 76 8b f5 3b 67 27 2a bc c9 d0 a2 bd
       0.08559282 0.0074934317 -0.010385371 -0.07949979
0000b0 90 a1 cf 3d e1 08 05 be 14 19 27 3e 8b 33 21 3c
       0.101382375 -0.12991668 0.1631816 0.009838949
0000c0 5e 87 a2 3d e9 d1 0f be ea 06 bd bd bc d9 b0 3d
       0.079359755 -0.14044918 -0.092298344 0.086352795
0000d0 7a d2 17 be f5 cd 5f bc 39 93 56 3c c1 41 25 3e
       -0.14826384 -0.013659944 0.013096624 0.16138364
0000e0 7c e2 47 3d b5 b3 20 3e 2b 80 0a 3e 78 4f e2 bd
       0.048799977 0.15693553 0.13525455 -0.11050314
0000f0 1e c5 08 be af 86 04 be 60 67 eb bd c9 42 96 bd
       -0.13356444 -0.12942003 -0.114943266 -0.07336957
000100 82 58 0b be 66 31 39 3e b8 57 c3 3d 57 b1 ec bd
       -0.13607982 0.1808525 0.095382154 -0.115572624
000110 f7 1c c3 3c 6a 80 00 3d 6b ae 18 3e bf 82 25 3e
       0.023817522 0.031372465 0.14910285 0.16163157
000120 39 59 03 3e df 19 46 be 19 45 7c bc 1e ae 1b 3d
       0.12827004 -0.19345807 -0.015397334 0.038007848
000130 1e c0 35 bc 1e ef 12 be 75 69 1b 3e e6 9d d3 3b
       -0.011093168 -0.14349028 0.15176947 0.006458032
000140 29 cc f3 3d 07 ba 95 bd 3a fb 6b bd d5 d5 f2 bd
       0.11904175 -0.073108725 -0.057612635 -0.118571915
000150 34 91 63 bd d6 20 15 3e 71 c8 08 be ee f2 9d 3d
       -0.0555584 0.14563307 -0.13357712 0.07712351
000160 e8 8d c6 bd b5 09 4b 3e fc 1d 2c 3d 82 10 ca 3d
       -0.09695035 0.19827922 0.042020783 0.0986643
000170 c0 61 37 3c ad 7b 12 3e 6e ba 90 bd ee e2 ba 3d
       0.011192739 0.14304991 -0.07066809 0.09125315
000180 1c 5b f2 bd 64 1e f1 bd e1 7e 10 bf 20 3b 2a be
       -0.11833784 -0.11773375 -0.564436 -0.16624117
000190 3f dd 29 3e c0 71 d9 3e 63 0a 9f 3d 06 1b 61 bd
       0.16588305 0.42469597 0.07765653 -0.054957412
0001a0 65 19 1d 3f 43 bd 0c be e0 f7 82 be f8 76 bd 3c
       0.61366874 -0.13744073 -0.2557974 0.023128018
0001b0 f6 49 80 bd 12 a3 88 3d 4c 16 2b 3e f3 14 4a 3e
       -0.06264107 0.06671728 0.16707724 0.19734554
0001c0 86 9b 23 3e 4f 14 17 be 68 b7 14 3f c7 6c 9e be
       0.15977296 -0.14753841 0.58092356 -0.30942366
0001d0 40 b2 f4 3c fb 9d be 3d e8 fa e6 bd 8f 7a c7 be
       0.029870152 0.09307476 -0.11278325 -0.38960692
0001e0 ae 37 bd bd 21 14 be bd 26 c1 a0 3d 25 ed 9a 3d
       -0.09239136 -0.09281183 0.0784934 0.07564763
0001f0 4b 0b 24 bc bc 4d 19 3e 65 57 88 bd d2 31 41 be
       -0.010012458 0.1497106 -0.06657294 -0.18866661
000200 9f c9 bc bd 0c 21 08 3e a7 27 e2 ba 89 46 c9 bd
       -0.09218144 0.13293856 -0.0017254249 -0.09827907
000210 26 17 80 bb 37 fe f9 3c 77 31 fc bd db e2 98 bd
       -0.0039090095 0.030516727 -0.12314122 -0.07465144
000220 d9 8a 31 3e 79 31 ea bd 97 ef 40 bd 60 fd 01 3d
       0.17338122 -0.114352174 -0.04710349 0.031735778
000230 72 76 a9 bd d4 f2 bd bd bc 52 b3 bd 96 56 b1 bc
       -0.08274545 -0.092748314 -0.08756015 -0.021647733
000240 0e d6 45 be 80 56 a2 bd 44 be dc 3d fe 30 85 bc
       -0.19319937 -0.07926655 0.10778478 -0.016258713
000250 19 b0 01 3e 15 30 d3 3d 73 73 14 be d7 b3 3b bd
       0.12664832 0.10311905 -0.14497165 -0.045825806
000260 f6 89 9d bd a4 94 30 bd b4 a6 24 bd 43 8e 79 bd
       -0.076923296 -0.043110505 -0.040198043 -0.060926687
000270 6e 2e 19 bd c3 87 4a 3d da b1 06 be 6f 58 7a bd
       -0.037397794 0.04944588 -0.13153782 -0.061119493
000280 d2 c0 8b 3d 34 c2 7a bb 7c 15 3e bb 75 f9 f2 3c
       0.06823887 -0.0038262727 -0.0029004505 0.029659966
000290 7c 78 74 3d 75 f9 18 bd 0f dd 98 3d 88 9e 68 bd
       0.059685215 -0.037347276 0.074640386 -0.056791812
0002a0 c5 62 25 3e 74 86 46 bd 4b 80 20 be 51 b3 10 3e
       0.16150959 -0.04846807 -0.1567394 0.14130904
0002b0 b9 c9 0f bd 7e 2f bc 3d d6 80 a0 bd 77 a1 38 3e
       -0.035104487 0.09188746 -0.078370735 0.18030344
0002c0 03 a2 c6 bd 48 92 0b be a2 c6 f9 bd 24 bc 1c 3e
       -0.0969887 -0.1363002 -0.12196089 0.15306145
0002d0 4c 21 21 bd 0c 73 da 3d ac 5f 2f bd 40 aa 2d be
       -0.039338395 0.10666475 -0.04281585 -0.16959476
0002e0 a7 75 0b bd 5d 24 78 3d 89 61 25 3e 9b 5c c2 bd
       -0.03404775 0.060581554 0.16150488 -0.09490319
0002f0 8b 20 e4 3d c0 ce aa 3d 2e 85 0d be e9 d9 97 bd
       0.111390196 0.08340216 -0.13820335 -0.0741461
000300 96 ca 38 be 5d 4b 2d be 65 df 15 3e 06 44 85 3e
       -0.1804603 -0.1692328 0.14636 0.2602846
000310 f0 7b 7f 3d cf c1 c4 be 89 5f c5 bb 7c 0f 16 be
       0.062374055 -0.38429114 -0.0060233516 -0.14654344
000320 20 7b 1c 3e 91 84 9b be 05 db 2b be bf 90 ce 3e
       0.15281343 -0.30374578 -0.16782768 0.40344808
000330 f3 bc 14 3d fb bd 04 be 8f 84 bd 3d 0e 09 4c be
       0.03631301 -0.12963097 0.09253799 -0.19925329
000340 64 fd 51 be a9 5f 5e bd 12 7d 8b 3e 82 b7 0b 3e
       -0.20506817 -0.054290447 0.2724386 0.13644221
000350 78 7f ae bd 9e d8 91 3e e6 8d 6e bd 86 ba 58 3e
       -0.085204065 0.28485578 -0.058240794 0.21164903
000360 e6 9a 84 3e bb b0 b9 3e 6f 7f 60 3c c2 7f f5 3e
       0.25899428 0.36267647 0.013702258 0.47949034
000370 22 92 0d bf aa c9 94 be a9 1f ed bd 10 0e 1a bf
       -0.55301106 -0.29060107 -0.11578304 -0.6017771
000380 50 e2 3c be 74 08 19 be aa 5f 22 be 10 15 e2 3e
       -0.18445706 -0.14944631 -0.15856805 0.44156694
000390 21 42 12 be a1 d9 0a 3d aa 64 d9 3b 59 fe 89 be
       -0.14283039 0.033898953 0.0066343145 -0.26951864
0003a0 0b 2c 14 bf 2b 11 99 3c fd c1 0a bf 79 99 7c 3e
       -0.57879704 0.018684944 -0.5420225 0.2466792
0003b0 ac 67 9e be 28 d6 0b be 06 d5 c4 bd fe 5d 39 3d
       -0.3093847 -0.13655913 -0.096109435 0.045255654
0003c0 c1 5c 06 bf 4a 5a 3b be 6c 7f 6f be eb 5a 43 be
       -0.5248528 -0.18296161 -0.23388451 -0.19077651
0003d0 78 31 1b be b7 f8 9c bb 56 c1 df 3d 76 d1 29 3c
       -0.1515559 -0.0047903913 0.10925548 0.010364881
0003e0 17 62 5c 3e f2 88 29 3e 35 e1 06 be 09 be 70 bd
       0.21521793 0.16556147 -0.13171847 -0.05877498
0003f0 07 07 32 3e c3 48 91 be a3 b1 16 3d 63 13 ef 3d
       0.17385493 -0.28375825 0.0367905 0.116736196

arr_5 f4 [4, 1, 16, 16]
000000 23 b3 3d be 8a 1a d5 bd 1e 48 e7 bd 8a 1d bd be
       -0.18525366 -0.104054525 -0.11293052 -0.369366
000010 37 be b5 bb f0 ff 14 bc 5a e5 d4 bd c9 57 95 3e
       -0.005546357 -0.009094223 -0.10395308 0.29168537
000020 f6 f9 a8 be 46 b9 dd 3d dd a1 d6 be 00 22 dc 3c
       -0.33003205 0.10826354 -0.41920367 0.026871681
000030 0a a4 1e be 3d 10 c0 bd 8b 74 27 3d eb 80 ec 3d
       -0.15492263 -0.09378097 0.04088263 0.11548027
000040 ec f4 8c 3e c0 b9 04 bd 9c 0d f9 3d a4 5a 00 be
       0.2753061 -0.032403708 0.12160799 -0.12534577
000050 95 1a 62 3d e3 69 28 3e 8d 93 5a bd d3 22 8e 3e
       0.05520113 0.16446643 -0.05336337 0.27760944
000060 ce 24 3b 3e e0 22 0f bd 99 9b 00 be e4 cb 96 3d
       0.18275759 -0.03494537 -0.12559356 0.07363108
000070 7f df 97 bc 20 80 94 bc 1e c8 10 bf 84 a0 7e 3e
       -0.018539188 -0.018127501 -0.56555355 0.2486592
000080 6f 81 d1 bd 39 b2 8b 3d 8d e7 ff bd 9f 6c 19 3d
       -0.102297656 0.06821103 -0.12495337 0.037457105
000090 0e 0d ea 3d ca 62 fa bd c8 ca 85 bd 46 e2 22 bd
       0.11428271 -0.12225874 -0.06532818 -0.039766572
0000a0 35 f2 14 be 69 9c a2 3c cf f3 8d bd 15 57 53 be
       -0.1454552 0.019849973 -0.069312684 -0.20638688
0000b0 f6 26 01 be 80 d8 33 be 88 bc fd 3d 15 8c a1 be
       -0.12612519 -0.17563057 0.12389475 -0.31552187
0000c0 06 18 e2 bd ca e8 50 be c5 17 dc 3c ee ae ff bd
       -0.11039738 -0.20401302 0.026866803 -0.12484537
0000d0 c3 8b b4 bd f9 93 cd 3d e6 c7 ea be ec d4 27 3f
       -0.0881572 0.10037989 -0.45855635 0.6555927
0000e0 7e a3 83 be 08 c9 42 be 8e 43 ab bd f8 ba 47 3e
       -0.25710672 -0.19022 -0.083624944 0.19504917
0000f0 68 7b f5 be 4e 9c 30 be a8 7f b2 be ff 9c e9 bd
       -0.47945714 -0.17247126 -0.3486302 -0.11406898
000100 f5 57 99 bd ed dc 1a 3e 49 42 4b 3e 67 8b f4 bd
       -0.074874796 0.15123339 0.19849505 -0.119406514
000110 bf 13 54 be 00 1c 80 bd 67 77 56 bd a3 f4 b4 3d
       -0.20710658 -0.062553406 -0.052359965 0.08835723
000120 f3 7e 2e 3e 39 98 57 3d bf 71 44 3d 9b 5e ba bc
       0.17040615 0.052635405 0.04796004 -0.02275019
000130 11 2b 4f 3d 8f fb 40 3e 15 29 89 3e 4c 4c c0 bd
       0.05057818 0.18845962 0.26789156 -0.093895525
000140 45 5b b3 3e 55 8d 1a be d6 d1 60 3d a3 08 e8 be
       0.3503057 -0.15092976 0.054887615 -0.4531909
000150 5f 50 3c 3e 41 bf 60 be 8d 9d c8 3e ab f1 65 be
       0.18390034 -0.21947958 0.39182702 -0.2245547
000160 f0 92 6d 3e c0 8e 43 be a3 04 dc be 67 21 ac 3d
       0.23200583 -0.19097424 -0.42972288 0.084048085
000170 3e ff d3 3d b6 48 eb bc cf ce 26 3e a1 46 0f bd
       0.10351418 -0.028721195 0.16289829 -0.034979466
000180 98 ab b0 be fe 8b b4 bb 21 0b 0e bc 69 88 26 bd
       -0.34505916 -0.0055098524 -0.0086696455 -0.040657435
000190 58 b5 7d 3d 9c 42 32 3d 57 a8 61 be 1f a6 d8 3c
       0.06194052 0.043520555 -0.22036873 0.0264464
0001a0 a2 8b 4d be c8 18 b9 bd c0 5c 6c be ce 69 50 bd
       -0.20072797 -0.0903793 -0.23082256 -0.050882153
0001b0 29 f0 b8 bc f6 5a 93 3d 0e cf 88 be 62 51 65 3e
       -0.022575455 0.07195084 -0.2672047 0.22394326
0001c0 5f 74 86 3e 17 7f 14 3e 21 5e ea 3d da 34 3e be
       0.2626066 0.14501606 0.11443735 -0.18574849
0001d0 d2 2e 9f bd fd 67 ec bd 52 3f 85 3e c0 16 ba be
       -0.07772602 -0.11543272 0.26024872 -0.36345482
0001e0 53 88 01 bd 79 d7 8e bd e2 4e bc 3c 5e 11 05 be
       -0.03162415 -0.06974692 0.022986833 -0.12994906
0001f0 1e b8 d6 bd 60 32 37 be e4 4c 90 3d 69 d5 7e bd
       -0.10484336 -0.1789031 0.07045916 -0.062215243
000200 e0 59 9d 3e b9 f9 60 bd 87 b4 0e be dc cf 26 3e
       0.30732632 -0.054925654 -0.13936053 0.1629023
000210 ec a7 b4 bd f8 c0 7c be cd 2a 0b 3e f7 52 eb bc
       -0.08821091 -0.24682987 0.13590546 -0.028726084
000220 05 86 4b 3e a8 0e 12 3e 98 6e f8 3c 35 b9 e7 3b
       0.19875343 0.14263403 0.030326173 0.007071639
000230 59 c0 23 be 3e a5 18 3d 7f 59 d4 bb 8f 7c 2f 3d
       -0.15991344 0.037266962 -0.0064803953 0.042843398
000240 e2 bc f4 3d bb 0d c1 bc 14 09 29 be ae 66 aa 3d
       0.11950089 -0.023566118 -0.1650737 0.08320366
000250 47 e0 2b be 99 ed 3d be 8b 78 9b 3e 79 40 2f be
       -0.16784774 -0.18547668 0.30365404 -0.17114438
000260 d6 ca b8 bd a2 50 2f be b7 06 57 bd 87 46 b1 bd
       -0.09023063 -0.17120603 -0.05249664 -0.0865603
000270 c7 4b 84 3e f9 ae 9c 3d ca 3a 47 3e 00 ad 11 3e
       0.25839064 0.07650561 0.1945602 0.1422615
000280 db e2 5e bd ef 7e 0b 3e c0 2e 9e bd 41 57 c0 bd
       -0.054415565 0.1362264 -0.077237606 -0.09391642
000290 de 66 36 3e 38 c7 8c 3c bf 31 8c b9 ea 1e 4b be
       0.17812678 0.017184839 -0.00026739945 -0.19836012
0002a0 84 bf 34 bd e3 7f 52 3c 32 4a 59 be 40 d5 0b be
       -0.044127956 0.012847873 -0.2121971 -0.13655567
0002b0 60 93 26 be 08 ef e3 bd 08 60 97 bd d3 9f af 3c
       -0.16267157 -0.11129576 -0.073913634 0.021438515
0002c0 eb 40 00 be 6d 65 45 be b8 f2 3e 3e 77 f3 46 be
       -0.12524764 -0.19276972 0.18647277 -0.19428812
0002d0 d8 82 47 3d b3 77 28 3e 1f 7f 6f be 99 fb 55 be
       0.048708767 0.16451912 -0.23388337 -0.20896758
0002e0 9e 4b 6c 3d 4a 93 24 3e 68 d0 0f 3d b8 62 c7 3d
       0.0576893 0.16071811 0.03511086 0.09735626
0002f0 2d 59 ab 3d d4 99 a2 bd 6b 7d e3 3d 12 02 5c 3d
       0.08366618 -0.07939497 0.11107906 0.053712912
000300 83 f3 2b be 2d 23 a2 bd 66 52 e5 bd fe cf 16 be
       -0.16792111 -0.079168655 -0.11197357 -0.1472778
000310 ad f2 04 3c 25 5a 21 be 98 ae 1b be eb ef 93 bd
       0.008114499 -0.15757044 -0.15203321 -0.07223495
000320 b8 ae 1f be 09 03 80 3d 6a 96 79 3e b2 ba 3f bd
       -0.15593994 0.06250579 0.24373785 -0.046808906
000330 14 a0 66 3e a6 40 2c be 4d b4 8d 3c ee 91 15 be
       0.22522002 -0.16821536 0.017297888 -0.14606449
000340 f1 09 2f 3e 14 f4 50 be 2e 75 db 3d 6c ed 9f 3d
       0.17093636 -0.20405608 0.107157096 0.078089565
000350 76 bf f2 3d 96 af 88 3d 31 e2 3e be 8e 36 f3 3d
       0.118529245 0.06674115 -0.18640973 0.1187564
000360 7f 77 17 3e da fa e4 3d d4 84 a3 3c a7 9f 1d 3e
       0.14791678 0.11180659 0.019960798 0.15392934
000370 8d 5a b6 bc 2b 02 21 3e 83 52 47 be cb f5 34 be
       -0.022259975 0.15723483 -0.1946507 -0.17671888
000380 dc 81 eb 3e 8f ef 6c be 27 36 3f 3e ca 62 57 3e
       0.45997512 -0.2313826 0.18673001 0.21033779
000390 85 82 eb bd 3f b5 f2 bc 32 9f 2d 3f 6f 2f f5 bc
       -0.11499504 -0.02962744 0.6782104 -0.029929845
0003a0 b5 33 b2 3d 8e 89 06 be a5 91 98 be 96 9f 9a bd
       0.087012686 -0.1313841 -0.29798618 -0.0754997
0003b0 e3 61 fe bc 21 e8 91 3d a3 65 85 3c 61 7e 2b be
       -0.031052535 0.07124353 0.016283816 -0.16747428
0003c0 61 13 c2 3e 86 f4 a4 bd 9c 65 8e be 0b 7c eb 3d
       0.3790541 -0.08054452 -0.27811897 0.11498269
0003d0 d6 04 e9 bc 53 11 b1 3d 46 56 20 3f 72 02 b3 be
       -0.028444689 0.086458825 0.6263164 -0.34962803
0003e0 ff 66 43 3e 59 7c 33 bd c3 68 2e bd a8 74 14 be
       0.19082259 -0.04381976 -0.042580377 -0.14497626
0003f0 39 f2 8e 3d 37 15 34 be e9 8c 86 3e 43 fb 34 be
       0.06979794 -0.17586218 0.2627938 -0.17673974

arr_6 f4 [2, 64]
000000 55 f1 2c be a7 7d f5 bd 57 51 9e be 59 f2 9b 3d
       -0.16888936 -0.11986857 -0.30921432 0.076145835
000010 1a 3b 57 be 48 d8 6b 3f 3e 24 3a bd e8 b2 67 3e
       -0.21018639 0.92126894 -0.04544472 0.22626841
000020 e4 09 84 3c 30 c0 92 3d 02 ac 47 3d 34 71 a4 3d
       0.016117997 0.07165563 0.048748024 0.08029404
000030 6d 31 21 be 83 79 bc bd ab ab 66 3d 90 3e e1 3d
       -0.1574151 -0.09202864 0.05631606 0.10998261
000040 25 64 14 3c 72 39 05 be 47 17 40 3d e0 e7 72 be
       0.009057079 -0.13010195 0.0468972 -0.23721266
000050 f6 6f 4b be 5f 9f 03 bf 10 36 d8 bd f7 81 a9 3c
       -0.19866928 -0.51415056 -0.105571866 0.020691855
000060 e6 1d 08 bd b5 12 ed bb eb 4c f6 bd 1a 96 6d be
       -0.03323164 -0.007234896 -0.1202639 -0.2320179
000070 4f 20 ac be c8 6b 88 bd d2 0d 58 3d c3 de 8f 3d
       -0.336184 -0.06661183 0.052747555 0.0702491
000080 40 57 7d 3f 1a c0 99 3e 48 e7 54 3f 3f b0 f0 3c
       0.9896126 0.30029374 0.8316541 0.029380916
000090 2d c1 eb 3d ab 85 85 bd 9a 8f 80 3d 58 c6 08 3d
       0.11511455 -0.06519636 0.0627739 0.03339228
0000a0 3c 00 0a 3e 1a 3d b4 bc 04 eb 3f 3e ae 1b 4c be
       0.13476652 -0.022001792 0.18741995 -0.19932434
0000b0 fa 81 98 3d 03 19 48 bf cb e9 bc be 2d c7 a7 be
       0.07446666 -0.78163165 -0.3689712 -0.32769147
0000c0 9a d0 28 be fb 2a 85 bd 1e 62 1e 3e 1d fc 6e be
       -0.16485825 -0.065023385 0.15467116 -0.23338361
0000d0 ce 30 d2 be 67 2b cb 3b 22 6b 7e be de 83 05 be
       -0.4105286 0.0062002423 -0.24845555 -0.13038585
0000e0 e0 9a 6a 3d 8d 83 84 bd e4 ed f6 bd 5d f8 80 be
       0.057276607 -0.06470404 -0.12057093 -0.25189486
0000f0 b9 1a fd bb 6a 95 fb ba 9b 6e 97 3e b7 5b 07 3e
       -0.007724133 -0.0019194309 0.29576573 0.1321858
000100 64 93 fb 3d ad 37 01 be 3a c5 9e 3e 8b 2f 4d 3d
       0.12283972 -0.12618895 0.31009847 0.05009417
000110 bc cd 0d bd fb 6f 7d bf 73 a5 57 ba 31 b6 0d 3e
       -0.03462003 -0.98998994 -0.0008226253 0.13839032
000120 24 47 95 bc a6 31 40 3c b2 77 64 3d 40 f9 cc 3d
       -0.018222399 0.011730587 0.055778213 0.10008478
000130 66 45 86 be 03 fd a9 3d 54 69 03 be 45 11 13 be
       -0.26224822 0.08300211 -0.12833148 -0.14362057
000140 df 40 61 bc 75 f8 50 3e 57 47 3d bd 25 81 ee bd
       -0.013748377 0.20407279 -0.046210613 -0.11645726
000150 5d e3 54 be 04 ca 04 3f 60 0d 1b 3e ac 9d d1 3d
       -0.20789857 0.5187075 0.15141821 0.10235152
000160 2a b0 9f bd e2 35 a2 3c 1c 81 80 3d b1 f9 87 3e
       -0.077972725 0.019801084 0.06274626 0.26557687
000170 6c f6 a7 3e 69 4d 12 bd 07 69 68 bd c8 7d 96 bd
       0.32805192 -0.035718355 -0.056740787 -0.073482096
000180 d5 18 7f bf f3 05 9a be 86 f6 58 bf 4f 0a f9 bc
       -0.99647266 -0.30082664 -0.84751165 -0.030400423
000190 80 ce dc 3d 21 9e 91 bd 4c 86 93 bd ec eb 0b 3d
       0.10781574 -0.07110239 -0.072033495 0.03416054
0001a0 62 d2 ff bd 67 21 25 bc 81 2f e9 bd d3 db 2b 3e
       -0.12491299 -0.0100787645 -0.11386014 0.16783075
0001b0 60 16 a2 bd 75 e5 48 3f 17 e3 ba 3e a1 54 a4 3e
       -0.07914424 0.78475124 0.3650138 0.32095817
0001c0 04 8b e7 bd fd 47 04 bd 10 65 9e 3b ec 5d 71 3e
       -0.11305812 -0.032295216 0.004833825 0.23570985
0001d0 09 fa d4 3e 97 99 5f bd 7b 27 85 bd 29 0a 91 bb
       0.41597012 -0.054589834 -0.06501671 -0.00442626
0001e0 6d cb 7e 3d 47 fe 5b 3d 60 f9 b3 3d 4e 65 17 be
       0.06220572 0.053709295 0.08787799 -0.14784738
0001f0 49 42 f2 3a 97 f2 5a bc 64 f6 30 be 5d 65 c0 be
       0.0018482889 -0.013363502 -0.1728149 -0.37577334

arr_7 f4 [4, 1, 1, 16]
000000 4e 66 55 be d7 7d 6b be eb 22 cf be 61 01 0a bf
       -0.20839807 -0.22997223 -0.40456328 -0.53908354
000010 cc 5b 3e 3e c1 fa 73 3e ce 4e aa be 06 8e bc bc
       0.18589705 0.23826124 -0.33263248 -0.02301694
000020 0b 5d 17 3e 2d 53 c0 bd 14 91 1b bd bb b0 06 be
       0.14781587 -0.093908645 -0.037980154 -0.13153355
000030 45 d7 b5 be 4a 00 19 be 5f e5 ee 3e 20 b7 b5 3e
       -0.355158 -0.14941517 0.4665937 0.35491276
000040 89 4d c9 bc 38 0f 94 be c4 56 b7 bc 82 d2 72 be
       -0.024573104 -0.2891786 -0.02238024 -0.23713115
000050 b2 c8 84 be 76 2d ca be 20 4b 27 3e cd 94 ee 3d
       -0.25934368 -0.3948781 0.16337252 0.11649475
000060 06 d4 82 3e ca 11 84 3d b1 99 38 be 0e 48 df bb
       0.25552386 0.064487055 -0.18027379 -0.0068140095
000070 b7 9d b6 3d 86 a0 2a 3d 0e cf 3a bd 29 f6 28 3e
       0.089168005 0.041656993 -0.04560762 0.16500153
000080 20 86 ae bd 74 cd e0 3d 3d 7f 6e 3d b0 1a 5e 3e
       -0.08521676 0.10976687 0.058226813 0.21689868
000090 ac dd a9 3d 34 70 58 be 35 91 df bc 65 12 20 bd
       0.08294234 -0.21136552 -0.02729092 -0.039080042
0000a0 e8 70 1b bd da bb b5 3d a4 63 ae bc a9 09 26 3d
       -0.037949473 0.088737205 -0.021287747 0.040536556
0000b0 b2 ce 1f 3e 5d 02 23 3e 1f e7 9a 3d a7 9f d0 3d
       0.15606192 0.1591887 0.07563614 0.10186701
0000c0 3e 7e dd 3e f1 9d cb 3e e6 21 19 bd 2f d2 87 3e
       0.43260378 0.39768937 -0.037385844 0.26527545
0000d0 1f ce 7f be 55 86 53 3e 5a aa 9d bd 88 a3 3a 3e
       -0.24980973 0.20656712 -0.076985076 0.18226445
0000e0 03 40 84 be c9 50 68 3e 9e fe 1c ba b9 72 47 3e
       -0.25830087 0.22687067 -0.00059888687 0.19477357
0000f0 1e 76 c4 3e 56 d9 72 be 61 ee 86 be 98 dc a6 be
       0.38371366 -0.2371572 -0.26353744 -0.32590175

arr_8 f4 [2, 1]
000000 7c 9c f6 3e c0 8a 01 3f
       0.48166263 0.5060234
