Nengo-Autoencoder/keras_to_loihi_neuron_params_15epoch.npz (npz, 684230 bytes, 9 tensors)

arr_0 f4 [128, 768]
00000000: 6734 c7bd c932 abbd fd7d 22bd a328 87bd
00000010: 7730 61bc 3b21 89bd f2bf 78bd 9936 83bd
00000020: 2b79 b43c a16e 9fbd cc09 3fbc c065 0c3b
00000030: ffab 58bd 4c71 6cbd d259 9abd d9a6 483c
00000040: 1476 923d 372d 843d 2277 8cbd b068 8b3c
00000050: b586 063d 6cc3 2a3d 1e02 eabd 7c6a 7b3d
00000060: 2c63 483d 5d9a 34bd 5493 5fbd acef 46bc
00000070: 1766 1ebd 4dc7 51bd 2597 163c a8c1 8bbc
00000080: 8017 f03a f080 15bc 3a2b ea3c faf5 3b3d
00000090: b455 433d c421 943d ccab 22bd a065 873c
000000a0: 80e8 943b 902d 10be cbda 663d 8cda 1d3d
000000b0: 38c2 e8bc 6652 a7ba 0836 313d d41d e6bc
000000c0: bb63 9fbc ea81 de3c 34f5 813d f856 a63c
000000d0: bf84 463d b550 e93c 669e d6bd adcb aebd
000000e0: 0cc1 8abd efa2 47bd c047 d0bb e4c4 19bc
000000f0: a119 6cbd 6156 abbb 5435 46bd ed0a 003d
00000100: b81e 3b3d fa00 a33d 2ccf 573c 98cd 88bd
00000110: f73a 683c 1078 9cbd 4042 633d 23d7 52bd
00000120: cfde 173d 503c a83c 9921 6bbd 6334 a3bd
00000130: 1456 d13c ceb9 6e3c e165 faba 36ba 1ebd
00000140: 1b59 a2bd c8b1 ba3a f6e6 21bd 3d7d 38bb
00000150: f4bf 84bd 2bfa 2dbd 6de0 42bd de85 b2bc
00000160: d094 a0bd 3ad2 77bd 16da 52bd c03f 52bd
00000170: 1fb3 183d 93a3 41bd 6158 a5bc e9a4 adbd
00000180: af83 06bd 4f93 81bd 8749 293d 3127 8d3d
00000190: 9553 243d 65f8 8c3d 958d 86bc b378 0f3c
000001a0: 4029 78bd 1141 91bd 04b1 323c 657d c5bc
000001b0: 2748 a6bd 9113 dc3c 1361 65bd 8e2d 2a3d
000001c0: 1609 c0bc 9d87 8ebd 9231 9fbc 821c 103d
000001d0: af43 0fbd bea0 aebc e36e a2bd 4135 5fbc
000001e0: 5156 b7bd 813a 91bd 5ae6 273d 40c3 9a3d
000001f0: e4ff 183d 1e3c 783b b183 003c 042e 19bc
00000200: a335 4c3d e91e 06bc a260 31bd 82aa 4cbd
00000210: 880b 273d 0c1c 51bd 2d4a 853d b758 abbd
00000220: b39b 453c 544c a2bc 4576 c9bd 800c 1ebb
00000230: 668c 82bd 5e5e 50bd 4bcf 2b3c 683b a83a
00000240: e073 6c3d 45a7 6f3c 7266 273d 389c 5a3d
00000250: f08b 12bd a292 e9bc e609 b8bd 1038 ce3b
00000260: b7a6 fb3c ec20 83bc 02f1 c0bc 2a59 953d
00000270: d890 983d 4168 1b3d ba1e ad3c 2ba0 8abd
00000280: a03c 60bb 8c05 8a3c 8a63 dd3c 66ff c2bd
00000290: 3066 c1bc 0086 1ebb d7a7 49bd acb8 f33c
000002a0: 7ad2 87bd 6b3f 81bd 7a5e 8e3d 3c6f 903d
000002b0: f3b6 40bd 5d9e 69bd aa05 873d 702b b0bb
000002c0: 0d91 073d 1d03 863d 260d 9fbd 2b1b 8f3d
000002d0: 667d a0bd 43f7 9cbd 5a77 bb3c c288 d1bc
000002e0: 2414 93bd f6b4 f53a a132 27bd 4050 cf3b
000002f0: 5490 0ebd a6a3 d93b c592 57bd e129 973d
00000300: fd93 a3bc cff1 52bd 44d9 6dbd ffc2 153d
00000310: b69d 0e3c 8c67 08bd c476 97bc 7bea 323d
00000320: d98b c8bd 28fd 38bd 1f89 8cbd f4bb 473d
00000330: 364f 903d a74b 773c 534a 8fbd 7453 343d
00000340: f8bd 093d b0dc c6bb d354 4dbd 365e 333d
00000350: 6d97 9dbd c955 4d39 5afa bcbd cc3d 463d
00000360: 4fb3 f23c 8458 6bbd 0961 cdbb 7c01 78bc
00000370: 3936 9cbd 9b97 3ebd 91c9 edbc 1d32 bb3b
00000380: 8f87 e93c 8cc9 3bbd b68f aebb c48f dbbc
00000390: 9988 c2bc 939f a0bd d4c7 553c c0e9 0a3d
000003a0: 8825 b4bc 308c 94bb 4dcc 04bc 8346 073d
000003b0: b1da 423d 3adf a2bd 040c bb3b 1fb7 c7bd
000003c0: cee1 21bd 00b3 033b b6ce e2bc d13f df3c
000003d0: e2b3 54bd d72e 83bd c61c 85bd 6995 f63c
000003e0: b8d7 73bd 2263 683d 25a4 44bd 5c67 0bbd
000003f0: d6ad 80bd 804b 993c 4fdc fcbc 6d42 073c
-0.09726792 -0.08359296 -0.039670933 -0.06599548 -0.013744465 -0.06695791 -0.06072993 -0.06406898
0.022030434 -0.07784773 -0.011660051 0.0021422952 -0.052898403 -0.057725236 -0.07536663 0.012246811
0.07151428 0.064539365 -0.0685866 0.017017692 0.03284331 0.041690275 -0.11426185 0.06138085
0.048922703 -0.044092525 -0.054583862 -0.012142103 -0.03867158 -0.05121546 0.009191309 -0.017060116
0.001831755 -0.009124979 0.028585065 0.04588888 0.047689155 0.07233003 -0.03971462 0.01652795
0.0045443177 -0.1407988 0.056361 0.0385385 -0.028412923 -0.0012765646 0.04326442 -0.028090395
-0.019456735 0.027161557 0.06345597 0.020305142 0.04846644 0.028480867 -0.10479431 -0.08534942
-0.06775102 -0.04873937 -0.0063562095 -0.009385321 -0.05764163 -0.005228803 -0.0483907 0.03126042
0.045683593 0.07959171 0.013171952 -0.06679839 0.014174215 -0.076400876 0.055483103 -0.0514747
0.03707772 0.020536572 -0.057405088 -0.07968976 0.02555374 0.0145706665 -0.0019103849 -0.038751803
-0.07927152 0.0014243657 -0.039526902 -0.002815082 -0.06481925 -0.042474907 -0.04757731 -0.021792348
-0.07840884 -0.060503222 -0.051477514 -0.051330328 0.0372802 -0.047275137 -0.020183744 -0.0847872
-0.032840427 -0.06326925 0.041329887 0.06892241 0.040118773 0.06883315 -0.016424933 0.008756804
-0.060586214 -0.070924886 0.010906462 -0.024107644 -0.08119231 0.026864799 -0.05600078 0.04154735
-0.023441833 -0.0695946 -0.019432817 0.035183437 -0.034976657 -0.021316882 -0.07931306 -0.013623537
-0.089520104 -0.07091237 0.040991165 0.07556772 0.03735341 0.003787763 0.007843898 -0.00934935
0.04985584 -0.0081860805 -0.043305047 -0.049967296 0.04078248 -0.05105214 0.065082885 -0.083665304
0.012061047 -0.019811787 -0.09837011 -0.0024116337 -0.06374435 -0.050871246 0.010486434 0.0012835087
0.057727695 0.0146272825 0.040869184 0.053371638 -0.035777986 -0.028512303 -0.08986263 0.0062933043
0.030719144 -0.01600691 -0.023552421 0.07292397 0.07449502 0.03794122 0.021132816 -0.06768831
-0.0034215823 0.016848348 0.027025003 -0.0952137 -0.023608297 -0.0024188757 -0.04923233 0.029751144
-0.06631942 -0.06310924 0.06951614 0.07052466 -0.047049474 -0.057035793 0.06592877 -0.005376272
0.033097316 0.065435626 -0.0776618 0.06987604 -0.07836418 -0.07664349 0.02288406 -0.025577907
-0.07181576 0.0018745947 -0.040819768 0.006326705 -0.03480561 0.006641823 -0.052630205 0.07381035
-0.019968027 -0.051500138 -0.05806853 0.036562916 0.008704593 -0.033301875 -0.018489249 0.04368065
-0.09792299 -0.045163304 -0.06862091 0.04876323 0.07046358 0.0150937205 -0.06996598 0.0440249
0.033628434 -0.0060687885 -0.050129723 0.04379102 -0.07694898 0.00019582281 -0.09227438 0.048398778
0.029626517 -0.057457462 -0.006267671 -0.015137073 -0.0762753 -0.0465313 -0.029026778 0.005712761
0.028507022 -0.045846507 -0.0053271903 -0.026801951 -0.023746775 -0.07842936 0.013048131 0.033914328
-0.021990553 -0.004533313 -0.00810535 0.03302623 0.04757184 -0.07952733 0.0057082195 -0.097517245
-0.039521985 0.0020095706 -0.027686458 0.02725211 -0.051929362 -0.06405418 -0.06499629 0.030100541
-0.059531897 0.056735165 -0.048008103 -0.034034118 -0.062831566 0.018712759 -0.03086677 0.008255583

arr_1 f4 [8, 1, 64, 128]
00000000: 9617 97bb f85b febd 24b3 643c bcec 08be
00000010: d6a4 45bd d02b 103d 2e67 aebc 5cfa 773e
00000020: 041e 79bd 6d69 23bd 16c2 713c fcae c33c
00000030: 30ca d5be 72ff 23be 4e9d 4dbe cad5 07be
00000040: 7ca6 8abd f560 bf3e fc00 043d bbbc 343d
00000050: f0a0 083e 265d c83c 474e a4bd 88ac f53c
00000060: 942b fabc e07b 6b3c 5480 2d3d 0478 a3bd
00000070: 76b6 9b3c c812 b0be 42cd 543b 7ba1 4f3b
00000080: 4064 74bb 9dfd 87bd 9dfc b73d f5e8 253c
00000090: 7a0d b4be f21a d23d ab61 34be a19c 0cbd
000000a0: 0ded 7dbd 5eb6 db3d a20c 903d 25a8 8dbd
000000b0: 859e 2a3d 88ee 0fbe bb52 693d fddf bdbc
000000c0: 2c76 373d a0dc 58be d619 abbc 1614 0cbd
000000d0: 5e78 343e e814 1bbd 1602 5b3e d8b7 343e
000000e0: 85b4 213d 8f66 0a3e 395b 923d dac4 613d
000000f0: bdc6 c63c 41b6 683d 5471 7e3d a4c8 6cbd
00000100: eaab d7bd 9412 943d e5b0 25bd fa66 86bd
00000110: 4252 dcbd fa8b bbbc a094 33bc 484a 1e3e
00000120: 64e4 41bd c581 5cbd 7d93 843d 045b ccbc
00000130: 5861 efbd d3dd a9be aa6a 4c3e 6950 583d
00000140: 2f1b 8ebd e042 b63e 44b1 f93b f7de 60bd
00000150: 9c4d 25bd 9ec1 213e b479 2abe d8dc b0bd
00000160: 5745 62bc 6468 dc3c 9c80 0c3d 056a 03be
00000170: 5dc6 aabd 0112 93bc 72b6 fa3d 2171 62be
00000180: 6bc8 86bc 55f6 d2bb 6567 04bf e682 7abe
00000190: 162c 2dbd a8b7 62be f98b 8f3d d7dc 1fbd
000001a0: be31 5abd 9705 1bbc 4cfe d9bb 9b36 e13c
000001b0: 987e c23c 4ad3 fbbe b0a0 0c3c f533 cfbd
000001c0: 5607 5dbd 1629 2fbc 9969 263d abbd d5be
000001d0: 0093 763a 5625 1cbd 1f46 c0bd 0643 c3bc
000001e0: c37d 333d d89b abbd c1f1 6ebd 8bd7 18bd
000001f0: 8878 1b3d 0466 253c 9834 d8bb 4254 e0be
00000200: 6335 32bd d188 72bd d278 0cbc ac02 9c3b
00000210: 1698 64bd c86a 7ebc aa17 ed3c 9ae9 c9bc
00000220: cba7 533d b480 383d f675 323d a876 56bd
00000230: 371c 24bd 557a 56bc 40ef 933d 9a2f b9bc
00000240: 52a4 3fbc 85b1 91bc 61f1 5cbd 764d 30bd
00000250: 2853 67bd 2734 743c 15dc 5abd a12f c0bb
00000260: e6a4 ed3c f064 1b3d 97ea 92bc c1c6 60bd
00000270: 8704 a03c 92be f4bc c296 bbbc ac8e f73b
00000280: 16fc 343d 1a20 8fbd 4267 19bd 8dee 8fbc
00000290: ca78 583c 6267 6f3d 4863 91bc 338c 4f3d
000002a0: b798 363d 0f83 343d 632a 043d 60b1 50bc
000002b0: 3527 05bd 1424 ed3c 4f06 4ebd b894 9e3c
000002c0: dc09 a23d e555 b1bd 5816 9bbc f0bc 18bd
000002d0: 8939 0ebd 5197 563c 634f 7e3d fa5f f3bb
000002e0: 1874 393d cec9 84bc 866f 80bd 67cf 373d
000002f0: 3a15 f7bc 0ba8 a73c 9cfe 35bd 37a9 8ebd
00000300: dc2a eabc b495 dfbc 0a4d 2fbc 8936 a4bc
00000310: e017 b4bb 4492 3bbd c07a 293d 5c66 8abc
00000320: 42c0 633d 34aa 5bbd 7e54 0fbd 3c17 603d
00000330: a089 2cbd 5eb9 063c 0122 8cbc 1576 57bd
00000340: a621 883d 8f70 533d a4ea 56bd a79b e6bc
00000350: d432 abbc 2311 403d 69eb d9bc 62bb 3cbc
00000360: 92ee 42bd 3eca 54bc 7118 493c 63a0 12bc
00000370: 65bb 673c 894e 84bd 4be2 333d 00d0 533d
00000380: dc9f 383d 9225 36bd 51ce 243d 5ad4 dc3b
00000390: ad03 e2ba e064 6dbc 824e a33d cd5d 273c
000003a0: 07a1 233d c707 64bd 0fb4 85bd 6dc4 fa3c
000003b0: 6ff2 343d f35c 8f3d ebc5 8b3c cddc 64bd
000003c0: 96ff 65bd 1d5c 973a d9b0 0d3d 5f06 513d
000003d0: 83f7 763c 7326 d3bc 5a75 79bb d664 24bd
000003e0: 936d e0bc 7380 383d 4c6e 023d 9acd 48bd
000003f0: 9f2d 45bd e5d9 e93c 0030 2abd 67f9 523d
-0.004610966 -0.124198854 0.013958726 -0.13371557 -0.048252903 0.035198033 -0.021289434 0.24216598
-0.06081964 -0.039895464 0.014755746 0.02388715 -0.4175582 -0.16015413 -0.20079538 -0.13265148
-0.067700356 0.3737866 0.0322275 0.0441253 0.13342643 0.02445848 -0.08022743 0.029989496
-0.030538358 0.014372796 0.04235871 -0.079818755 0.019007903 -0.3438933 0.0032470976 0.0031681943
-0.00372912 -0.0664017 0.08983729 0.010126342 -0.35166532 0.10259046 -0.17615382 -0.03432906
-0.061993647 0.10728143 0.070336595 -0.06916837 0.041655082 -0.14055836 0.056963664 -0.023178095
0.04479043 -0.21177912 -0.020886343 -0.034198843 0.17624041 -0.037861735 0.21387514 0.17648256
0.039478797 0.13515685 0.071463056 0.055119373 0.024264688 0.056814436 0.062119797 -0.057808533
-0.10530837 0.07230106 -0.040451903 -0.0656261 -0.10757877 -0.022893894 -0.010960728 0.15458024
-0.04733695 -0.053834695 0.06473444 -0.024945743 -0.11688489 -0.3317705 0.19962564 0.05281106
-0.069387786 0.35597897 0.0076200087 -0.054900136 -0.040357217 0.15796515 -0.16647989 -0.086358726
-0.013810477 0.026905246 0.03430234 -0.12833412 -0.08338616 -0.01795292 0.1224183 -0.22113468
-0.016452989 -0.0064380565 -0.5172027 -0.24463996 -0.04227837 -0.22140372 0.070091195 -0.03902897
-0.053270094 -0.009461782 -0.006652629 0.027491858 0.023742005 -0.49184638 0.008583233 -0.10117332
-0.053962074 -0.010690948 0.04062805 -0.41746268 0.000940606 -0.038121544 -0.093883745 -0.02383567
0.043821108 -0.08379334 -0.058336023 -0.037314933 0.037956744 0.010095123 -0.0065980665 -0.43814284
-0.043507945 -0.05921251 -0.008573728 0.0047610607 -0.055809103 -0.015528388 0.028941948 -0.024647523
0.05167369 0.045044616 0.043569528 -0.052359253 -0.04006597 -0.01309069 0.07223368 -0.022605706
-0.011696892 -0.017784843 -0.053941134 -0.043042623 -0.05647579 0.014905012 -0.053432543 -0.005865053
0.029009294 0.03793806 -0.017934127 -0.054877046 0.019533409 -0.029876027 -0.022899035 0.0075548496
0.04418572 -0.06988545 -0.03745199 -0.017569805 0.013212392 0.058448203 -0.017747536 0.050670814
0.044579234 0.0440703 0.032266986 -0.012737602 -0.032508094 0.028947867 -0.050298985 0.019358024
0.07912037 -0.08658961 -0.018931553 -0.03728956 -0.03472284 0.0130976 0.062087428 -0.007427213
0.04527673 -0.01620951 -0.062712714 0.04487553 -0.030161489 0.020465871 -0.044432268 -0.06965869
-0.02858489 -0.027293064 -0.01069952 -0.020045536 -0.00549601 -0.045793787 0.04137683 -0.016894512
0.055603273 -0.053629115 -0.034992687 0.054709658 -0.042123437 0.008222906 -0.017106058 -0.052602846
0.06647043 0.051621016 -0.052469864 -0.028150393 -0.02089826 0.046891343 -0.02660151 -0.011519285
-0.0475908 -0.012987671 0.012273894 -0.008949372 0.014143799 -0.06460292 0.04391698 0.051712036
0.04507433 -0.044469424 0.04023582 0.0067391815 -0.0017243527 -0.0144893825 0.079739586 0.010215235
0.03994849 -0.05567148 -0.06528484 0.030611241 0.044176515 0.070001505 0.017062148 -0.055874635
-0.05615195 0.0011547838 0.034592483 0.051031467 0.01507366 -0.02577517 -0.0038064332 -0.040135227
-0.027395999 0.045044374 0.03184347 -0.049024202 -0.04813921 0.028546283 -0.041549683 0.05150738

arr_2 f4 [64, 128]
00000000: 9870 47bd ef35 b2bd 4855 01be eadd 053e
00000010: 0a12 f13c cebf b03d f8d9 1b3d b0cb 843d
00000020: cfaf 29bd d4d2 29bd 602f f6bc 5f1c e93d
00000030: 38fb 6ebd 9616 94bd 4090 2cbd f0fa 253d
00000040: 87eb b0bd e0f3 1bbc 7c12 e4bd 5d7e 08be
00000050: 1295 a9bd 531b 13be 7339 0dbe c2c6 13be
00000060: 3939 1f3e b629 2d3e 1dfa 1e3e 4df2 35be
00000070: bc8f 99bd 5f9b 233e da52 1abe f692 ba3d
00000080: 88b2 17be 04a7 7a3d b7b6 0c3e 3d4d e6bd
00000090: aa29 7ebd 88c8 1cbe d397 133e 2c5a da3d
000000a0: 270c 15be 8313 18be 085a 6abd aaeb dbbd
000000b0: 051d f03d 60ae cabd ce70 b03d 0610 973c
000000c0: 3ba9 7f3d f0c8 3cbd 56b2 61bb 0134 fc3d
000000d0: 6a24 df3d 43a7 c0bd 8cac 02be 2fcd f43c
000000e0: e599 413d 57d4 b53c 60ee 8bbc d28f 5bbe
000000f0: 8d9d 223e 9e44 92bd 805b e8bd c89a ae3c
00000100: 9561 063d c182 51bd 6ce6 73bb ceed cc3d
00000110: 39fd ef3d a719 d7bd f407 c2bd d729 a8bd
00000120: ce53 cebc ea26 78bd 6943 28be 934a 03be
00000130: fa8d de3d f0d5 dcbd 0889 21be ef01 1e3e
00000140: b6b3 19be c6ee ed3d c894 dc3c 36fd db3d
00000150: f22c 93bd 0d63 383d 573f d5bd 2513 03be
00000160: 5e76 a93d 1cd3 1cbe 4ea9 16be e84c 43be
00000170: c981 31be 6a08 9fbd 88f6 0abe d77b 5c3d
00000180: 1f81 2bbd fb43 133e b2b3 2a3e 1709 d5bd
00000190: 2a78 3ebd daef 24bd 2a42 84bd ee95 22be
000001a0: ff81 073e 9e0d a93c 7d1b 91bd 4460 0f3d
000001b0: 462f f7bd 9a99 d13d b5e1 16be 5c27 3dbe
000001c0: 345f 2ebd 09bb 43be 5624 1dbe 907a 21be
000001d0: 0ca1 013e 8ee9 c53d 6034 3c3b 9712 253e
000001e0: 9e97 673d 865a c73d e1dc b53d 1a8a d33d
000001f0: 22a3 f43b fa31 d8bc 014c dcbd 99f1 2d3d
00000200: 22d9 03be 9de0 ed3e 2dfc acbd 137f 74bd
00000210: 42fc 7a3e 6a71 1e3e f006 3bbc b1a8 aabe
00000220: d18c 193e f056 293e ca55 1cbe a9fb c33c
00000230: 258f 9fbd 5b36 763e 378b 3a3b 84b6 89be
00000240: 5367 a33c dbf8 b0bd 1fbb 1d3d e14b 913c
00000250: 07f6 b83d fc5f 85bd 9582 a6bc b85d b1bd
00000260: 2738 0cbd aef1 adbd 662f af3d 5a1c 093e
00000270: cf4f a8ba 1277 87bd be5f cbbd 8da7 fabd
00000280: e733 f03d c0e0 f13c 5feb d3bd f145 033e
00000290: 1a63 01be 6836 613d 1dab 4c3d 8403 093d
000002a0: f8dd c6bd 66af 27be 23e1 a1bd 167c 5c3e
000002b0: 186f 8c3d 182a a43d d618 923e 3545 993c
000002c0: 38cb 8d3e a1fd 293b bba5 33bd 511e 773e
000002d0: 61a1 6f3d 1625 163e 2e46 bf3e c076 f6bd
000002e0: 8ce5 12be ffd5 c53e 0009 07be b129 6c3e
000002f0: 7e8f 41bd e47c 6e3e 5c02 423d 0465 1dbe
00000300: 7bff 80bd dbf8 aabd 6d91 78bc cc5e 8f3e
00000310: 1c68 5abe 698e cb3e 9fb4 3cbd 648f 2e3c
00000320: 2a54 fdbb 911c 00be afbe 413e 42d2 1b3e
00000330: a089 38be 9e8f 3bbe 828c 1bbe 8baf acbd
00000340: be26 c43e a775 493d 4bea 84bd dbfd f03d
00000350: c417 fabd fb6a 233e 67eb 333d fa86 90bd
00000360: 9a12 51bc 1ab7 89bd bdee d5be 7ba2 37be
00000370: 01e0 2f3c bff4 603d c434 a6bd ca96 8b3e
00000380: 3c27 bcbd cf61 9f3d 7a44 20bd 78c1 8abd
00000390: 9699 c73d df10 a83d 86f7 2fbe f4f7 ec3c
000003a0: d727 eabd d5e0 e03d a993 fbbd 13f5 0ebe
000003b0: 9131 e7bd f895 1e3e bbb3 bd3d 5b0e 30bd
000003c0: 03b6 afbd 98d0 523e c696 02be aa90 df3d
000003d0: 3779 363e c994 f13d d873 c63d 532b 1cbe
000003e0: 50f6 203e 7845 29bc 636d 0d3e a757 c23d
000003f0: 4f75 96bd e14e e73e fff3 353e a407 303d
-0.048691362 -0.08701693 -0.12630188 0.13072935 0.029427547 0.08630334 0.038049668 0.06484163
-0.04142743 -0.041460827 -0.030051887 0.113823645 -0.05834505 -0.072308704 -0.042129755 0.040522516
-0.08638673 -0.009518594 -0.11136338 -0.13329454 -0.08280386 -0.14365892 -0.13791446 -0.14431289
0.15549172 0.16910443 0.15525098 -0.17768212 -0.07498118 0.15977238 -0.15070668 0.09110062
-0.14814198 0.061194435 0.13741575 -0.11245201 -0.062051453 -0.15310872 0.14413385 0.1066173
-0.14555417 -0.14851193 -0.057214767 -0.10738309 0.11724285 -0.09896541 0.08615266 0.018440258
0.06241725 -0.046090066 -0.0034438572 0.123146065 0.10895617 -0.09406903 -0.12761134 0.029882995
0.047265906 0.022195978 -0.01708144 -0.21441582 0.15880413 -0.07141994 -0.11345577 0.02131404
0.032807905 -0.051150087 -0.00372162 0.10006295 0.1171822 -0.1050294 -0.09474173 -0.08211105
-0.025186446 -0.060583986 -0.16431965 -0.12821417 0.10866924 -0.10782993 -0.1577493 0.15430425
-0.1500996 0.11617808 0.026926413 0.107416555 -0.07186307 0.045016337 -0.10412472 -0.12800272
0.0827453 -0.15314907 -0.14713022 -0.19072306 -0.17334665 -0.07765277 -0.13570607 0.05382904
-0.041871186 0.14381401 0.16670111 -0.104021244 -0.046501316 -0.040267803 -0.06457932 -0.15877506
0.13233183 0.020636376 -0.07085321 0.035003915 -0.120695636 0.10234375 -0.14734538 -0.18472046
-0.04257126 -0.19114317 -0.15345892 -0.1576941 0.12659091 0.09663688 0.0028717741 0.16120373
0.056541078 0.09734063 0.0888002 0.10329075 0.007465736 -0.026391018 -0.10756684 0.042466734
-0.12875798 0.4646043 -0.08446536 -0.0596915 0.24510291 0.15472952 -0.011415228 -0.33331826
0.14995123 0.1653707 -0.15267101 0.023923712 -0.077909745 0.24044172 0.0028464326 -0.2689706
0.01994673 -0.086412154 0.03850853 0.017736377 0.09031301 -0.06512448 -0.020325938 -0.086604536
-0.03423324 -0.08493362 0.085539624 0.13389722 -0.0012841168 -0.06614508 -0.09930371 -0.12238989
0.117286496 0.029526114 -0.10347628 0.1281965 -0.1263546 0.054983526 0.049967874 0.03345062
-0.09710306 -0.16375503 -0.079042695 0.2153171 0.06857127 0.08015841 0.28534573 0.018709758
0.27694106 0.0025938528 -0.043859225 0.24132659 0.058503512 0.14662585 0.3735823 -0.120343685
-0.14345378 0.3863983 -0.13187027 0.23062779 -0.047255985 0.2328983 0.04736553 -0.15370566
-0.06298729 -0.08348247 -0.015171391 0.28002012 -0.21328777 0.39757088 -0.04607069 0.010654304
-0.0077309804 -0.12510897 0.18920396 0.15216926 -0.1802125 -0.18316504 -0.15190318 -0.0843192
0.38310808 0.049184468 -0.0649 0.11767169 -0.12211564 0.15958779 0.04392567 -0.07056995
-0.012760783 -0.06724377 -0.41783705 -0.17933075 0.010734559 0.054920908 -0.08115533 0.2726348
-0.09187171 0.077823274 -0.039127804 -0.067751825 0.09746091 0.08206343 -0.17184266 0.028926827
-0.1143338 0.10980383 -0.12284023 -0.13960676 -0.11288751 0.15486896 0.092627965 -0.04298244
-0.08579638 0.20587385 -0.12752828 0.10916264 0.17819677 0.11795957 0.09690064 -0.15250902
0.15718961 -0.010331504 0.13811259 0.094893746 -0.073465936 0.45177367 0.17768858 0.042976037

arr_3 f4 [4, 1, 32, 64]
00000000: d139 b5bd b97a b43d e5a7 2f3e 6573 babc
00000010: ff0f 8a3b 2738 15bd 7642 54bc b0d1 503d
00000020: 306a 363d 6fd4 8b3b 2013 cc3d c7d6 923d
00000030: 683c ee3d a897 6abd 8aea ebba b8f8 67bc
00000040: f064 ae3d b0c3 db3c 7120 de3d 50e5 e93d
00000050: 37fc 1e3d f892 373d 7542 093e 0015 bb3b
00000060: bc81 b93d 25d6 7b3d 6bc3 0abe 1bab a43d
00000070: 4bc7 b33d abc1 3a3d bc73 dfbd 8604 0abd
00000080: 7933 fcbd 94b4 2f3e 4453 4b3d 3f51 b53d
00000090: b105 1b3d 71b8 b53c 40b2 823d fa8d 763d
000000a0: 2838 03be 802e c53c 20ea b13d ee0b 863b
000000b0: 044b cb3d 0c18 bfbd 2fd3 ae3b ca7c d03d
000000c0: 7f48 823d d396 27bb b8c1 9d3d fb64 263d
000000d0: 767a 9cbc c82f 4e3d 1cab e53d 38de 923d
000000e0: 6b8c b33d ac91 98bd e2db 2f3d 2be6 ccbd
000000f0: e06a d1bd b84f 7e3d 548f 283e 81b4 01bd
00000100: 3f2a 89bd e433 5a3b 0281 b1bc 24aa 3ebd
00000110: f403 e53a ac09 d53c 8471 6bbd 607c 1f3d
00000120: c088 e8bd 85ec 6a3d c8b3 23bd 4b2e c43c
00000130: 3cdf fdbc c886 dd3d 85a3 b53c 871a 0abe
00000140: ad33 08bd f45a ba3d 4333 473d 436a 94bd
00000150: 7af3 8c3d 9036 573d 9948 493b 80fc a23d
00000160: 5c40 9ebd 7cd9 8f3a bcca 813d c3b5 02bd
00000170: 8d4a f53c 05f9 d4bd f86a 9bbd 7d95 b2bd
00000180: 6be3 063e de12 c63d 88ba a23d d81f 59bd
00000190: 43cb fbbd d06d 30bd 2f97 7c3d 9341 403d
000001a0: 4722 fc3d 3007 4ebd 4c65 87bd 84ae 0c3e
000001b0: 0070 e33c d830 e9bd 26b3 703d 9f77 d93d
000001c0: 7eb1 943d 49ca 9d3d 8ce9 af3d d333 9cbd
000001d0: 6899 18bb 4e7f 19bd 3ac1 b43c d42a bb3d
000001e0: 9f0a 1dbe 6527 c83d 476b c7bd 721e 27bb
000001f0: 008b 423b 98a2 fe3d 1fd4 ecbd 5aaf 813d
00000200: 173b 2e3e bdab 53bd 591b 5ebe 9cc1 35be
00000210: 8560 8bbe e117 07be eff9 acbd f92c a3bd
00000220: 52ce e1bd aec0 5bba 10da 08be e4ab 94bd
00000230: ec2b 34be aa76 323c f957 4cbe 3005 093e
00000240: 4ae6 263d 7f5f 12be 2a98 98bc 4514 573e
00000250: e2a0 113e 77a2 11be 534c 9e3d e7ce d5be
00000260: 0e14 28be 628c d0bd 2739 1ebe 5cb8 27be
00000270: fab4 0cbf 4900 d53c 807c 7dbd f44b 4d3e
00000280: 6bb8 9e3d f199 55bc c751 e63b 9274 0b3e
00000290: 96f2 783e 2c73 e03d 7041 2e3e 8906 a8bd
000002a0: 0eaa c4bd 806b 9e3a 2881 21be 0380 5cbe
000002b0: 805d 8b3c 85f5 2fbd e94f 793e 266a 523d
000002c0: 7861 c63c 4188 193e 46a1 32bd 783b f63d
000002d0: 875c e13d fb2a 3d3d 8764 f53d cc0c 8bbd
000002e0: dd26 13be 6dff 3cbd d69b 1bbe d439 24bc
000002f0: e280 0cbd 73bf 4a3d 1a1c b13d a8e7 4a3d
00000300: f02d bc3c 904f e4bc 78ef a03d f076 c3bd
00000310: e04c 753d 1437 85bd 2076 0cbc c0f4 163c
00000320: 987a acbd 1c4c e73d 38d1 cbbd 100d 09bd
00000330: d087 4cbd 4036 f43c 7874 5fbd 4885 e83d
00000340: 34ee c8bd 4861 d2bd 803b 813d b86b 8ebd
00000350: 0c5c bbbd 40f2 b13d 403a dbbd 50f0 e6bd
00000360: d844 6abd 0053 7abb 902b d8bc b02e 4b3d
00000370: 1866 66bd ccba dd3d d0d1 f9bc 8071 2c3d
00000380: 9c47 bcbd 98a0 fdbd 606d 4abc 2c77 f2bd
00000390: e034 f03c 7898 44bd 409f f7bb 9cae 883d
000003a0: 305e e0bc a831 bdbd c878 f1bd 0c26 adbd
000003b0: 10d0 84bd 20f7 b9bd 68fa 85bd b098 f83c
000003c0: 98fe 98bd 80bb b73d 5492 97bd 042c df3d
000003d0: c832 d5bd 94be c83d 803d a43b a07d 1e3c
000003e0: a017 76bc 7898 58bd 10c4 583d 00ab c83d
000003f0: 2c99 803d 0821 503d d4da f0bd 40a4 203c
-0.08848918 0.0881247 0.1715389 -0.022760103 0.0042133327 -0.036430504 -0.012955299 0.050981224
0.044534862 0.0042672674 0.09964585 0.07169872 0.11632615 -0.057273537 -0.0017998975 -0.01415842
0.08515346 0.02682671 0.108460315 0.11420691 0.03881475 0.044817895 0.13404258 0.0057092905
0.09057948 0.06148352 -0.13551109 0.08040448 0.087782465 0.045594852 -0.109107465 -0.03369572
-0.12314505 0.17158729 0.049639955 0.08853387 0.037847225 0.022182675 0.06381655 0.060193993
-0.1281439 0.024070024 0.08687234 0.0040907776 0.099264175 -0.093307585 0.0053352336 0.101800516
0.06361484 -0.0025572076 0.077029645 0.040623646 -0.019101363 0.050338537 0.11214277 0.07171291
0.08767017 -0.0744966 0.042934306 -0.100048386 -0.10225463 0.062087744 0.16460925 -0.031666283
-0.06697511 0.003329509 -0.021667961 -0.046548977 0.0017472492 0.026005588 -0.057481304 0.038936973
-0.11354208 0.05735447 -0.039966375 0.023947855 -0.030990236 0.10816723 0.022172699 -0.13486682
-0.033252407 0.09099379 0.04863287 -0.0724683 0.06882377 0.05254227 0.0030713438 0.07958317
-0.07727119 0.001097485 0.06337497 -0.031911623 0.029942775 -0.10399059 -0.07588762 -0.08719919
0.1317269 0.096715674 0.07945734 -0.053008884 -0.122946285 -0.043073475 0.061667617 0.046937536
0.123112254 -0.050299823 -0.06611118 0.13738447 0.027763367 -0.11386269 0.0587646 0.10618519
0.072604164 0.077045985 0.085894674 -0.07627072 -0.0023284797 -0.037474923 0.022064794 0.09139028
-0.15336083 0.09773139 -0.097372584 -0.0025500325 0.0029684901 0.12433356 -0.115638964 0.06332274
0.17014728 -0.051677454 -0.2169012 -0.17749637 -0.27222076 -0.13192703 -0.084461085 -0.07967562
-0.110256806 -0.00083828985 -0.13364434 -0.07259348 -0.1759488 0.0108925495 -0.19955434 0.13380885
0.040746965 -0.14294241 -0.018627245 0.21003826 0.14221528 -0.14222132 0.077294014 -0.41759416
-0.164139 -0.10183026 -0.1545149 -0.16378921 -0.5496365 0.026001113 -0.06188631 0.20048505
0.07750019 -0.013037191 0.0070287916 0.13618687 0.24311289 0.10959467 0.1701715 -0.082043715
-0.09602748 0.0012086481 -0.15771925 -0.21533208 0.017012358 -0.042958755 0.2434689 0.051370762
0.024216399 0.14993383 -0.043610834 0.120230615 0.11003976 0.046183567 0.11982065 -0.0678955
-0.14370294 -0.04614203 -0.15196165 -0.010023553 -0.0343026 0.049498986 0.08647938 0.04953733
0.022971123 -0.02786997 0.07858175 -0.0954417 0.059887767 -0.06504646 -0.008573085 0.009213626
-0.084218204 0.112938136 -0.09952015 -0.033459723 -0.04993421 0.029811025 -0.054554433 0.113535464
-0.09811059 -0.10272461 0.06310177 -0.069541395 -0.09148416 0.08688784 -0.1070447 -0.11276305
-0.05719456 -0.0038196445 -0.02638796 0.04960507 -0.056249708 0.10826644 -0.030495554 0.04210043
-0.09193346 -0.123841465 -0.012355179 -0.118391365 0.029322088 -0.047996968 -0.007556826 0.06673929
-0.027388662 -0.09237987 -0.11790615 -0.084545225 -0.06484997 -0.090803385 -0.06541902 0.030346245
-0.07470435 0.0897131 -0.07400957 0.10897067 -0.104100764 0.09801975 0.005012214 0.009673506
-0.015020281 -0.05287978 0.052921355 0.09798241 0.06279215 0.05081275 -0.11760488 0.009804785

arr_4 f4 [4, 1, 16, 32]
00000000: 5be3 013d a638 2b3d 0a13 09bd c6d0 22be
00000010: a8f2 30be 2946 7abd e860 a33e 1aa4 b73e
00000020: 9864 603d 44a5 df3d 6d70 11be 57bf 09bf
00000030: 88ff f83d 7303 9abd d6d2 febd afaf 953d
00000040: 00bf 22be 3722 40bd d6ba 2bbe dbbe d2bd
00000050: 7c0d b9be 149a cdbb aabc 343d e1bb 5d3c
00000060: 768d 86bd dbf6 a03d bbb0 053d 2a5e 853e
00000070: 95c3 8c3e 8c2a e03c 2ac1 7cbe 0f05 413d
00000080: 0016 6a3b f411 33be d4b7 6f3d 93d2 a2bd
00000090: 516a f7be ccbe 8f3d 04a0 37bd 22f2 8abd
000000a0: 3a5b 3a3d dcca 29be ec39 1fbd aad8 4bbe
000000b0: e8cb 613d 06b6 e13d 88da 32be a411 2fbe
000000c0: fdb2 453d d1ec debe a480 95bd 578b 2bbe
000000d0: 33b5 723b c5f5 0ebe 87cb f33d d0fe a2bd
000000e0: 1b05 88bd 326d 74bd b090 cbbd 28b6 71be
000000f0: c99a 543d 9a16 40bd ee44 ac3e 404d c9bb
00000100: 4f6d cfbd 7f8e 483e 7265 07be 8e9d bd3d
00000110: 88a4 00be 9bbe 053e 8a28 85bd c3e8 66bd
00000120: bb43 283d 0467 3bbe 902c ce3c 5804 683c
00000130: f05f 33be 9463 fbbd 0278 3c3e a8b2 c2be
00000140: 53e6 753e 478d 35be 81ce b8bd 068c c23d
00000150: 3867 a93c 9e3c d93d c04b c13c 60ee 0cbc
00000160: f731 593e 83a6 3dbd 50b2 3d3c 5027 08be
00000170: f072 853e 3608 963d 7537 2bbe 405e 7abc
00000180: 8ce8 983d b58c 463d 578e 903d 8e05 27be
00000190: 7709 8dbd 2f30 3e3e b6dd eabd 3040 083e
000001a0: 3cbf 11bd ea22 653e c716 27be 2ec0 a5be
000001b0: 86fb 2bbe cf45 c33d 73be d53d f115 633e
000001c0: cac4 cf3e 9f1f aa3d ece0 14be 88e9 513c
000001d0: 2ba6 65be cc7e 03be 6e1e 813d 74df 92bc
000001e0: a312 a5be f15e 193e bb2a 013e 0050 533e
000001f0: d17d 1dbd 5280 ab3d ea59 b8be f822 a13d
00000200: 4631 a5bd 9192 c5bd 674f f73c 1d3e b83c
00000210: 9e9e d4bd 9c59 843d fe52 d3bd f943 3a3e
00000220: 5fa9 c33d fb93 8f3d eb63 0abe 5a25 9abe
00000230: 12ba c43d c782 8a3d b1c2 983b c22c eabd
00000240: 6a1a 733e 1421 34bd 186d 7fbd 82db 0a3d
00000250: f110 a7bc 602b a83d 2543 1c3e 03af 333d
00000260: e500 c6be 458f fb3d a6eb 37bd eb84 60be
00000270: 9797 c8be 5272 cc3b 2647 e63d b128 ebbd
00000280: e89f e83d d92c 82bb e384 8b3c 823f 09bd
00000290: 3bcc e73c 1f29 ad3d 7be5 8ebd 3929 1b3e
000002a0: 05a3 febd f210 8a3d 0e5f c6bd 0d74 e3bd
000002b0: aad1 a9bc 1738 01be e843 1dbe 0b54 0c3d
000002c0: 4d76 d03e 7cc1 88bd fc8f f3bd 2b28 c23d
000002d0: a28e 273e 531e c0bd f547 cf3d 2908 533d
000002e0: e317 c3be 1c45 373e aadb 04be 49d3 a13c
000002f0: 5dc4 a6be bc48 1ebe 0a51 ccbc 227d 88ba
00000300: 4d2f ffbc 26d7 21be 13cb ed3d a168 c6ba
00000310: 40f4 313f a1d7 c4bd ef84 c1bd ed07 dd3c
00000320: d12d c5be e406 d4be 18da e7bd 6cdc 673e
00000330: 5ba1 233d 5173 ccbd cc0c c73e f243 27bd
00000340: d6ae a93e ec17 bd3c 9263 bf3c e92c e9bd
00000350: 7a1f fa3e 410c 043d 2a4a b1bd f554 e6bd
00000360: 7939 40be e114 7f3e 6542 093e d183 abbd
00000370: 9098 053e ae5a 51be 00e8 583e b170 bebd
00000380: aa41 873d 240b 09bd 1722 32be 502b 6fbc
00000390: 9cf8 9f3d d87d cbbd 791b a83d 7c32 073b
000003a0: 491b 123e 5857 143d 37a6 11be 129a cd3b
000003b0: aada f6bd 7177 86bd a929 19be 3cfa d73d
000003c0: d0c6 1dbc 4154 ad3c e883 34bd 2183 283e
000003d0: ef39 9cbd a0e6 e4bb 99e5 14be 8012 8ebd
000003e0: ebd3 dabb 35f5 fe3c 081e c3bc a525 14be
000003f0: fa21 2c3e 6814 2cbe 2a5e 333e c27c ad3d
0.031710964 0.04180207 -0.033465423 -0.15899953 -0.17280066 -0.061102066 0.3190987 0.35867387
0.054783434 0.10920194 -0.14203043 -0.53807586 0.12158114 -0.07520189 -0.124425575 0.073088996
-0.15893173 -0.04690763 -0.16770491 -0.10290309 -0.361431 -0.006274471 0.044125237 0.013533563
-0.0656995 0.07859584 0.032639246 0.26048404 0.27492967 0.027364038 -0.24683061 0.047123965
0.003571868 -0.17487317 0.05852492 -0.0795032 -0.483233 0.070188135 -0.044830337 -0.067844644
0.045497157 -0.16581291 -0.038873598 -0.1990687 0.0551261 0.11021046 -0.17466176 -0.17096573
0.0482664 -0.43540052 -0.07299927 -0.16752373 0.0037034273 -0.13960941 0.11904054 -0.07958758
-0.06641599 -0.05967445 -0.09939706 -0.23604643 0.051905427 -0.046896555 0.3364634 -0.006143242
-0.10128271 0.19585608 -0.13222292 0.09258567 -0.12562764 0.13060991 -0.06501873 -0.056374323
0.041080218 -0.18301016 0.025167733 0.014161192 -0.17517066 -0.122748524 0.18405154 -0.3802693
0.24013643 -0.17729674 -0.090237625 0.094993636 0.020679101 0.10607265 0.02359569 -0.008601755
0.21210466 -0.046301376 0.011578158 -0.13296247 0.26064253 0.07325785 -0.16720374 -0.01528126
0.0746623 0.048474032 0.07058399 -0.16310713 -0.06886571 0.18573068 -0.11468069 0.13305736
-0.035582766 0.223766 -0.16317283 -0.32373184 -0.16795167 0.09534799 0.10436716 0.22176339
0.40579826 0.083068125 -0.14538926 0.012812026 -0.2242667 -0.12841338 0.06304632 -0.017928816
-0.3224078 0.14977624 0.12613957 0.20635986 -0.038450066 0.083740845 -0.360061 0.07867998
-0.08066039 -0.09647096 0.03018923 0.022490555 -0.10381816 0.06462404 -0.10318564 0.18189992
0.09553789 0.07010647 -0.13514678 -0.30106622 0.096058026 0.06763225 0.004661881 -0.11434318
0.23740545 -0.04397686 -0.0623599 0.033900745 -0.02039382 0.08211398 0.15259989 0.043868076
-0.38672557 0.12283186 -0.044902466 -0.21925704 -0.39178154 0.006239214 0.11244039 -0.11482371
0.11358625 -0.0039726314 0.017031139 -0.03350783 0.028295627 0.08455109 -0.06977364 0.15152444
-0.12433437 0.06741513 -0.09686099 -0.11106119 -0.020729858 -0.12619053 -0.15357935 0.034259837
0.40715256 -0.06677529 -0.11892697 0.09480318 0.16363004 -0.09380784 0.101211466 0.051521454
-0.38104162 0.17897457 -0.1297442 0.019754069 -0.32571688 -0.15457433 -0.024940986 -0.0010413269
-0.031150484 -0.15804729 0.11610999 -0.0015137383 0.6951332 -0.096114404 -0.09449183 0.026981318
-0.38511518 -0.41411507 -0.11320895 0.22642678 0.039948802 -0.09982932 0.3887695 -0.040836282
0.33141202 0.023082696 0.023362909 -0.11385519 0.4885214 0.03223825 -0.08656724 -0.11246673
-0.18771924 0.24910308 0.13404234 -0.08374751 0.13046479 -0.20444748 0.21182251 -0.09298838
0.06604321 -0.03345789 -0.17395817 -0.014597729 0.0781109 -0.09936112 0.08208365 0.0020629456
0.14268221 0.03621611 -0.14223562 0.00627447 -0.120534256 -0.065657504 -0.14957298 0.10545775
-0.00962992 0.02115834 -0.044071108 0.16456272 -0.076282375 -0.0069855005 -0.1454071 -0.06937122
-0.0066780946 0.031122783 -0.023818031 -0.14467485 0.16809836 -0.1680466 0.1751639 0.08471061

arr_5 f4 [4, 1, 16, 16]
00000000: ab11 3f3e 333b 2d3e a82e bfbc 2b37 573e
00000010: 6884 30be 6ef8 943d ce68 d23d 00fc 85ba
00000020: 84e6 55be c66e b23d ae3f 8c3d 89e3 3b3e
00000030: 88b2 e23c 14b3 743d 58b9 3bbe a039 b23b
00000040: dbc1 7c3e 8a75 a23d ed2d 033e eeae bcbe
00000050: 6bcc c8be 74bd fdbc 55b8 f73c a1b5 cabd
00000060: c280 aabe 0f1a 113f a928 66bd ff3e 1ebe
00000070: 8afc e6bd 5edf 3d3e 507f afbe 2644 ad3d
00000080: 93c5 0bbe a21f 063e 0e66 febd 0e10 4bbe
00000090: 4909 203e 27ac 8d3d e45a f9bc da59 31be
000000a0: 1a9c 09bd c940 fd3d 1e65 953d 19db 0f3e
000000b0: c8b4 29bd ba28 333d 8c00 c63d c7c8 34be
000000c0: ee21 49be 15ee 0a3e 9646 1fbe 7ccb e93b
000000d0: 4c1b 3c3e ec86 17be 6615 9dbd 802e eabc
000000e0: eee0 753c 7bab b8bd ff3d d1bd 6572 f43d
000000f0: b10d b23d 7ecb a13d 7ee3 3dbe 2937 b03d
00000100: 47f1 e6bd a6ac ea3d 9ac4 82bd 0695 503e
00000110: a867 813d 89ba a9bc 4764 533e 031d c6bd
00000120: 3a59 bb3e cb27 53be 2bc0 c7bd 5197 e53b
00000130: 28c5 0b3e eb17 75be eb14 2e3e 7cae 5d3d
00000140: de7b 98bb 9a7d aabe 0a4a c23c 7980 67be
00000150: 8951 bebd 4c13 803d 4764 c5bd 809c 00bd
00000160: 2ffc 833e 0203 13be 6c39 2b3e 6490 fdb9
00000170: c265 47be d00f 0abe 0751 663e 0586 27bc
00000180: 1144 1c3e 040a 2e3d e65f d63d d363 523e
00000190: 9853 7cbd 0818 78bd ce4d d4bd 5653 4cbe
000001a0: 3916 3bbe 1fda 483e f24c 963d 1e19 883d
000001b0: 8070 b5bc 7107 023e ec24 4ebe 74b6 333d
000001c0: 50fb 09bf 38a1 673e 49e1 2e3d 54cd aabd
000001d0: 9c73 00be 3802 8b3e 9467 f43e e5ef 36be
000001e0: ffc5 103f 1acd 1fbf 4688 03be bf00 ccbd
000001f0: e35e bb3a 285e 90be 8d5e a13e f516 70bc
00000200: 9dcf 17be a65d d6bd f3a8 723e 809f 8dbd
00000210: 4c17 bd3c a408 b83e ce1f 5bbe 0a31 493e
00000220: c32d 9f3d 00ba 56be 885f 1ebe a58d b53e
00000230: f815 f2bd 5c47 6c3a 2f31 ca3d 7a83 013f
00000240: 260f 09be de8c 09be 96d9 49be 3f28 943e
00000250: 2d26 2b3d 431f 833e 954e 3d3e 50f8 2bbe
00000260: b187 913e 8699 89bd a035 a0bd 61d9 19be
00000270: 6e95 57be d3ba 783d 6259 463e c734 8fbd
00000280: ce61 c0be 40fd 613e a0fa 833e 6417 9abe
00000290: badd 32be 5f81 1c3e 65cc 293f 3894 3c3e
000002a0: 6be1 c13e 633b 34bf aa5d cd3d 398a 9d3e
000002b0: 76e6 4dbe 6b91 b0be 6690 db3e 79f0 14be
000002c0: c5c8 0e3e 8ee1 983d a072 24bd 5fa6 213e
000002d0: 850f 2d3e b9ac 393e 3d7c 1f3e 13ce 423e
000002e0: 3d16 223e 3e21 56be 887a 55be 3929 39be
000002f0: 0599 24be 9ce5 1cbd f226 11be d0e2 23bd
00000300: 33bb ce3e 747e ac3d 6350 c33d b9ef 65be
00000310: 2d29 43be 47b6 b2bd e1e4 edbe 09e7 01be
00000320: e3b2 edbe 88e4 5b3e 9e17 513e c29f 313e
00000330: ab86 babd 0d96 0b3f 739e 84be 320b 25be
00000340: 48ff 31bd e0dc 663d 14bf d3bc 1251 4f3e
00000350: 925c 693e 61db ae3d c54b 69bd c388 e5bd
00000360: f9c6 8a3e 54d3 43bd 6416 1cbd 6799 64be
00000370: b991 363e 808c ec3d a541 723d 0879 04bd
00000380: a01b 833b bd4a 413e 19ad 4d3e 4b2d 023e
00000390: 2d1e 0f3e c831 dbbc 3541 033e 441b 383d
000003a0: 8288 35be 1c4c 2d3d 0bff 523e 3be3 22be
000003b0: 513d 413e 5885 7abd 000d 5cbc c097 483b
000003c0: 965f 68be 34d3 64bd 1c4d 233e 52b7 58be
000003d0: 43e6 d93d 0adc 5c3e 5690 9dbc 8c32 34be
000003e0: cef9 c4be 2ecd 513d 24d5 39be a63c 8b3c
000003f0: 26c6 e23d a286 60be 30a8 773e 562d 063f
0.18659084 0.16917114 -0.023337677 0.21017139 -0.17238009 0.07273947 0.10273896 -0.0010222197
-0.20888716 0.087125346 0.068480834 0.18348517 0.027673021 0.059741095 -0.18332422 0.0054389983
0.24683325 0.07932575 0.12810488 -0.3685221 -0.3921846 -0.030974127 0.030239264 -0.09897924
-0.3330136 0.5668039 -0.05619112 -0.15453719 -0.11278637 0.18542239 -0.3427682 0.08460264
-0.13649587 0.13098004 -0.12421809 -0.19830343 0.15628542 0.06917601 -0.030438848 -0.17319432
-0.033596136 0.123658724 0.07294677 0.14048423 -0.041432172 0.04374001 0.09668073 -0.17654715
-0.1964185 0.13567384 -0.1555427 0.007134853 0.18369788 -0.14797562 -0.07670097 -0.028586626
0.015007241 -0.09017082 -0.10216903 0.119358815 0.08694018 0.07900141 -0.18543813 0.08604271
-0.11276489 0.11458711 -0.06385155 0.20369348 0.06318599 -0.02071883 0.20643722 -0.09673502
0.36591512 -0.20620649 -0.0975345 0.0070065637 0.13649428 -0.23934905 0.17000167 0.05412148
-0.004653438 -0.3329895 0.023716945 -0.22607602 -0.09292895 0.062536806 -0.09638267 -0.03139925
0.25778338 -0.14356616 0.16721123 -0.000483635 -0.19472411 -0.13482594 0.22491847 -0.010224824
0.1526034 0.04249002 0.1046751 0.20545892 -0.06160316 -0.060569793 -0.103664026 -0.19953665
-0.18270196 0.19614457 0.07338895 0.06645416 -0.02214837 0.12698151 -0.20131272 0.043875173
-0.538991 0.22620094 0.042695317 -0.083399445 -0.12544101 0.2715013 0.47735274 -0.1786495
0.5655212 -0.62422335 -0.12844953 -0.0996108 0.0014295246 -0.28196836 0.3151745 -0.014653911
-0.14825292 -0.10467081 0.23697262 -0.06915188 0.023082398 0.35944092 -0.21398851 0.19647613
0.077724 -0.20969391 -0.1546613 0.3545963 -0.118205965 0.0009013319 0.09872662 0.5059124
-0.13384685 -0.13432643 -0.19711909 0.28936955 0.041784454 0.25609788 0.18487008 -0.16793942
0.28423837 -0.067187354 -0.07822728 -0.1502433 -0.21053097 0.060725044 0.19370034 -0.06992488
-0.3757462 0.22069263 0.2577715 -0.3009597 -0.17467394 0.15283726 0.66327506 0.18415916
0.37867293 -0.70403117 0.100276306 0.30769518 -0.20107445 -0.34485945 0.42883605 -0.14544858
0.13943775 0.07464896 -0.040148377 0.15786122 0.16900451 0.18132295 0.15574737 0.19023924
0.15828796 -0.20911118 -0.20847523 -0.18082131 -0.16073997 -0.03830491 -0.14175013 -0.040011227
0.40377197 0.084225565 0.09536817 -0.22454728 -0.19058676 -0.08726173 -0.46463683 -0.12685789
-0.46425542 0.21473897 0.20419165 0.17346099 -0.09107717 0.54525834 -0.25902137 -0.16117552
-0.043456346 0.056362987 -0.02584795 0.2024577 0.22789219 0.08537937 -0.056957025 -0.11207726
0.2710493 -0.04780896 -0.03810729 -0.22324143 0.17829026 0.11550236 0.059144635 -0.032341987
0.004001096 0.18876167 0.20085563 0.1271259 0.13976355 -0.026757136 0.12817843 0.044947878
-0.17727855 0.04230891 0.20605104 -0.15906994 0.18871047 -0.061162323 -0.013430834 0.0030608028
-0.22692713 -0.05586548 0.15947384 -0.21163681 0.10639622 0.21568313 -0.019233864 -0.17597407
-0.38471836 0.051221065 -0.18147713 0.016996693 0.1107295 -0.21926358 0.24185252 0.5241293

arr_6 f4 [2, 64]
00000000: d65f 65be 0cea 1abc d01d 3d3e a424 93bd
00000010: f1e2 1fbe 99d2 e03c 466a d8bc f3e1 863e
00000020: 62a7 9ebc 51fa eb3b 019a 223e 4fbc 7dbc
00000030: 45c4 5fbe 885f 32be b0de ce3d 1024 9b3d
00000040: 10b0 b7bd 2568 ac3c 1f21 783e 2c50 7bbe
00000050: 83d6 3cbc a6eb ba3c a6a7 81be f6d1 fabb
00000060: 2177 263d ed02 7dbd da90 963c 3a09 03bd
00000070: 74c3 3dbf 3c17 463e e4ad 503d 71fb d93d
00000080: 8308 9a3c 62e6 aa3d a1ed 7ebd e40f 2ebd
00000090: 7a86 6ebe db53 593d d33e 593e 1539 1e3e
000000a0: a865 693e 0a40 98bb 2f18 aeba d326 0fbf
000000b0: 36f3 183e 448e 7ebe 5695 de3c ba1c 1fbe
000000c0: 4202 af3d fc2e 823c 4259 4cbc d630 06bb
000000d0: ffd4 18bd 26f8 69bd acf8 44bd c9dd 2dbe
000000e0: c8e6 883e 3e94 94be 6b14 7b3e 4ccc 4f3e
000000f0: 029a 8d3c b99c ab3d 5deb 38bd 4b09 d0bb
00000100: 3351 d53d a875 213c 1c4b 75bd 6c72 e4bc
00000110: 7fc1 273e 519e bf3a 76f8 533c b408 613e
00000120: 7b5e 533d 0ac9 27be eaed e0bc 3a98 9b3c
00000130: 04d6 88be 1d79 58bd 24dc 74be 778f bb3d
00000140: 0885 cf3d 8434 cfbc a6f2 afbd 6c6a 133e
00000150: 80d4 5d3c 0f31 6c39 4425 813d 168b 2e3c
00000160: c710 51bd 0884 7fbc 87de 7bbc 081f 343e
00000170: bc34 393f 488f 87be 2372 5cbd be03 2f3d
00000180: 5b62 763c cf9a a0bd c4f2 eb3d 5a21 b23d
00000190: 62d9 6ebe 1841 d23d b48c 623b 4f94 ea3d
000001a0: e019 18be 104a 123b 6921 83bb 85a0 123f
000001b0: 3a4c 83be 91fb 31be 8679 0fbd aadd 313e
000001c0: 447b a6be e88d 103d 433e 6b3c 1c67 183b
000001d0: 81a1 86bc ab88 6c3d 60d6 9ebd fb19 15be
000001e0: fd44 97be 14e8 04be 7a36 7abe 4b50 87be
000001f0: 47c8 cabc b57e 50be b8e2 6a3e c06f df3b
-0.2239984 -0.009455215 0.18468404 -0.07184723 -0.15613915 0.02744417 -0.026417863 0.2634426
-0.019366924 0.007201471 0.1587906 -0.015486791 -0.21852215 -0.17419255 0.10101068 0.07575238
-0.08969128 0.021045754 0.24231385 -0.24542302 -0.011525753 0.022817444 -0.25323218 -0.007654424
0.040640954 -0.06177037 0.018379617 -0.03199122 -0.7412636 0.193448 0.050947085 0.10643662
0.018802887 0.08344723 -0.06223834 -0.042495623 -0.23293486 0.053058486 0.21215372 0.15451463
0.22792685 -0.004646306 -0.0013282354 -0.55918616 0.14936528 -0.24858958 0.027170818 -0.15538302
0.085453525 0.015891545 -0.012472453 -0.0020475886 -0.037312504 -0.05712142 -0.048088714 -0.16979136
0.26738572 -0.2901935 0.24519508 0.20292777 0.01728535 0.08379502 -0.045146335 -0.006348764
0.10415878 0.009854712 -0.059886083 -0.027886592 0.16382407 0.0014619326 0.012937656 0.21975976
0.051603775 -0.16385284 -0.027457196 0.018993486 -0.2672578 -0.052849878 -0.23912102 0.09158223
0.101327956 -0.025293596 -0.085912034 0.14396065 0.0135394335 0.0002252499 0.06305936 0.010653278
-0.05104139 -0.015595444 -0.015372879 0.17589962 0.7234609 -0.26476502 -0.053819787 0.04272818
0.015038098 -0.078420274 0.11520913 0.086977676 -0.23325112 0.10266322 0.003456873 0.11454069
-0.1485362 0.0022321977 -0.0040017855 0.57276183 -0.25644094 -0.17381121 -0.035028003 0.17369714
-0.3251592 0.035291582 0.014358106 0.0023254817 -0.016434433 0.057747524 -0.077557325 -0.14560692
-0.2954482 -0.12979156 -0.24434844 -0.26428446 -0.024753703 -0.20360835 0.22938049 0.0068187416

arr_7 f4 [4, 1, 1, 16]
00000000: da14 b3bd 2c00 65be 5dad 2dbd 8e6e 81bd
00000010: aa5d f23d f299 a03c 7235 39be 9666 ee3e
00000020: 909d 16be 60a0 1b3e 239d ff3e 9e57 81be
00000030: b0c5 aabe 7019 82bd 9ca7 4dbd 3978 09bf
00000040: fd6d 75be a1a7 10bb 341c 5b3c f154 27be
00000050: da4e 28be 20db 87be 6882 2fbd c587 04be
00000060: 2dbd e4be d434 813e 68b0 ffbb 3444 00be
00000070: 25a2 553c 748a f33c 18c7 cdbd 8537 bdbe
00000080: 98f0 363e 7c61 00be 8506 8cbe 2bb7 2dbe
00000090: 980c b1bd 47d3 053e 6a91 95be 5482 a23d
000000a0: 3fdc 953e eb80 4a3d 5772 65be 40fa 4abd
000000b0: 15cd 493d 3c92 5dbe 242f 5d3e 0fb0 bc3e
000000c0: 0a52 89be 76b9 b23e be8c 2abd 89aa 5cbb
000000d0: a9aa 993e ffaf 9f3e 4114 0ebe a84e 61be
000000e0: f244 c73d f589 883e 394b 45be 92c6 8fbe
000000f0: 3da0 f23e 5d74 063e cef1 7fbe 2339 be3d
-0.087442115 -0.22363347 -0.04240166 -0.06319915 0.11834271 0.019604657 -0.18086794 0.46562642
-0.14708543 0.15197897 0.49924573 -0.2526216 -0.3335395 -0.06352508 -0.050208673 -0.5369907
-0.23967738 -0.002207257 0.013373423 -0.16340996 -0.1643633 -0.26534367 -0.042848974 -0.12942417
-0.4467558 0.25235617 -0.0078030117 -0.12526017 0.013039147 0.029729106 -0.1004774 -0.3695642
0.17865217 -0.12537187 -0.27348724 -0.16964404 -0.0864498 0.13068877 -0.29212505 0.07935014
0.29269597 0.049439352 -0.22406898 -0.049555063 0.049267847 -0.21637815 0.21600014 0.36853072
-0.26820403 0.3490712 -0.04163813 -0.0033670983 0.30013016 0.31188962 -0.13874914 -0.22002661
0.09729947 0.26667753 -0.19266976 -0.28081185 0.47387877 0.13130327 -0.24994585 0.09288242

arr_8 f4 [2, 1]
00000000: fa39 d43e f0f3 fb3e
0.41450483 0.49209547
