Nengo-Autoencoder/keras_to_loihi_neuron_params_25epoch.npz (npz, 685851 bytes, 9 tensors)

arr_0 f4 [128, 768]
0	0x3d4a872a	0.04944531
1	0x3f0a2fce	0.53979194
2	0xbde71979	-0.112841554
3	0xbde08d05	-0.10964397
4	0xbe15b994	-0.14621574
5	0xbec646b7	-0.38725826
6	0xbd40b4e4	-0.04704751
7	0xbd8ade75	-0.067807116
8	0xbd9de011	-0.07708753
9	0xbb44ee77	-0.0030049363
10	0xbdf4c241	-0.119511135
11	0xbe805599	-0.25065306
12	0xbce6467f	-0.028109787
13	0xbe2d8804	-0.16946417
14	0x3d8c0fd5	0.06838957
15	0xbc890c7c	-0.016729586
16	0xbe3d3be1	-0.18479873
17	0x3e9ec0ad	0.31006375
18	0x3c0d2dfa	0.008616919
19	0xbdbe278a	-0.09284885
20	0x3e21232e	0.15736076
21	0xbe587f02	-0.211422
22	0xbe55902f	-0.20855783
23	0xbe0fbb28	-0.14036238
24	0xbe8772c1	-0.26454738
25	0xbedeb5f1	-0.43498185
26	0x3d4fc60b	0.050725978
27	0x3c240043	0.010009828
28	0x3e6170aa	0.22015634
29	0xbc0083de	-0.00784394
30	0xbc8882b7	-0.016663892
31	0xbd504e11	-0.0508557
32	0xbdc0e3ab	-0.09418424
33	0xbd86ed52	-0.06588234
34	0xbc7fcbe2	-0.015612574
35	0x3d3d0810	0.046150267
36	0x3decc136	0.115602896
37	0x3d325a26	0.043543003
38	0x3c371773	0.011175024
39	0x3e7a4793	0.24441366
40	0xbd8b3469	-0.06797106
41	0x3d37da64	0.044886008
42	0x3e1af215	0.1513141
43	0x3e372558	0.1788534
44	0x3d28b193	0.041184973
45	0xbe807e92	-0.25096565
46	0x3d6531f0	0.055955827
47	0x3e0b26ca	0.13589016
48	0x3ed66073	0.4187046
49	0xbe07cdf7	-0.13262163
50	0xbef2d859	-0.47430685
51	0xbd096356	-0.033542
52	0xbe051573	-0.12996463
53	0xbee5ce6e	-0.44884056
54	0x3cfea019	0.0310822
55	0x3e195513	0.1497386
56	0xbc4c66d9	-0.012475693
57	0x3d0b7931	0.034051124
58	0x3ed29daf	0.41135928
59	0x3d8d5f4c	0.06902942
60	0x3e6fa958	0.23404443
61	0x3de537d4	0.11192289
62	0xbd1063c8	-0.03525141
63	0xbe10c87b	-0.14138977
64	0x3d9785d6	0.07398574
65	0x3e68f057	0.22747932
66	0x3da6f250	0.08151686
67	0xbe029f88	-0.12756169
68	0xbe0170f1	-0.1264074
69	0xbcea9ef7	-0.028640253
70	0xbf0d134c	-0.5510757
71	0xbdd85ddc	-0.10564777
72	0x3e032762	0.12807992
73	0xbded3618	-0.11582583
74	0xbe147121	-0.1449628
75	0x3e849cc8	0.25900865
76	0x3d00378a	0.031302966
77	0xbcc3a581	-0.02388263
78	0xbac0aa4e	-0.0014699192
79	0xbdbb87c9	-0.09156758
80	0x3e9ef17f	0.31043622
81	0x3d5e8970	0.05433029
82	0x3d915ae4	0.07097414
83	0x3ec40393	0.38283977
84	0xbd784832	-0.060615726
85	0xbe3357ae	-0.17513916
86	0x3dbd95ac	0.09257063
87	0x3e8050af	0.25061557
88	0x3bdefac3	0.0068047955
89	0x3e72044b	0.2363445
90	0x3d415333	0.047198486
91	0xbd900f83	-0.070342086
92	0xbecc1c91	-0.39865544
93	0xbf247cb1	-0.64252764
94	0xbc8e4134	-0.017365076
95	0xbb863943	-0.0040961816
96	0xbf19c152	-0.6006061
97	0xbe6702bf	-0.22559641
98	0x3e2dd1b9	0.16974534
99	0xbcf98757	-0.030460043
100	0xbd2478a6	-0.04015412
101	0xbc7c2f39	-0.015392118
102	0x3da6d8d1	0.08146823
103	0x3bd8068e	0.0065925783
104	0x3d5b096c	0.053475782
105	0xbc9ce180	-0.019150496
106	0xbd51d8b4	-0.051232055
107	0xbd38e0d3	-0.045136284
108	0x3bebb7dc	0.0071935486
109	0xbb8a7340	-0.0042251647
110	0x3e36c20d	0.17847462
111	0xbe503d6f	-0.20335935
112	0xbd02a591	-0.031896178
113	0x3e263d50	0.16234326
114	0x3d82e6f0	0.06391704
115	0x3d6b5929	0.057458077
116	0x3dba3c3a	0.090935186
117	0x3bc1a20a	0.005909209
118	0x3e41920c	0.18903369
119	0x3d6ac644	0.057317987
120	0xbca5abac	-0.020223461
121	0x3d81159c	0.0630295
122	0x3d5ba77b	0.05362652
123	0xbdb2a7db	-0.08723422
124	0xbe13a57f	-0.144186
125	0xbd8bd7f9	-0.06828303
126	0xbd40c809	-0.04706577
127	0x3da2c5d0	0.07947886
128	0xbd8908ab	-0.066911064
129	0x3e9a4b0c	0.3013538
130	0x3b6392c5	0.0034724933
131	0x3c6f4c6f	0.0146056255
132	0x3e39a1e2	0.1812816
133	0xbd195675	-0.037435967
134	0xbd57f095	-0.05271967
135	0xbdb73329	-0.08945305
136	0xbd7a1aaa	-0.061060585
137	0x3cb28ff0	0.02179715
138	0xbeb9cb0a	-0.3628772
139	0xbdf6310a	-0.12021072
140	0xbd6f5768	-0.058432966
141	0x3e27a96c	0.16373223
142	0xbd5033ee	-0.050830774
143	0x3d1b7207	0.03795054
144	0x3e5213e1	0.20515396
145	0xbe60a840	-0.21939182
146	0xbd78093f	-0.060555693
147	0x3ce8489e	0.02835494
148	0x3e48732a	0.19575182
149	0xbe90e5b3	-0.28300247
150	0x3e05cdc3	0.13066773
151	0xbd808608	-0.062755644
152	0xbe6bda8d	-0.2303259
153	0xbe848099	-0.25879362
154	0xbd0a0c43	-0.0337031
155	0xbc96a4f8	-0.01838921
156	0x3ee580c9	0.44824818
157	0xbcddb4e3	-0.027063793
158	0x3e4c6923	0.19961981
159	0xbde87731	-0.11350859
160	0xbca41301	-0.020028593
161	0xbad9b784	-0.0016610478
162	0x3de109a5	0.10988168
163	0x3cce9c7d	0.025221104
164	0xbcafd4a1	-0.021463694
165	0xbcf4d72f	-0.029887764
166	0x3ca473cc	0.020074748
167	0xbd1eca13	-0.03876693
168	0xbe239200	-0.15973663
169	0x3d06ef9d	0.032943357
170	0xbdd7b356	-0.105322525
171	0x3f08844f	0.53326887
172	0x3d4a68f0	0.049416482
173	0xbbf950cd	-0.007608509
174	0x3d1ee4c9	0.038792405
175	0xbe70af5d	-0.23504396
176	0xbda419a1	-0.08012701
177	0xbe27f7e8	-0.16403162
178	0xbeeddc69	-0.46457222
179	0x3df7c337	0.12097781
180	0x3d8bc41d	0.06824515
181	0x3ebc21d0	0.36744547
182	0x3c5848c8	0.013200946
183	0xbcb9283a	-0.02260219
184	0xbe75f496	-0.24019083
185	0xbcce8b9f	-0.02521306
186	0x3d6fe5ca	0.058568753
187	0x3e786e39	0.24260797
188	0xbe11cab0	-0.14237475
189	0x3d95091f	0.0727713
190	0x3d162acf	0.03666192
191	0xbe13260a	-0.1436998
192	0x3d65d81c	0.0561143
193	0xbe5fb20e	-0.21845266
194	0x3ddb4c22	0.107078806
195	0x3c8fe737	0.017566307
196	0x3e0715de	0.13191935
197	0xbc91cd43	-0.017798072
198	0xbbaceba7	-0.0052771154
199	0xbda96cec	-0.08272728
200	0xbda269da	-0.07930346
201	0x3ed570ad	0.41687527
202	0x3e846713	0.2585989
203	0x3da34ead	0.079739906
204	0xbd4adcce	-0.049526982
205	0x3d121c62	0.0356716
206	0x3daac463	0.08338239
207	0xbcaa86b6	-0.020816188
208	0xbb1e4b35	-0.0024153714
209	0xbd1f8482	-0.03894473
210	0xbc800d3d	-0.015631313
211	0xbe005e05	-0.12535866
212	0xbdb26fdb	-0.08712741
213	0xbefe0b26	-0.4961788
214	0xbbeb30a7	-0.0071774307
215	0xbe5fff74	-0.21874791
216	0xbba5c6c0	-0.0050590932
217	0x3eaeba63	0.34126577
218	0x3e045fb6	0.12927136
219	0x3ca4422b	0.020051083
220	0xbec56907	-0.38556692
221	0x3e1abc64	0.15110928
222	0x3c57274e	0.01313193
223	0xbd8f8685	-0.070080794
224	0x3da06800	0.078323364
225	0xbde5ce6d	-0.11221013
226	0x3bcec73a	0.0063103708
227	0x3e67a614	0.22621948
228	0xbc3c2f50	-0.01148589
229	0xbdc19201	-0.09451676
230	0xbdc06373	-0.093939684
231	0xbd927175	-0.071505465
232	0x3da6f04e	0.08151303
233	0x3d42c660	0.047552466
234	0xbdac3543	-0.08408596
235	0x3e608017	0.21923862
236	0xbd052565	-0.032506365
237	0x3d345130	0.04402274
238	0xbea8f713	-0.33001003
239	0xbe308414	-0.17237884
240	0xbe4b1697	-0.19832836
241	0xbb117f55	-0.002220114
242	0x3d7dcb65	0.06196155
243	0xbdb721fe	-0.0894203
244	0xbd8bac26	-0.06819944
245	0xbe7cb968	-0.24680102
246	0xbd99dd5c	-0.07512924
247	0xbd67b67c	-0.056570515
248	0x3cbe799a	0.023251344
249	0x3d02e17f	0.03195333
250	0xbed75147	-0.42054197
251	0xbdaa2f5e	-0.08309816
252	0xbde685b0	-0.112559676
253	0xbed5ce9a	-0.41759187
254	0xbca413dc	-0.020029001
255	0xbcd2b45a	-0.025720764

arr_1 f4 [8, 1, 64, 128]
0	0x3bb99fff	0.005664825
1	0x3ea01758	0.3126781
2	0xbd3ef39d	-0.046619046
3	0xbd3e9d1d	-0.046536554
4	0x3eb8df8a	0.36108047
5	0x3c42f24b	0.011898587
6	0xbea77f44	-0.32714283
7	0x3cdf6e9e	0.027274426
8	0xbcb80fcb	-0.022468468
9	0x3cedd01c	0.029029898
10	0xbe55a2c8	-0.20862877
11	0x3e114091	0.14184786
12	0xbd877a0a	-0.06615074
13	0x3ea52c95	0.32260576
14	0x3c5412b0	0.012943909
15	0x3cdb94e1	0.02680439
16	0xbdd42b48	-0.10359818
17	0xbee06ee4	-0.43834603
18	0xbd8aa0ea	-0.06768973
19	0xbe0f992e	-0.14023277
20	0x3e5fb7de	0.21847484
21	0x3e074020	0.13208055
22	0xbd974bfb	-0.07387539
23	0x3db6a4c8	0.08918148
24	0x3ca31e13	0.019911801
25	0x3eec2d4f	0.46128318
26	0xbc846be4	-0.016164728
27	0x3cc31915	0.023815671
28	0x3f203ce0	0.6259289
29	0xbd50ecf4	-0.051007226
30	0x3e41bf3a	0.18920603
31	0x3deacd73	0.114649676
32	0x3dd09fea	0.10186751
33	0x3c8771bc	0.016533725
34	0x3c74e6c5	0.014947598
35	0xbd8613e0	-0.065467596
36	0x3c5d0e7e	0.013492225
37	0xbdf12a60	-0.117756605
38	0x3d19a720	0.0375129
39	0x3e9954a2	0.29947382
40	0xbe86b067	-0.2630646
41	0x3d8c104c	0.06839046
42	0xbe6914fb	-0.2276191
43	0x3e8fb2d9	0.28066137
44	0xbd5a4f44	-0.05329825
45	0xbedb4373	-0.42824897
46	0xbc118b4c	-0.008883309
47	0xbe188c85	-0.14897354
48	0x3d8a5114	0.06753746
49	0xbcf779c3	-0.030209428
50	0xbd934315	-0.07190529
51	0xbdb52edb	-0.088468276
52	0xbd676d6f	-0.05650085
53	0xbebca417	-0.3684394
54	0xbd8f7911	-0.070055135
55	0xbcf2d459	-0.02964227
56	0xbdb4622b	-0.088077866
57	0xbc881341	-0.016610743
58	0xbb2cbc46	-0.0026357337
59	0xbc85cd2a	-0.016333181
60	0x3c64034f	0.013916804
61	0xbe85a875	-0.26105085
62	0x3bd51fa9	0.0065040183
63	0x3e9fe67a	0.31230527
64	0xbd3ee416	-0.04660424
65	0xbe1dfca2	-0.15428403
66	0xbe4adfdd	-0.1981196
67	0x3ea06db9	0.31333712
68	0xbe465865	-0.19369657
69	0xbbe28587	-0.0069128904
70	0x3ccaf534	0.024775125
71	0xbedeab56	-0.43490094
72	0xbe05faf7	-0.13084017
73	0xbe3eddbf	-0.18639277
74	0x3eb061fe	0.34449762
75	0x3c945931	0.018108936
76	0x3d59adfd	0.053144444
77	0xbd9da055	-0.076965965
78	0xbdf8b394	-0.12143627
79	0xbbbd8347	-0.0057834717
80	0xbe6fe973	-0.23428898
81	0xbd50bd80	-0.05096197
82	0x3bac9f24	0.0052679945
83	0xbdda7023	-0.1066592
84	0xbd668266	-0.0562767
85	0xbe1a1ba3	-0.15049605
86	0x3c1a573f	0.009420215
87	0xbe39d24d	-0.1814663
88	0xbce38265	-0.027772138
89	0x3d54d2de	0.05195891
90	0x3e51ce33	0.20488815
91	0xbe91b08f	-0.28455016
92	0x3e1ec77d	0.15505786
93	0xbe58f12a	-0.21185747
94	0xbd063664	-0.032766715
95	0xbd6e0e2d	-0.058118988
96	0x3cbc551a	0.022989798
97	0x3de55484	0.11197761
98	0x3db901fb	0.09033581
99	0x3e3e5561	0.18587257
100	0xbd2fd725	-0.042929787
101	0xbda2c36d	-0.07947431
102	0xbd5b4b1d	-0.05353843
103	0xbca910dd	-0.020637924
104	0x3b926088	0.004467074
105	0x3c2ac3a6	0.010422623
106	0xbe3407a8	-0.17581046
107	0xbe8d8514	-0.27640593
108	0xbe809968	-0.2511704
109	0xbc11a1a4	-0.008888636
110	0xbe18ccb4	-0.14921838
111	0xbdb8ebe6	-0.09029369
112	0x3c5d11ff	0.01349306
113	0x3e1f2637	0.15541922
114	0x3d3a0f62	0.045424826
115	0x3d25e2f2	0.040499635
116	0x3d841bf6	0.064506456
117	0x3ed4ab05	0.41536728
118	0x3e388a68	0.18021548
119	0xbd3b878b	-0.04578356
120	0xbc80a68a	-0.015704412
121	0x3e9f351d	0.3109521
122	0xbf04c21c	-0.5185869
123	0xbd48f3e9	-0.049060736
124	0xbee68c0b	-0.4502872
125	0x3e6daeac	0.23211163
126	0xbbd2bd62	-0.0064312676
127	0xbc68fb10	-0.014220014
128	0xbce7426b	-0.028229913
129	0x3e42d840	0.19027805
130	0xbc125aff	-0.008932828
131	0x3d4d6f31	0.05015487
132	0xbe818824	-0.2529918
133	0x3de15fd2	0.110046044
134	0x3cd5db0e	0.02610543
135	0xbdcf2be8	-0.10115796
136	0xbcf25463	-0.029581254
137	0xbc1354d1	-0.00899239
138	0x3daafa16	0.08348481
139	0x3e13d218	0.14435613
140	0xbc89a1af	-0.01680073
141	0x3d4853b9	0.04890797
142	0x3bc054b5	0.005869473
143	0x3d8a03bb	0.06738993
144	0xbb9da66c	-0.004811099
145	0x3e1c4992	0.1526244
146	0x3d3e00ba	0.04638741
147	0xbb28475b	-0.0025677297
148	0x3e8dea2c	0.2771772
149	0x3e28b16f	0.16473936
150	0x3f14bac9	0.5809751
151	0xbe485b59	-0.19566096
152	0x3dd60bfe	0.10451506
153	0x3e73e32b	0.23817126
154	0xbc26d88e	-0.010183467
155	0xbd85dbf5	-0.06536094
156	0x3e761563	0.24031596
157	0xbd2c5567	-0.042073634
158	0xbdf37c6f	-0.11888968
159	0x3e47b26b	0.19501655
160	0xbee3b666	-0.44475096
161	0x3d5c03eb	0.053714674
162	0x3c348e93	0.0110203205
163	0xbd0f7f32	-0.035033412
164	0xbd844f05	-0.06460384
165	0x3c89d43a	0.01682483
166	0xbd20a735	-0.03922196
167	0x3d7deb48	0.06199196
168	0xbe61c034	-0.22045976
169	0xbce2dde8	-0.027693704
170	0xbee9c537	-0.45658275
171	0xbf0ceda8	-0.55050135
172	0xbd2ed654	-0.042684868
173	0x3eff033d	0.49807158
174	0xbd6d1f5e	-0.057891242
175	0x3c124501	0.008927585
176	0xbe5b5ad0	-0.21421361
177	0x3e90550b	0.28189883
178	0xbd2b2e5e	-0.041792266
179	0x3db37f00	0.08764458
180	0xbbb5ff5d	-0.0055541233
181	0x3eaab73f	0.3334293
182	0xbd21ac1b	-0.039470773
183	0xbd85bb40	-0.06529856
184	0xbe3b2024	-0.1827398
185	0xbd2fc838	-0.042915553
186	0xbe62aea3	-0.22136931
187	0x3f25a913	0.6471111
188	0x3e467b8a	0.19383064
189	0xbeb24aee	-0.34822792
190	0x3d2b77af	0.041862186
191	0x3eac251b	0.3362206
192	0x3cbc6640	0.022997975
193	0x3f01ffd0	0.50780964
194	0xbe456ecb	-0.19280545
195	0xbe02d8b8	-0.12777984
196	0xbe9b51b7	-0.3033578
197	0x3d466c9f	0.048443433
198	0xbe745991	-0.23862292
199	0x3deb2689	0.114819594
200	0xbe29398e	-0.16525862
201	0x3d604e82	0.05476237
202	0xbe102a1b	-0.14078562
203	0xbd8b15d9	-0.067912765
204	0xbd07da2e	-0.033167057
205	0xbd3cbc43	-0.046077978
206	0xbd8bfebe	-0.068356976
207	0xbc1c2b5b	-0.009531821
208	0x3e34e887	0.17666827
209	0x3b823e36	0.0039747013
210	0x3c9d15fa	0.019175518
211	0xbda151b4	-0.07876912
212	0x3d0c9ddc	0.034330234
213	0xbef357bb	-0.4752787
214	0xbce0d949	-0.02744736
215	0xbe9ed093	-0.31018505
216	0xbcd8bd70	-0.026457518
217	0x3e439281	0.19098856
218	0x3eb560d8	0.35425448
219	0xbdab67ee	-0.083694324
220	0xbd50a339	-0.05093691
221	0xbdf8957e	-0.12137888
222	0xbd399815	-0.045311052
223	0x3d1344e3	0.035954367
224	0xbd30a722	-0.04312814
225	0xbe625242	-0.22101691
226	0xbdfec736	-0.1244034
227	0x3e40e1b4	0.18836099
228	0xbd59db46	-0.05318763
229	0xbd03a185	-0.03213646
230	0xbdb2290f	-0.086992376
231	0x3b8e8ba9	0.004350145
232	0xbd5598c9	-0.05214766
233	0xbd69900e	-0.057022147
234	0x3e750bf8	0.23930347
235	0xbe12a1f7	-0.14319597
236	0x3e07014e	0.13184091
237	0xbcf4cd7a	-0.029883135
238	0xbf4c9110	-0.7990885
239	0x3eceba0e	0.40376323
240	0xbb499bff	-0.0030763147
241	0xbe9629a6	-0.2932865
242	0xbc6e8c3d	-0.014559803
243	0x3d3221e6	0.04348936
244	0xbc643049	-0.013927528
245	0xbdf10237	-0.117680006
246	0x3ec50878	0.38483024
247	0x3cc2154f	0.023691801
248	0xbd97f8e9	-0.07420523
249	0xbcacff9a	-0.021117974
250	0xbe4b6174	-0.19861394
251	0xbd1ae39c	-0.03781472
252	0x3bdd14d7	0.006746869
253	0x3ea207b9	0.31646517
254	0x3d28a9ef	0.041177686
255	0x3d306750	0.043067276

arr_2 f4 [64, 128]
0	0xbec7f8ac	-0.3905691
1	0x3cd01e52	0.025405083
2	0x3f2d3925	0.6766532
3	0xbf14a146	-0.58058584
4	0xbd4e6264	-0.0503868
5	0x3e29a9de	0.16568705
6	0x3e0bc67a	0.13649932
7	0x3e341e17	0.17589603
8	0x3da64ea6	0.0812047
9	0x3e3bd7ad	0.18343993
10	0xbee0c870	-0.43902922
11	0xbf567f2f	-0.83787817
12	0xbeec7ad5	-0.46187463
13	0xbda6bed9	-0.0814187
14	0xbe20c659	-0.15700664
15	0xbc912d49	-0.017721789
16	0xbc94abbf	-0.018148301
17	0xbf0d62f3	-0.5522911
18	0xbe190a4f	-0.14945339
19	0x3dc9ec46	0.09859519
20	0x3f89a133	1.0752319
21	0x3eee5f81	0.4655724
22	0xbf010133	-0.50392455
23	0xbca03553	-0.019556677
24	0xbbdd9021	-0.0067615663
25	0x3db5afa4	0.088713914
26	0x3d772f2a	0.060347714
27	0xbd65c99c	-0.056100473
28	0xbce50c35	-0.027959922
29	0x3f3709c6	0.7149929
30	0x3f098c58	0.5372977
31	0xbdda9df7	-0.10674661
32	0x3e3792c4	0.1792708
33	0xbbe6bb70	-0.0070413873
34	0x3ed09e6d	0.4074587
35	0x3d430b71	0.047618333
36	0x3d92501d	0.07144187
37	0xbd777928	-0.060418278
38	0x3f61297d	0.8795393
39	0xbe10c388	-0.14137089
40	0xbc5187e1	-0.012788744
41	0x3ebc85cc	0.3682083
42	0xbd70e531	-0.058812324
43	0x3f32105d	0.6955622
44	0xbed3b32d	-0.41347638
45	0x3ebc0556	0.3672282
46	0xbc9ed21b	-0.019387295
47	0xbcb1d6fe	-0.021708962
48	0x3dfc3a59	0.123158164
49	0x3d90bb30	0.07066953
50	0xbd54ee68	-0.051985174
51	0x3d8a9e22	0.06768443
52	0xbe41bd10	-0.18919778
53	0xbe25255c	-0.16127533
54	0x3efc8fab	0.4932836
55	0xbf10faf7	-0.5663294
56	0xbb04282d	-0.0020165548
57	0x3e84e526	0.25956076
58	0x3e4dea90	0.2010901
59	0xbd8df882	-0.06932165
60	0x3f093d54	0.53609204
61	0x3d9db134	0.076998144
62	0x3c805bf7	0.015668852
63	0xbf38bf4d	-0.721669
64	0xbd6d5ac9	-0.057947908
65	0xbf33316c	-0.69997287
66	0x3d94db9e	0.07268451
67	0xbdd0ec72	-0.10201348
68	0xbe026084	-0.1273213
69	0xbf505aca	-0.81388533
70	0x3dddd98b	0.10832509
71	0xbdf1015f	-0.1176784
72	0xba00cc2d	-0.0004913237
73	0x3e0707fc	0.1318664
74	0x3b9d8bff	0.0048079486
75	0xbe25b2e3	-0.16181521
76	0xbf165708	-0.5872655
77	0xbef7a806	-0.4837038
78	0x3eac6c12	0.336762
79	0x3d4a3512	0.049367018
80	0xbe27ea34	-0.16397935
81	0x3f570ae9	0.8400102
82	0x3f115d86	0.5678333
83	0x3de2f32b	0.11081537
84	0x3dd0566c	0.10172734
85	0x3e22ec5a	0.15910473
86	0xbe01f5dc	-0.12691444
87	0xbf7ab0ec	-0.9792621
88	0x3f33ef18	0.70286703
89	0x3dfb2248	0.12262398
90	0x3d9ff7b4	0.078109175
91	0x3ded9527	0.11600714
92	0xbe25ced0	-0.16192174
93	0xbf494c86	-0.7863239
94	0x3db7047b	0.089364015
95	0x3c8d62e5	0.01725907
96	0x3e094954	0.13406879
97	0x3cba4990	0.022740155
98	0xbe8a0b42	-0.26961714
99	0xbf301e6d	-0.68796426
100	0xbedee734	-0.4353577
101	0x3d6413ac	0.055682823
102	0x3f9d97b0	1.2311916
103	0x3eecf482	0.46280295
104	0x3f3b679a	0.7320496
105	0x3df68267	0.12036591
106	0xbdc448cb	-0.09584197
107	0xbdfd136c	-0.1235722
108	0x3d1ca9ff	0.03824806
109	0xbb57d9f9	-0.0032936318
110	0x3d9c2f8a	0.07626255
111	0x3f05fc08	0.52337694
112	0x3f142f13	0.5788433
113	0xbe438560	-0.19093847
114	0x3e141e09	0.14464583
115	0xbd158035	-0.03649922
116	0x3daa7ee5	0.083249845
117	0xbe406d93	-0.18791799
118	0xbe022ad8	-0.12711656
119	0xbf4cf354	-0.8005879
120	0xbd5ea650	-0.054357827
121	0xbdae580a	-0.08512886
122	0x3e241bae	0.16026184
123	0xbdf0f929	-0.117662735
124	0x3d6f283a	0.058387972
125	0x3e1278d1	0.143039
126	0xbe2bb0c2	-0.16766647
127	0x3ef50535	0.47855535
128	0x3bd046bd	0.006356089
129	0xbd50aad9	-0.050944183
130	0x3cbcdb51	0.023053797
131	0xbe8170b7	-0.25281307
132	0x3deaae13	0.11458983
133	0xbe3dad1b	-0.18523066
134	0x3cbb8656	0.022891205
135	0x3c472479	0.012154692
136	0xbddfa43a	-0.109199956
137	0x3d63da17	0.05562791
138	0xbe97d612	-0.2965551
139	0xbe0a78de	-0.1352267
140	0xbd919eca	-0.07110365
141	0x3e1bf149	0.15228762
142	0xbde1c4f5	-0.11023895
143	0xbc3f4789	-0.01167477
144	0x3dfc5183	0.123202346
145	0x3d8d85ac	0.069102615
146	0x3deda156	0.11603038
147	0xbde6872b	-0.1125625
148	0x3ea250e5	0.31702343
149	0xbd41a0ca	-0.04727248
150	0xbe6dbda5	-0.23216875
151	0xbdadf0af	-0.084931724
152	0xbdb1f9dd	-0.08690236
153	0xbd637c2f	-0.055538353
154	0xbdfe8d0c	-0.12429246
155	0x3d563b3f	0.052302595
156	0x3e111c2e	0.14170906
157	0x3d97f8d3	0.07420506
158	0x3c86b975	0.016445855
159	0x3d79a9b7	0.06095287
160	0xbe6b5b1a	-0.22983971
161	0x3e122127	0.14270459
162	0xbe11e697	-0.1424812
163	0x3cf41a6d	0.029797757
164	0xbb334032	-0.0027351496
165	0x3b895404	0.0041909236
166	0xbd47d5ef	-0.048788007
167	0xbd84bc2d	-0.06481204
168	0xbe0c550f	-0.13704322
169	0xbd3f1c8e	-0.04665809
170	0xbe9008bb	-0.2813166
171	0xbe820604	-0.25395215
172	0xbdb49053	-0.0881659
173	0xbc806f62	-0.015678111
174	0x3d13c4e2	0.036076434
175	0x3d92ba91	0.07164491
176	0x3d8a0ccb	0.06740721
177	0x3e19f0e1	0.15033294
178	0xbe0db63d	-0.1383905
179	0x3d5bb607	0.05364039
180	0x3ca5ab0d	0.020223165
181	0xbe22eac0	-0.15909863
182	0xbd7a45f1	-0.061101858
183	0x3ce1f395	0.02758197
184	0xbd47d26d	-0.048784662
185	0xbd27b840	-0.0409472
186	0xbe8a7d56	-0.2704875
187	0xbdfba2d4	-0.122869164
188	0xbd7b3c26	-0.06133666
189	0x3dc2e2b8	0.095158994
190	0xbb80342a	-0.0039124684
191	0xbe8e5865	-0.27801815
192	0xbe1d2e5b	-0.15349714
193	0xbdd131fd	-0.10214613
194	0x3c04bccd	0.008101654
195	0xbb9edd29	-0.0048481417
196	0x3d7325f6	0.059362374
197	0xbe33cc47	-0.17558394
198	0x3db40c02	0.08791353
199	0x3e280387	0.16407596
200	0x3b656040	0.0034999996
201	0x3e134474	0.14381582
202	0x3e010e34	0.12603074
203	0xbe043a5f	-0.12912892
204	0x3da624f9	0.08112521
205	0xbdaa7bd7	-0.08324402
206	0x3de5c3de	0.11218999
207	0x3e5b6d9a	0.21428528
208	0x3dc78244	0.09741643
209	0xbe5f5651	-0.21810271
210	0xbd68e2cf	-0.056856927
211	0x3cf3c949	0.029759066
212	0xbd962ede	-0.07333158
213	0xbdc0a8e2	-0.09407212
214	0x3e0231e9	0.12714352
215	0xbe0e2f41	-0.13885213
216	0x3e070bdb	0.13188116
217	0x3db3db09	0.08782012
218	0x3d83934d	0.0642458
219	0x3dc8238f	0.09772407
220	0x3e4dc6da	0.20095387
221	0xbdefa421	-0.11701227
222	0xbe25ad03	-0.1617928
223	0xbe12b276	-0.1432589
224	0xbe19fdd4	-0.15038234
225	0xbda00e77	-0.07815259
226	0x3cca0315	0.024659673
227	0xbe97dffd	-0.29663077
228	0xbea85ef0	-0.32884932
229	0xbd45d98b	-0.04830317
230	0xbd89b9a4	-0.06724861
231	0xbda70d74	-0.08156863
232	0xbdfd669c	-0.12373087
233	0xbd8ddaf5	-0.06926528
234	0x3daffca3	0.085931085
235	0xbe0060a0	-0.1253686
236	0x3dd84f26	0.10561971
237	0x3df92257	0.12164753
238	0xbc822a72	-0.01588938
239	0x3c5bb3ff	0.013409614
240	0xbe809c1b	-0.251191
241	0x3dccd2f8	0.100011766
242	0xbc660dcf	-0.014041378
243	0xbdd4c118	-0.10388392
244	0xbb97389f	-0.004614904
245	0x3dbbbde0	0.09167075
246	0xbe22c8db	-0.15896933
247	0xbe17cb6f	-0.14823698
248	0x3d9e9328	0.077429116
249	0xbde4f6b8	-0.1117987
250	0xbe3f2808	-0.18667614
251	0x3d9ada2f	0.075611465
252	0xbe29883c	-0.16555876
253	0xbd3b46bc	-0.045721754
254	0xbd0052ff	-0.03132915
255	0xbda521ad	-0.08063064

arr_3 f4 [4, 1, 32, 64]
0	0xbce92170	-0.028458327
1	0xbe677591	-0.22603442
2	0xbe19459e	-0.14967963
3	0xbc348bc1	-0.011019648
4	0xbee2a107	-0.4426348
5	0xbdaf7220	-0.085666895
6	0xbde4f094	-0.11178699
7	0xbe10ad7d	-0.1412868
8	0xbda884a9	-0.08228428
9	0x3c92899e	0.017887887
10	0xbcb19f1c	-0.021682315
11	0x3d0836f9	0.03325555
12	0xbccd79c1	-0.02508247
13	0xbf0af192	-0.5427486
14	0x3e918eeb	0.2842935
15	0xbe2b1f5c	-0.16711181
16	0xbd0af7da	-0.033927776
17	0xbd158dfe	-0.036512367
18	0xbe7da342	-0.24769309
19	0xbe57148a	-0.21003929
20	0xbd84877d	-0.06471155
21	0xbe43ce77	-0.19121729
22	0x3e37ece1	0.17961456
23	0x3da467a6	0.08027582
24	0x3e117c69	0.14207615
25	0x3c23430b	0.009964715
26	0x3e6eea0c	0.2333147
27	0xbe37b837	-0.17941366
28	0x3ed3a154	0.4133402
29	0x3c2a5504	0.010396246
30	0xbe08955c	-0.13338226
31	0x3c852b14	0.016255893
32	0x3d15b2ac	0.036547348
33	0xbdc2db9a	-0.09514542
34	0xbe4281b7	-0.18994795
35	0x3e85cc05	0.26132217
36	0xbcee0176	-0.029053431
37	0xbdeb4888	-0.114884436
38	0xbeb3fd11	-0.35154012
39	0x3d6369bc	0.055520758
40	0xbd4e6841	-0.050392393
41	0x3e39ac39	0.18132104
42	0x3d8e8899	0.06959648
43	0x3d953aa8	0.072865784
44	0x3e842ff4	0.25817835
45	0xbd4e2bce	-0.050334744
46	0x3ca49bde	0.020093855
47	0x3d3e2d1a	0.04642973
48	0xbdf19bb1	-0.11797274
49	0xbe13b43d	-0.14424224
50	0x3c282f2e	0.010265155
51	0x3b4a3d68	0.0030859355
52	0xbc720ca0	-0.014773518
53	0x3d4a7d23	0.049435746
54	0xbe8293f3	-0.255035
55	0x3dec1b3c	0.11528632
56	0x3dfcd00c	0.12344369
57	0xbe0570d3	-0.1303132
58	0x3e2d1888	0.16903889
59	0xbdf383b7	-0.11890357
60	0xbe32c2af	-0.17457078
61	0xbd4aab94	-0.049480036
62	0x3dc361e4	0.095401555
63	0x3d91e80a	0.07124336
64	0xbf2966f2	-0.6617271
65	0xbf18e027	-0.5971703
66	0xbdd57388	-0.104224265
67	0xbe6f3cfc	-0.23363107
68	0x3d59471c	0.05304633
69	0x3e59a72a	0.21255174
70	0xbd999aa9	-0.07500202
71	0xbdac2478	-0.08405393
72	0x3dc7da01	0.09758378
73	0xbe6a9fbd	-0.22912498
74	0xbe82f35c	-0.25576293
75	0x3da43177	0.08017247
76	0x3ec14fb6	0.37756127
77	0xbe0294cf	-0.12752078
78	0x3daf1cf7	0.085504465
79	0xbdae2ad3	-0.08504262
80	0x3df8b08a	0.12143047
81	0x3d510cd5	0.05103763
82	0x3ec617e2	0.38690096
83	0xbf0c7cf6	-0.54878175
84	0xbdab17c4	-0.08354142
85	0xbdabc205	-0.08386616
86	0xbe658e76	-0.22417626
87	0x3eb94e04	0.36192334
88	0xbeaadc80	-0.33371353
89	0xbdd1e056	-0.10247867
90	0x3d2302b0	0.039797485
91	0xbd286a41	-0.041116957
92	0xbe1c2fa6	-0.15252551
93	0x3ee1cf24	0.44103348
94	0x3a440065	0.00074768654
95	0x3c9b3369	0.018945413
96	0xbe0066cc	-0.12539214
97	0xbe02aa41	-0.12760259
98	0x3dfe7cdc	0.12426159
99	0xbedac081	-0.42724994
100	0xbe05ab50	-0.13053632
101	0x3d920a56	0.07130878
102	0xbee9b27b	-0.45643982
103	0xbf1d4f2d	-0.6144894
104	0xbd938aab	-0.07204183
105	0x3eb09c6f	0.3449435
106	0x3de3a158	0.11114758
107	0xbe9ed092	-0.31018502
108	0xbf135469	-0.57550675
109	0x3c1dfbea	0.0096425805
110	0x3b7659fd	0.0037590258
111	0xbe0ac95d	-0.13553376
112	0xbc35b7a0	-0.011091143
113	0xbdb3664c	-0.08759746
114	0x3f3fe26d	0.74954873
115	0x3effc80d	0.49957314
116	0x3d349c56	0.044094406
117	0xbf2c870f	-0.67393583
118	0xbd8d5723	-0.06901386
119	0xbd604a30	-0.05475825
120	0x3e2af851	0.16696288
121	0xbea8229d	-0.32838908
122	0x3e7aca3b	0.24491207
123	0x3d98afc1	0.074553974
124	0x3c664330	0.014054105
125	0xbedd408c	-0.43213308
126	0xbd296908	-0.04135993
127	0xbede0dea	-0.4336999
128	0xbe723cd8	-0.23656023
129	0x3c08208d	0.008308542
130	0x3d1a8843	0.037727606
131	0x3ee29849	0.4425681
132	0x3ebe76f6	0.37200135
133	0x3dbb27ab	0.091384254
134	0xbdc5b0df	-0.09652876
135	0xbdc638d1	-0.096788056
136	0x3ef8f464	0.48623955
137	0x3ee21190	0.44154024
138	0xbf37dc1d	-0.7182024
139	0x3dd3fd2c	0.10351023
140	0x3e0fd22d	0.1404502
141	0x3e65829e	0.22413108
142	0xbe97a03a	-0.2961443
143	0xbdaaa8dd	-0.08332989
144	0x3e4945a2	0.19655469
145	0xbe8d48b2	-0.27594525
146	0x3dc3c9d3	0.09559979
147	0xbcd8435d	-0.026399309
148	0xbd4ae261	-0.049532298
149	0xbeddd5b0	-0.43327093
150	0x3dcafbb3	0.09911289
151	0xbe2bb6a7	-0.16768895
152	0xbe258bd1	-0.16166617
153	0xbe0db609	-0.13838972
154	0xbdb540ca	-0.08850248
155	0xbf2932e0	-0.66093254
156	0xbf09621e	-0.5366534
157	0xbeefa1d2	-0.46803147
158	0x3f29ee78	0.663795
159	0x3e9df955	0.30854288
160	0x3e7d1ebd	0.24718757
161	0xbd39c029	-0.045349274
162	0x3eafea34	0.3435837
163	0xbe4c4266	-0.19947204
164	0x3e7f39cb	0.2492439
165	0xbe3c1255	-0.18366368
166	0xbc96a51d	-0.018389279
167	0xbdd51fe3	-0.104064725
168	0xbf2935e8	-0.6609788
169	0xbe696ba5	-0.2279497
170	0xbe69bf23	-0.22826819
171	0xbe9405af	-0.28910586
172	0xbe0e5770	-0.13900542
173	0xbe060a3f	-0.13089846
174	0x3e69ef51	0.22845198
175	0x3e45b830	0.19308543
176	0x3c1c2240	0.00952965
177	0xbe06543c	-0.1311807
178	0xbea9adf5	-0.3314053
179	0xbe72e19e	-0.23718879
180	0x3dce909e	0.10086177
181	0xbe1d13f2	-0.1533964
182	0x3e9933ea	0.2992242
183	0xbf84e383	-1.0381931
184	0xbce66204	-0.02812291
185	0xbebb5b01	-0.36592868
186	0x3e3effb4	0.1865223
187	0x3dd1bc28	0.10240966
188	0x3d5bb665	0.05364074
189	0x3cb058b6	0.021526676
190	0xbdeb0620	-0.114757776
191	0xbead2a24	-0.33821213
192	0x3e8c8631	0.2744613
193	0x3e9f054d	0.31058732
194	0xbcfab41d	-0.030603463
195	0x3e104b90	0.14091325
196	0x3e529624	0.20565087
197	0x3e9a66a7	0.30156443
198	0x3de6656a	0.11249812
199	0xbc9e00fa	-0.019287575
200	0xbeb460dd	-0.3523015
201	0x3dfd598c	0.12370595
202	0x3e3d39c3	0.18479066
203	0x3e32bc5a	0.17454663
204	0x3ded756e	0.115946636
205	0x3e8067b2	0.25079113
206	0x3ce57907	0.028011812
207	0xbd284d62	-0.041089423
208	0x3e104bb8	0.14091384
209	0x3e8ae840	0.27130318
210	0xbdb7986c	-0.08964619
211	0xbe3aacea	-0.18230024
212	0xbe0fede3	-0.1405559
213	0x3e9b4f97	0.3033416
214	0xbe06422c	-0.1311118
215	0x3e02449b	0.12721483
216	0xbf506f3f	-0.8141975
217	0xbdbae1e0	-0.091251135
218	0xbe619bf5	-0.22032149
219	0x3d9d1fe8	0.07672101
220	0xbe8e57a0	-0.27801228
221	0x3e1051e3	0.14093737
222	0x3f528676	0.8223642
223	0x3e12cf6f	0.14336942
224	0xbdaf616b	-0.08563503
225	0xbd71abb6	-0.059001647
226	0x3e90da9f	0.28291795
227	0xbf1cb2e0	-0.6121044
228	0xbde08b8f	-0.10964119
229	0x3d90ac22	0.07064082
230	0x3dba3a81	0.0909319
231	0xbebd3ccf	-0.36960456
232	0x3eb001a7	0.3437626
233	0xbe0c7d76	-0.13719735
234	0xbe35a025	-0.17736872
235	0xbe04a971	-0.12955262
236	0xbd555015	-0.052078325
237	0x3d0e95c2	0.03481079
238	0x3e648c47	0.22319137
239	0x3e740661	0.23830558
240	0xbda292a3	-0.07938125
241	0xbcaddf4e	-0.021224644
242	0x3f3ac537	0.72957176
243	0x3f0a8236	0.54104936
244	0xbebb7943	-0.36615953
245	0xbe8d2448	-0.27566743
246	0xbe9dd0de	-0.30823416
247	0x3df03acf	0.11729967
248	0x3de41b3a	0.111380056
249	0xbe143a97	-0.14475475
250	0xbea4c737	-0.3218324
251	0xbceb9cd6	-0.028761309
252	0xbc231ddd	-0.00995585
253	0x3e42384e	0.18966791
254	0xbf043597	-0.5164427
255	0xbd0ac81b	-0.03388224

arr_4 f4 [4, 1, 16, 32]
0	0xbf5bab49	-0.85808235
1	0xba0db8a0	-0.00054062344
2	0x3f474840	0.7784462
3	0x3efff235	0.49989477
4	0xbe0afa00	-0.1357193
5	0xbf7ded8c	-0.9919059
6	0xbf176967	-0.59145206
7	0xbeb02cba	-0.34409124
8	0x3ce2b7a8	0.027675465
9	0xbf32a153	-0.6977741
10	0x3d58b66b	0.052908342
11	0x3f424b36	0.7589601
12	0x3f57b342	0.842579
13	0xbdfeb775	-0.124373354
14	0xbf520777	-0.8204264
15	0xbe3b4684	-0.18288618
16	0x3db9e6ac	0.090772
17	0xbed1c042	-0.40966994
18	0x3fb78acc	1.4339232
19	0x3eb1c6d6	0.34722012
20	0xbddb97d4	-0.10722318
21	0x3d418f1e	0.047255628
22	0xbd80bc75	-0.06285945
23	0xbe14554f	-0.14485668
24	0x3f90aa1f	1.1301917
25	0x3f6814a9	0.90656525
26	0x3b9bac3f	0.004750758
27	0xbe0dd501	-0.13850786
28	0xbf9ad083	-1.2094883
29	0xbf6d3aa0	-0.9266758
30	0xbd280969	-0.0410246
31	0xbef9178a	-0.4865077
32	0x3e0be5f8	0.13661945
33	0xbd02ef54	-0.031966522
34	0xbe3147bd	-0.17312522
35	0xbd8c695d	-0.06856034
36	0x3d9cecb2	0.076623335
37	0xbd9e9011	-0.07742322
38	0xbd9ed7c6	-0.07755999
39	0x3d8d1780	0.06889248
40	0x3daf4b4a	0.08559282
41	0xbae0c0bb	-0.0017147282
42	0xbb47cce4	-0.0030487115
43	0xbda936e2	-0.08262421
44	0x3dd2d476	0.1029443
45	0xbdfb4bea	-0.12270339
46	0x3e33a979	0.17545117
47	0x3cb455b7	0.022013528
48	0x3db39a79	0.08769698
49	0xbe0fd1e9	-0.14044918
50	0xbdabebaf	-0.083945625
51	0x3dbdd83c	0.09269759
52	0xbe17d27a	-0.14826384
53	0xbc34a354	-0.011025269
54	0x3c9e5b48	0.019330636
55	0x3e297010	0.16546655
56	0x3d47e27c	0.048799977
57	0x3e20b3b5	0.15693553
58	0x3e0a802b	0.13525455
59	0xbde24f78	-0.11050314
60	0xbe002e64	-0.12517697
61	0xbe0486af	-0.12942003
62	0xbdeb6760	-0.114943266
63	0xbd9642c9	-0.07336957
64	0xbe0b6db6	-0.1361607
65	0x3e2d2b19	0.16910972
66	0x3d7adf04	0.06124784
67	0xbe003cd8	-0.1252321
68	0xbcfaaaf8	-0.030599102
69	0x3dac60bd	0.08416889
70	0x3e1dc92b	0.1540877
71	0x3e2d6207	0.16931926
72	0x3e035939	0.12827004
73	0xbe1ab07e	-0.15106389
74	0xbc844843	-0.016147738
75	0x3d339e51	0.043852154
76	0xbcd66b60	-0.026174247
77	0xbe0690ac	-0.13141125
78	0x3e058f98	0.13043058
79	0x3b3f24d7	0.0029166245
80	0x3de6c84e	0.11268674
81	0xbd95ba07	-0.073108725
82	0xbd6bfb3a	-0.057612635
83	0xbdbcc93f	-0.09218072
84	0xbd639134	-0.0555584
85	0x3e269067	0.16266023
86	0xbe2fbb20	-0.17161226
87	0x3dcd9f5a	0.100401595
88	0xbde22e69	-0.11044008
89	0x3e272dfb	0.16326134
90	0x3d2c1dfc	0.042020783
91	0x3dca1082	0.0986643
92	0x3cb4854e	0.02203622
93	0x3dc5dd27	0.09661322
94	0xbd90ba6e	-0.07066809
95	0x3df9886d	0.12184224
96	0xbe6140f0	-0.21997428
97	0x3c0d90a0	0.008640438
98	0x3dd15541	0.10221339
99	0xbdaa530e	-0.08316623
100	0x3dc0f879	0.094223924
101	0x3e22bdd8	0.15892732
102	0xbd3c9b0c	-0.0460463
103	0xbcb04caa	-0.021520931
104	0x3e1488d2	0.14505318
105	0xbd55f04f	-0.05223113
106	0x3d91e173	0.07123079
107	0x3e07870e	0.13235113
108	0xbd08c083	-0.03338672
109	0x3e144cd8	0.14482439
110	0x3dc1de44	0.09466222
111	0xbd545316	-0.05183705
112	0x3eb6d3b6	0.35708398
113	0xbe17daf8	-0.14829624
114	0x3dff0fc5	0.1245418
115	0xbe2272d3	-0.15864114
116	0x3cecc03d	0.02890026
117	0x3dd34482	0.10315801
118	0xbe25b8f7	-0.1618384
119	0xbe1dc8f6	-0.15408692
120	0x3e2c7ab8	0.16843688
121	0x3e1d57c3	0.1536551
122	0x3da27a17	0.07933443
123	0x3e11bae0	0.14231443
124	0xbd834b43	-0.064108394
125	0x3e24dc97	0.16099773
126	0xbda50e44	-0.080593616
127	0xbe0afcfa	-0.13573065
128	0xbd97f73e	-0.074202046
129	0x3e1ade61	0.15123893
130	0x3c221e31	0.0098948935
131	0xbd622215	-0.055208284
132	0x3d55d929	0.052209053
133	0x3dc0a958	0.094073
134	0xbd79197a	-0.060815312
135	0xbdbc2e9f	-0.0918858
136	0x3e1c57f2	0.15267923
137	0xbe122072	-0.1427019
138	0xbd848236	-0.06470148
139	0x3d9c0098	0.07617301
140	0xbdea6eb0	-0.11446893
141	0xbdd6173f	-0.104536526
142	0xbc95c77b	-0.018283596
143	0x3d16d1c0	0.036821127
144	0xbe27af82	-0.16375545
145	0xbda25680	-0.07926655
146	0x3d9af147	0.07565551
147	0xbd3bd4bb	-0.045857172
148	0x3e01b019	0.12664832
149	0x3dd37d12	0.1032659
150	0xbe164a02	-0.14676669
151	0xbd0e9ff9	-0.03482053
152	0xbc956230	-0.018235296
153	0xbcee51d6	-0.029091757
154	0xbd2cf71d	-0.042227853
155	0xbd87c894	-0.06630054
156	0xbc94cb7f	-0.01816344
157	0x3d1d0571	0.038335267
158	0xbe049cdd	-0.12950464
159	0xbd8d0983	-0.0688658
160	0x3d8bc0d2	0.06823887
161	0x3c75dde0	0.015006512
162	0xbb617a80	-0.003440529
163	0x3acee100	0.0015783608
164	0x3dbbc546	0.09168486
165	0xbb2be600	-0.002622962
166	0x3da3da52	0.08000626
167	0xbd90ddce	-0.07073556
168	0x3de8ce4a	0.113674715
169	0xbd159608	-0.036520034
170	0xbe1b2f59	-0.1515478
171	0x3e2ff13f	0.17181872
172	0xbd1d0424	-0.038334027
173	0x3db4e30e	0.0883237
174	0xbdbcf24d	-0.09225903
175	0x3e225069	0.15850987
176	0xbd42e5a0	-0.04758227
177	0xbe0b9248	-0.1363002
178	0xbe308206	-0.172371
179	0x3e02ec2f	0.1278541
180	0xbd21214c	-0.039338395
181	0x3d5912d0	0.052996457
182	0xbd2f5fac	-0.04281585
183	0xbdfd997c	-0.123827904
184	0xbda5404c	-0.08068904
185	0x3ca3dad0	0.020001799
186	0x3e256189	0.16150488
187	0xbd826519	-0.06366939
188	0x3dc12a02	0.094318405
189	0x3ddb1b26	0.106985375
190	0xbe0d852e	-0.13820335
191	0xbdab6432	-0.0836872
192	0xbe6c4dff	-0.23076628
193	0xbe2d1a17	-0.16904484
194	0x3e4a3d77	0.1975001
195	0x3e694c9f	0.22783135
196	0xbeba5ba5	-0.36398044
197	0xbf0d6b04	-0.5524142
198	0xbc1b7aae	-0.009489698
199	0x3dbffbf2	0.09374227
200	0xbd386258	-0.045015663
201	0xbe56afa0	-0.20965433
202	0xbe80d31f	-0.25161073
203	0x3ec1d28b	0.37855944
204	0x3eb72d16	0.35776585
205	0xbd9f1eb0	-0.07769525
206	0xbe43161a	-0.190514
207	0xbe17e538	-0.14833534
208	0xbe8f46d5	-0.27983728
209	0xbf1114a6	-0.5667213
210	0x3ebeb82e	0.37249893
211	0x3e038294	0.1284278
212	0xbdfaa8d3	-0.12239232
213	0x3ed3b90d	0.4135212
214	0xbd5b1799	-0.0534893
215	0x3d034d8b	0.032056373
216	0x3e49cfaf	0.19708131
217	0x3ea80ee5	0.32823864
218	0x3c3dad75	0.011577
219	0x3d531e1e	0.051542394
220	0xbf364100	-0.7119293
221	0xbeca6e82	-0.39537436
222	0xbe36c299	-0.1784767
223	0xbea946e9	-0.33061913
224	0xbf21b2eb	-0.6316363
225	0xbe620d8b	-0.22075479
226	0xbaa15aae	-0.001231035
227	0x3f1d2ccf	0.613965
228	0x3ee7a5bc	0.45243633
229	0xbe8004f0	-0.25003767
230	0xbf834caa	-1.0257771
231	0xbf1d430c	-0.6143043
232	0x3ce7981d	0.028270775
233	0xbe98977f	-0.29803082
234	0x3d489a63	0.04897536
235	0x3edaa516	0.42704076
236	0xbee537c5	-0.4476911
237	0xbdd6ab54	-0.10481897
238	0x3eac94a5	0.33707157
239	0xbe98b509	-0.2982562
240	0x3e03f1e3	0.12885241
241	0xbe9744a3	-0.29544553
242	0x3f1ed3a8	0.6204171
243	0xbd6446ac	-0.05573146
244	0xbe0cf48a	-0.13765159
245	0xbe719afb	-0.23594277
246	0xbe1a4678	-0.15065944
247	0xb8ea246d	-0.00011164774
248	0x3c915a12	0.017743144
249	0x3f0d970a	0.5530859
250	0xbe06e135	-0.13171847
251	0xbc177565	-0.009244298
252	0xbebc093f	-0.36725804
253	0xbd663e08	-0.0562115
254	0x3d97be3c	0.07409331
255	0xbf17ff6a	-0.59374106

arr_5 f4 [4, 1, 16, 16]
0	0xbf0a9edc	-0.5414865
1	0xbdd51a8a	-0.104054525
2	0xbdd04053	-0.10168519
3	0xbe0e6538	-0.139058
4	0xbcb75111	-0.022377523
5	0x3baa3a60	0.005194947
6	0xbf3ae33c	-0.7300298
7	0xbf54441a	-0.82916415
8	0xbe831071	-0.2559848
9	0x3dd6f153	0.10495248
10	0x3efc1d7e	0.4924125
11	0x3f14bda0	0.58101845
12	0x3f3b45ff	0.7315368
13	0xbdc0103d	-0.09378097
14	0x3eeddbad	0.46456662
15	0x3f33b259	0.7019401
16	0xbf60fa8c	-0.87882304
17	0xbd04b9c0	-0.032403708
18	0x3e05891c	0.13040584
19	0x3dbf61d5	0.09344832
20	0x3d290eeb	0.041273993
21	0x3e24d079	0.16095151
22	0xbf677508	-0.9041295
23	0xbf872b59	-1.0560104
24	0xbe2fdcd3	-0.17174082
25	0xbd21c9e3	-0.039499175
26	0x3f134eec	0.575423
27	0x3f6be29c	0.92142653
28	0x3f23c984	0.63979363
29	0xbc948020	-0.018127501
30	0xbe8540e5	-0.26026073
31	0x3f4b338e	0.7937554
32	0xbe50cbb7	-0.20390211
33	0x3da3d6f7	0.07999986
34	0xbde1483b	-0.11000105
35	0x3db36f28	0.08761436
36	0x3d966bb0	0.073447585
37	0xbdfa62ca	-0.12225874
38	0xbe49e531	-0.19716336
39	0xbe97ccad	-0.29648343
40	0xbe60deb7	-0.21959959
41	0x3c218726	0.009858882
42	0xbde0382e	-0.109482154
43	0xbe06ceea	-0.13164869
44	0xbe23e6f7	-0.16006075
45	0xbe3078dd	-0.17233606
46	0xbc2589a2	-0.010103615
47	0xbe621747	-0.22079192
48	0xbf267e6c	-0.65036654
49	0xbe50e8ca	-0.20401302
50	0x3bf55960	0.007487461
51	0xbdffaeee	-0.12484537
52	0xbdc63e5a	-0.09679861
53	0x3d9274ea	0.07151206
54	0xbf33ff27	-0.70311207
55	0xbd3f8138	-0.046754092
56	0x3c1a7490	0.009427205
57	0xbe618b76	-0.22025856
58	0x3f6dedbb	0.9294087
59	0x3f8bf3a7	1.0933732
60	0x3eb8aa9e	0.3606767
61	0xbe309c4e	-0.17247126
62	0xbe9660a5	-0.2937061
63	0x3f8a73d1	1.0816594
64	0xbdec78a0	-0.11546445
65	0x3e1600d5	0.14648755
66	0x3e49d6ac	0.19710797
67	0xbe2f8ab2	-0.17142752
68	0xbe572f82	-0.21014217
69	0xbd801c00	-0.062553406
70	0xbdc12010	-0.094299436
71	0xbe839306	-0.25698107
72	0x3d9cf476	0.07663815
73	0x3d496be2	0.04917515
74	0x3ced0b17	0.028935952
75	0xbd10ea87	-0.035379913
76	0xbce3921e	-0.027779635
77	0x3e4cb821	0.19992115
78	0x3e20045b	0.15626661
79	0xbd958925	-0.07301549
80	0x3e33a67d	0.17543979
81	0xbe0d03db	-0.13771002
82	0x3d9ff436	0.078102514
83	0xbdca54ef	-0.09879481
84	0x3e230617	0.15920292
85	0xbe44e115	-0.19226487
86	0x3f409c2d	0.75238305
87	0xbdc5efce	-0.0966488
88	0x3e2b3f10	0.16723275
89	0xbe50cc8c	-0.20390528
90	0xbf08ee5a	-0.53488696
91	0xbe6d4d6d	-0.23174067
92	0x3ee1f62c	0.44133127
93	0xbc95d90a	-0.018291969
94	0x3f08aa61	0.5338498
95	0xbea03ce0	-0.31296444
96	0xbf1002dc	-0.56254363
97	0x3be93971	0.0071174433
98	0x3b863940	0.00409618
99	0xbcea2077	-0.028579934
100	0x3d4e7d06	0.0504122
101	0x3d32429c	0.043520555
102	0xbf0b1080	-0.5432205
103	0xbe677665	-0.22603758
104	0xbe4d6fd1	-0.20062186
105	0xbdb6f568	-0.08933526
106	0x3f1091ae	0.5647229
107	0x3ea8a9ca	0.3294204
108	0x3f471de0	0.7777996
109	0x3d935af6	0.07195084
110	0xbe359767	-0.17733537
111	0x3f61bb62	0.8817655
112	0x3edf4bfe	0.43612665
113	0x3e1e4598	0.15456235
114	0x3dfa8fb0	0.122344375
115	0xbe399802	-0.18124393
116	0xbdccaa83	-0.0999346
117	0xbdc32f64	-0.095305234
118	0x3f4f1c76	0.809028
119	0x3dcd8dfd	0.10036848
120	0xbe464a73	-0.19364338
121	0xbd85c349	-0.06531388
122	0xbe6f1da3	-0.2335115
123	0xbed66547	-0.41874143
124	0x3da133bb	0.07871195
125	0xbe2c6967	-0.16837083
126	0x3ef6c20f	0.4819493
127	0xbe91c26f	-0.28468654
128	0x3f77e6c2	0.96836483
129	0xbd2e8054	-0.042602852
130	0xbe220977	-0.15823923
131	0x3a40599b	0.0007337571
132	0xbdd2b7a2	-0.102889314
133	0xbe4fe439	-0.20301904
134	0x40148440	2.320572
135	0x3f6a54a0	0.9153538
136	0x3e144911	0.14480998
137	0x3e0b187e	0.13583562
138	0xbf0bf432	-0.5466949
139	0xbfab0c55	-1.3363138
140	0xbdc0020c	-0.093753904
141	0x3d4a5e2e	0.049406223
142	0x3f54855c	0.8301599
143	0xbf3faad7	-0.74870056
144	0x3e8cb681	0.2748299
145	0xbc76ad59	-0.015055978
146	0xbe17c765	-0.14822157
147	0x3e038e22	0.12847188
148	0xbe43b825	-0.19113214
149	0xbe2a8066	-0.16650543
150	0x3f19d0e7	0.60084385
151	0x3e304a91	0.17215945
152	0xbe4cc088	-0.1999532
153	0xbe2ade1a	-0.16686288
154	0xbe615f94	-0.22009116
155	0xbe8802d6	-0.26564664
156	0x3f11ed01	0.57002264
157	0x3daafc4e	0.083489046
158	0x3f1a5e42	0.60300076
159	0x3b87a0c9	0.00413904
160	0xbf3f65cb	-0.747647
161	0x3e0b7eef	0.1362264
162	0xbd9e2ec0	-0.077237606
163	0xbdcaf4ec	-0.099099964
164	0x3e1d1a9a	0.15342179
165	0x3c8cc738	0.017184839
166	0xbf5e534d	-0.86845857
167	0xbe8526a1	-0.26006034
168	0xbd002f8d	-0.031295348
169	0x3cc2f685	0.02379919
170	0x3fad7845	1.3552328
171	0x3fc291cf	1.5200747
172	0x3ce4d949	0.02793564
173	0xbde3ef08	-0.11129576
174	0xbef32df2	-0.4749599
175	0x4004f232	2.0772824
176	0xbeedef7e	-0.4647178
177	0xbe3acd60	-0.18242407
178	0x3e4b32b4	0.1984356
179	0x3d81f26d	0.06345067
180	0x3d0be4f1	0.034153882
181	0x3e378f49	0.17925753
182	0xbf8475bb	-1.0348428
183	0xbf963722	-1.1735575
184	0xbd1e40d2	-0.038636036
185	0x3e2247b6	0.15847668
186	0x3f33e609	0.7027288
187	0x3f23e2bc	0.64017844
188	0x3f69d15a	0.9133507
189	0xbd9deae7	-0.0771082
190	0x3ecb3181	0.39686206
191	0x3f5c55a7	0.86068195
192	0xbeb6c39d	-0.35696116
193	0xbd87d11f	-0.066316836
194	0xbdcdb0ba	-0.100434735
195	0x3e0b05af	0.13576387
196	0xbc1848fe	-0.009294746
197	0xbe10d396	-0.14143214
198	0xbf4f3b87	-0.80950207
199	0xbf849080	-1.0356598
200	0xbe1ebe1d	-0.1550221
201	0x3d816eba	0.063199475
202	0x3f56b997	0.8387694
203	0x3ecf0144	0.40430653
204	0x3f84fb55	1.03892
205	0xbe2a03dc	-0.16603035
206	0x3eafd1cb	0.34339747
207	0x3efcf04e	0.49402088
208	0x3e4bdba4	0.19908005
209	0xbe453fbc	-0.19262594
210	0x3ddb752e	0.107157096
211	0x3dae6a8c	0.08516416
212	0x3e0146bd	0.12624641
213	0x3d88af96	0.06674115
214	0xbe90f75f	-0.2831373
215	0x3e53a3a0	0.20667887
216	0x3da22afc	0.07918355
217	0x3de4fada	0.11180659
218	0x3c97d0ec	0.018532239
219	0x3de1b0bd	0.11020038
220	0xbc73c1c1	-0.0148777375
221	0x3e2089a7	0.1567751
222	0xbe7f21ab	-0.24915187
223	0xbde72487	-0.11286264
224	0x3f5c9e18	0.8617873
225	0xbe61242d	-0.21986456
226	0x3e29de22	0.16588643
227	0x3dda7101	0.10666085
228	0xbde87d57	-0.11352032
229	0x3bd43d20	0.006477013
230	0x402345ab	2.5511272
231	0x3f5db27f	0.8660049
232	0xbe36dca5	-0.17857607
233	0xbe077f92	-0.13232258
234	0xbf4cb5df	-0.79965013
235	0xbfb2e531	-1.3976194
236	0x3d5e0118	0.05420026
237	0x3dab19ed	0.08354554
238	0x3f34e600	0.7066345
239	0xbf54f230	-0.8318205
240	0x3f451820	0.76989937
241	0xbd9292f2	-0.07156934
242	0xbe710974	-0.23538762
243	0x3cda6124	0.026657648
244	0xbce24686	-0.027621519
245	0x3df6ba5e	0.120472655
246	0x40021ac1	2.032883
247	0x3f019811	0.5062266
248	0x3c71cd9c	0.014758494
249	0x3b795f7a	0.0038051293
250	0xbf0c6aa3	-0.54850215
251	0xbf83d0a1	-1.0298043
252	0x3e21ce1b	0.15801279
253	0xbe29ba2e	-0.16574928
254	0x3f55050d	0.8321083
255	0xbf2ee7c9	-0.68322426

arr_6 f4 [2, 64]
0	0xbccc0642	-0.024905328
1	0xbd5690fb	-0.052384358
2	0x3d9037cc	0.070418924
3	0x3d5c611b	0.053803544
4	0xbab01b9f	-0.0013435966
5	0x3c8232d0	0.01589337
6	0x3cd9bea0	0.026580155
7	0x3e801c21	0.2502146
8	0xbcbd8e7b	-0.023139229
9	0x3c0dcce4	0.008654807
10	0xbb7d0895	-0.0038609852
11	0x3d9be5cc	0.0761219
12	0xbe383b3d	-0.17991348
13	0xbd98abc3	-0.07454636
14	0x3c39c21d	0.011337784
15	0xbd090751	-0.033454243
16	0xbb8509fb	-0.0040600277
17	0xbcc405be	-0.02392852
18	0xbd0efbd4	-0.03490813
19	0xbe519fa4	-0.20471054
20	0xbe1bdfd6	-0.15222105
21	0x3cf8e340	0.030381799
22	0xbca85a57	-0.02055089
23	0xbc670560	-0.014100403
24	0xbccd5a30	-0.025067419
25	0xbd5f6cf0	-0.05454725
26	0x3c33d51e	0.010976104
27	0xbd5fb7c0	-0.054618597
28	0xbc6f930d	-0.014622462
29	0x3d385e2c	0.045011684
30	0x3c9fe671	0.019519063
31	0x3dc8c2eb	0.09802803
32	0xbd9ec81d	-0.07753012
33	0x3d9ffea4	0.07812241
34	0xbaee4ed9	-0.0018181457
35	0x3ba48a06	0.0050213365
36	0x3d408794	0.047004297
37	0xbcd5eb35	-0.026113132
38	0x3e05951f	0.13045166
39	0xbde40732	-0.11134185
40	0x3c870160	0.016480148
41	0xba7ff3f4	-0.000976383
42	0x3b94fe52	0.004546919
43	0xbc70352e	-0.0146611165
44	0x3bf0003b	0.007324246
45	0x3ced9a73	0.029004311
46	0xbdf2eca2	-0.118615404
47	0xbb9656ed	-0.004587999
48	0xbe80672a	-0.25078708
49	0xbd887492	-0.06662859
50	0x3de59cb1	0.11211527
51	0xbde7a6e8	-0.11311132
52	0xbc307f49	-0.010772535
53	0xbbb0a833	-0.0053911447
54	0x3c3a01f6	0.011353007
55	0xbe230609	-0.15920271
56	0x3b2c84f0	0.0026324354
57	0x3c210dca	0.009829948
58	0xbe0906b7	-0.13381468
59	0xbe72b706	-0.2370263
60	0xbc4ec975	-0.012621273
61	0xbc9d1c60	-0.01917857
62	0xbc8981a6	-0.016785454
63	0x3c235ccf	0.009970858
64	0x3ccbfa7f	0.02489972
65	0x3d430438	0.047611445
66	0xbd90edf5	-0.07076637
67	0x3da6b5f4	0.081401736
68	0x3ab09b40	0.0013474002
69	0xbc822e9c	-0.015891366
70	0xbd6fa74f	-0.058509167
71	0x3da088ce	0.078385934
72	0xbcea2fbd	-0.028587217
73	0xbc0dd7dd	-0.008657423
74	0x3b7d17e8	0.0038618986
75	0x3dd87cfa	0.105707124
76	0x3ca32c10	0.019918472
77	0x3dd3f477	0.10349362
78	0xbc39c5a9	-0.01133863
79	0x3c6806f6	0.014161816
80	0x3b84ea4d	0.004056251
81	0x3cc40716	0.02392916
82	0x3d0f2722	0.03494943
83	0xbd9da807	-0.07698064
84	0xbe829602	-0.25505072
85	0xbcf90086	-0.030395757
86	0x3ca82bbe	0.02052867
87	0x3c67262d	0.014108223
88	0xbe16dc0d	-0.1473238
89	0xbcf98714	-0.030459918
90	0xbc34c83c	-0.011034068
91	0x3ace5ebb	0.0015744785
92	0x3c6fff77	0.01464831
93	0xbd382f54	-0.04496701
94	0xbc95d337	-0.018289192
95	0xbdb5ec7e	-0.08882998
96	0xbcda7f0f	-0.026671914
97	0xbd946f72	-0.07247819
98	0x3aea3115	0.0017867411
99	0xbb81ee57	-0.00396518
100	0xbd408853	-0.04700501
101	0xbbb3fce4	-0.0054927934
102	0x3db00fd6	0.085967705
103	0x3de3bc5e	0.111199126
104	0xbc871454	-0.016489185
105	0x3aa6ec95	0.0012735302
106	0xbb940a5a	-0.0045178356
107	0x3c7165bd	0.014733729
108	0xbbefd09a	-0.0073185684
109	0x3d0e9323	0.03480829
110	0x3dbb85cf	0.09156381
111	0x3b965084	0.004587235
112	0xbd602348	-0.054721147
113	0xbd37aef6	-0.04484459
114	0xbdd5960e	-0.10429011
115	0x3deab163	0.11459615
116	0x3c305482	0.010762336
117	0x3be0b220	0.0068571717
118	0xbc38c59a	-0.011277581
119	0x3b9bd6d7	0.0047558355
120	0xbb2fc821	-0.0026822167
121	0xbc1bff10	-0.009521261
122	0xbd8e59e2	-0.069507375
123	0xbe557081	-0.20843698
124	0x3c4ebc18	0.012618087
125	0xbc13c0bd	-0.00901812
126	0x3c89954b	0.016794821
127	0xbc2364a8	-0.009972729

arr_7 f4 [4, 1, 1, 16]
0	0xbf1d78bf	-0.6151237
1	0xbf0dd6ec	-0.5540607
2	0xbe62140e	-0.22077963
3	0xbf2887ab	-0.6583201
4	0xbc9b7f5b	-0.018981626
5	0x3f1301d3	0.5742466
6	0xbf12122d	-0.57058984
7	0x3fc48ef7	1.535613
8	0x3f8f5e82	1.1200716
9	0x3e1906e9	0.14944042
10	0xbeb8386f	-0.35980555
11	0xbf28361b	-0.6570756
12	0xbf529e1f	-0.82272524
13	0xbe0803d7	-0.13282715
14	0x3fbc1276	1.4693134
15	0x3fbf445b	1.4942735
16	0xbddd49ab	-0.10805067
17	0xbea3ffe2	-0.3203116
18	0x3d2f76ed	0.042838026
19	0xbdb81127	-0.089876465
20	0xbe5f1df3	-0.21788768
21	0x3eaeafbb	0.34118447
22	0x3e2cf3a0	0.1688981
23	0x3fb7f644	1.4372029
24	0x3f416c92	0.7555629
25	0x3f107043	0.564213
26	0xbeba0dfc	-0.36338794
27	0xbdf9ec16	-0.12203233
28	0xbc0d3bba	-0.008620197
29	0x3d6a8054	0.05725129
30	0x3f0357b3	0.51305693
31	0x3f51f6e5	0.82017356
32	0x3e754fec	0.23956269
33	0x3ed9029d	0.42384806
34	0x3d927c32	0.071525946
35	0x3ed99820	0.42498875
36	0x3e522326	0.2052122
37	0x3f83fbf3	1.0311264
38	0x3e78ccfa	0.24296942
39	0x3f721352	0.9456073
40	0xbd18e191	-0.037324492
41	0x3f5ab074	0.85425496
42	0x3e4b6012	0.19860867
43	0x3ed51786	0.4161951
44	0x3efa35cb	0.48869166
45	0x3e25a513	0.16176252
46	0x3df0fde4	0.11767176
47	0x3e7ce812	0.24697903
48	0x3f99c675	1.2013689
49	0x3f8a884a	1.0822842
50	0xbdb79ca1	-0.089654215
51	0x3f201c02	0.62542737
52	0xbe133f59	-0.14379634
53	0x400288e0	2.0396042
54	0x3f080fde	0.5314921
55	0x3f326b1d	0.6969469
56	0xbf3d77fe	-0.7401122
57	0x3f937f61	1.1523248
58	0x3f08a25b	0.53372735
59	0x3f83dd38	1.0301886
60	0x3f90ba3d	1.1306835
61	0xbe70deee	-0.23522541
62	0xbf3171a8	-0.6931405
63	0xbf210fe5	-0.6291488

arr_8 f4 [2, 1]
0	0x3f0b32cf	0.543744
1	0x3ee9a11a	0.45630723
